<?xml version="1.0"?>
<net name="mobilenet_ssd_672x384" version="6" batch="1">
	<layers>
		<layer name="data" type="Input" precision="FP32" id="0">
			<output>
				<port id="0">
					<dim>1</dim>
					<dim>3</dim>
					<dim>384</dim>
					<dim>672</dim>
				</port>
			</output>
		</layer>
		<layer name="Mul_/Fused_Mul_/FusedScaleShift_" type="ScaleShift" precision="FP32" id="1">
			<data broadcast="0" />
			<input>
				<port id="0">
					<dim>1</dim>
					<dim>3</dim>
					<dim>384</dim>
					<dim>672</dim>
				</port>
			</input>
			<output>
				<port id="1">
					<dim>1</dim>
					<dim>3</dim>
					<dim>384</dim>
					<dim>672</dim>
				</port>
			</output>
			<blobs>
				<biases offset="0" size="12" />
				<weights offset="12" size="12" />
			</blobs>
		</layer>
		<layer name="conv1" type="Convolution" precision="FP32" id="2">
			<data dilations="1,1" group="1" kernel="3,3" output="24" pads_begin="1,1" pads_end="1,1" quantization_level="I8" strides="2,2" />
			<input>
				<port id="0">
					<dim>1</dim>
					<dim>3</dim>
					<dim>384</dim>
					<dim>672</dim>
				</port>
			</input>
			<output>
				<port id="1">
					<dim>1</dim>
					<dim>24</dim>
					<dim>192</dim>
					<dim>336</dim>
				</port>
			</output>
			<blobs>
				<biases offset="24" size="96" />
				<weights offset="120" size="2592" />
			</blobs>
		</layer>
		<layer name="relu1" type="ReLU" precision="FP32" id="3">
			<input>
				<port id="0">
					<dim>1</dim>
					<dim>24</dim>
					<dim>192</dim>
					<dim>336</dim>
				</port>
			</input>
			<output>
				<port id="1">
					<dim>1</dim>
					<dim>24</dim>
					<dim>192</dim>
					<dim>336</dim>
				</port>
			</output>
		</layer>
		<layer name="conv2_1/dw" type="Convolution" precision="FP32" id="4">
			<data dilations="1,1" group="24" kernel="3,3" output="24" pads_begin="1,1" pads_end="1,1" quantization_level="I8" strides="1,1" />
			<input>
				<port id="0">
					<dim>1</dim>
					<dim>24</dim>
					<dim>192</dim>
					<dim>336</dim>
				</port>
			</input>
			<output>
				<port id="1">
					<dim>1</dim>
					<dim>24</dim>
					<dim>192</dim>
					<dim>336</dim>
				</port>
			</output>
			<blobs>
				<biases offset="2712" size="96" />
				<weights offset="2808" size="864" />
			</blobs>
		</layer>
		<layer name="relu2_1/dw" type="ReLU" precision="FP32" id="5">
			<input>
				<port id="0">
					<dim>1</dim>
					<dim>24</dim>
					<dim>192</dim>
					<dim>336</dim>
				</port>
			</input>
			<output>
				<port id="1">
					<dim>1</dim>
					<dim>24</dim>
					<dim>192</dim>
					<dim>336</dim>
				</port>
			</output>
		</layer>
		<layer name="conv2_1/sep" type="Convolution" precision="FP32" id="6">
			<data dilations="1,1" group="1" kernel="1,1" output="56" pads_begin="0,0" pads_end="0,0" quantization_level="I8" strides="1,1" />
			<input>
				<port id="0">
					<dim>1</dim>
					<dim>24</dim>
					<dim>192</dim>
					<dim>336</dim>
				</port>
			</input>
			<output>
				<port id="1">
					<dim>1</dim>
					<dim>56</dim>
					<dim>192</dim>
					<dim>336</dim>
				</port>
			</output>
			<blobs>
				<biases offset="3672" size="224" />
				<weights offset="3896" size="5376" />
			</blobs>
		</layer>
		<layer name="relu2_1/sep" type="ReLU" precision="FP32" id="7">
			<input>
				<port id="0">
					<dim>1</dim>
					<dim>56</dim>
					<dim>192</dim>
					<dim>336</dim>
				</port>
			</input>
			<output>
				<port id="1">
					<dim>1</dim>
					<dim>56</dim>
					<dim>192</dim>
					<dim>336</dim>
				</port>
			</output>
		</layer>
		<layer name="conv2_2/dw" type="Convolution" precision="FP32" id="8">
			<data dilations="1,1" group="56" kernel="3,3" output="56" pads_begin="1,1" pads_end="1,1" quantization_level="I8" strides="2,2" />
			<input>
				<port id="0">
					<dim>1</dim>
					<dim>56</dim>
					<dim>192</dim>
					<dim>336</dim>
				</port>
			</input>
			<output>
				<port id="1">
					<dim>1</dim>
					<dim>56</dim>
					<dim>96</dim>
					<dim>168</dim>
				</port>
			</output>
			<blobs>
				<biases offset="9272" size="224" />
				<weights offset="9496" size="2016" />
			</blobs>
		</layer>
		<layer name="relu2_2/dw" type="ReLU" precision="FP32" id="9">
			<input>
				<port id="0">
					<dim>1</dim>
					<dim>56</dim>
					<dim>96</dim>
					<dim>168</dim>
				</port>
			</input>
			<output>
				<port id="1">
					<dim>1</dim>
					<dim>56</dim>
					<dim>96</dim>
					<dim>168</dim>
				</port>
			</output>
		</layer>
		<layer name="conv2_2/sep" type="Convolution" precision="FP32" id="10">
			<data dilations="1,1" group="1" kernel="1,1" output="104" pads_begin="0,0" pads_end="0,0" quantization_level="I8" strides="1,1" />
			<input>
				<port id="0">
					<dim>1</dim>
					<dim>56</dim>
					<dim>96</dim>
					<dim>168</dim>
				</port>
			</input>
			<output>
				<port id="1">
					<dim>1</dim>
					<dim>104</dim>
					<dim>96</dim>
					<dim>168</dim>
				</port>
			</output>
			<blobs>
				<biases offset="11512" size="416" />
				<weights offset="11928" size="23296" />
			</blobs>
		</layer>
		<layer name="relu2_2/sep" type="ReLU" precision="FP32" id="11">
			<input>
				<port id="0">
					<dim>1</dim>
					<dim>104</dim>
					<dim>96</dim>
					<dim>168</dim>
				</port>
			</input>
			<output>
				<port id="1">
					<dim>1</dim>
					<dim>104</dim>
					<dim>96</dim>
					<dim>168</dim>
				</port>
			</output>
		</layer>
		<layer name="conv3_1/dw" type="Convolution" precision="FP32" id="12">
			<data dilations="1,1" group="104" kernel="3,3" output="104" pads_begin="1,1" pads_end="1,1" quantization_level="FP32" strides="1,1" />
			<input>
				<port id="0">
					<dim>1</dim>
					<dim>104</dim>
					<dim>96</dim>
					<dim>168</dim>
				</port>
			</input>
			<output>
				<port id="1">
					<dim>1</dim>
					<dim>104</dim>
					<dim>96</dim>
					<dim>168</dim>
				</port>
			</output>
			<blobs>
				<biases offset="35224" size="416" />
				<weights offset="35640" size="3744" />
			</blobs>
		</layer>
		<layer name="relu3_1/dw" type="ReLU" precision="FP32" id="13">
			<input>
				<port id="0">
					<dim>1</dim>
					<dim>104</dim>
					<dim>96</dim>
					<dim>168</dim>
				</port>
			</input>
			<output>
				<port id="1">
					<dim>1</dim>
					<dim>104</dim>
					<dim>96</dim>
					<dim>168</dim>
				</port>
			</output>
		</layer>
		<layer name="conv3_1/sep" type="Convolution" precision="FP32" id="14">
			<data dilations="1,1" group="1" kernel="1,1" output="120" pads_begin="0,0" pads_end="0,0" quantization_level="I8" strides="1,1" />
			<input>
				<port id="0">
					<dim>1</dim>
					<dim>104</dim>
					<dim>96</dim>
					<dim>168</dim>
				</port>
			</input>
			<output>
				<port id="1">
					<dim>1</dim>
					<dim>120</dim>
					<dim>96</dim>
					<dim>168</dim>
				</port>
			</output>
			<blobs>
				<biases offset="39384" size="480" />
				<weights offset="39864" size="49920" />
			</blobs>
		</layer>
		<layer name="relu3_1/sep" type="ReLU" precision="FP32" id="15">
			<input>
				<port id="0">
					<dim>1</dim>
					<dim>120</dim>
					<dim>96</dim>
					<dim>168</dim>
				</port>
			</input>
			<output>
				<port id="1">
					<dim>1</dim>
					<dim>120</dim>
					<dim>96</dim>
					<dim>168</dim>
				</port>
			</output>
		</layer>
		<layer name="conv3_2/dw" type="Convolution" precision="FP32" id="16">
			<data dilations="1,1" group="120" kernel="3,3" output="120" pads_begin="1,1" pads_end="1,1" quantization_level="FP32" strides="2,2" />
			<input>
				<port id="0">
					<dim>1</dim>
					<dim>120</dim>
					<dim>96</dim>
					<dim>168</dim>
				</port>
			</input>
			<output>
				<port id="1">
					<dim>1</dim>
					<dim>120</dim>
					<dim>48</dim>
					<dim>84</dim>
				</port>
			</output>
			<blobs>
				<biases offset="89784" size="480" />
				<weights offset="90264" size="4320" />
			</blobs>
		</layer>
		<layer name="relu3_2/dw" type="ReLU" precision="FP32" id="17">
			<input>
				<port id="0">
					<dim>1</dim>
					<dim>120</dim>
					<dim>48</dim>
					<dim>84</dim>
				</port>
			</input>
			<output>
				<port id="1">
					<dim>1</dim>
					<dim>120</dim>
					<dim>48</dim>
					<dim>84</dim>
				</port>
			</output>
		</layer>
		<layer name="conv3_2/sep" type="Convolution" precision="FP32" id="18">
			<data dilations="1,1" group="1" kernel="1,1" output="232" pads_begin="0,0" pads_end="0,0" quantization_level="I8" strides="1,1" />
			<input>
				<port id="0">
					<dim>1</dim>
					<dim>120</dim>
					<dim>48</dim>
					<dim>84</dim>
				</port>
			</input>
			<output>
				<port id="1">
					<dim>1</dim>
					<dim>232</dim>
					<dim>48</dim>
					<dim>84</dim>
				</port>
			</output>
			<blobs>
				<biases offset="94584" size="928" />
				<weights offset="95512" size="111360" />
			</blobs>
		</layer>
		<layer name="relu3_2/sep" type="ReLU" precision="FP32" id="19">
			<input>
				<port id="0">
					<dim>1</dim>
					<dim>232</dim>
					<dim>48</dim>
					<dim>84</dim>
				</port>
			</input>
			<output>
				<port id="1">
					<dim>1</dim>
					<dim>232</dim>
					<dim>48</dim>
					<dim>84</dim>
				</port>
			</output>
		</layer>
		<layer name="conv4_1/dw" type="Convolution" precision="FP32" id="20">
			<data dilations="1,1" group="232" kernel="3,3" output="232" pads_begin="1,1" pads_end="1,1" quantization_level="FP32" strides="1,1" />
			<input>
				<port id="0">
					<dim>1</dim>
					<dim>232</dim>
					<dim>48</dim>
					<dim>84</dim>
				</port>
			</input>
			<output>
				<port id="1">
					<dim>1</dim>
					<dim>232</dim>
					<dim>48</dim>
					<dim>84</dim>
				</port>
			</output>
			<blobs>
				<biases offset="206872" size="928" />
				<weights offset="207800" size="8352" />
			</blobs>
		</layer>
		<layer name="relu4_1/dw" type="ReLU" precision="FP32" id="21">
			<input>
				<port id="0">
					<dim>1</dim>
					<dim>232</dim>
					<dim>48</dim>
					<dim>84</dim>
				</port>
			</input>
			<output>
				<port id="1">
					<dim>1</dim>
					<dim>232</dim>
					<dim>48</dim>
					<dim>84</dim>
				</port>
			</output>
		</layer>
		<layer name="conv4_1/sep" type="Convolution" precision="FP32" id="22">
			<data dilations="1,1" group="1" kernel="1,1" output="232" pads_begin="0,0" pads_end="0,0" quantization_level="I8" strides="1,1" />
			<input>
				<port id="0">
					<dim>1</dim>
					<dim>232</dim>
					<dim>48</dim>
					<dim>84</dim>
				</port>
			</input>
			<output>
				<port id="1">
					<dim>1</dim>
					<dim>232</dim>
					<dim>48</dim>
					<dim>84</dim>
				</port>
			</output>
			<blobs>
				<biases offset="216152" size="928" />
				<weights offset="217080" size="215296" />
			</blobs>
		</layer>
		<layer name="relu4_1/sep" type="ReLU" precision="FP32" id="23">
			<input>
				<port id="0">
					<dim>1</dim>
					<dim>232</dim>
					<dim>48</dim>
					<dim>84</dim>
				</port>
			</input>
			<output>
				<port id="1">
					<dim>1</dim>
					<dim>232</dim>
					<dim>48</dim>
					<dim>84</dim>
				</port>
			</output>
		</layer>
		<layer name="conv4_2/dw" type="Convolution" precision="FP32" id="24">
			<data dilations="1,1" group="232" kernel="3,3" output="232" pads_begin="1,1" pads_end="1,1" quantization_level="FP32" strides="2,2" />
			<input>
				<port id="0">
					<dim>1</dim>
					<dim>232</dim>
					<dim>48</dim>
					<dim>84</dim>
				</port>
			</input>
			<output>
				<port id="1">
					<dim>1</dim>
					<dim>232</dim>
					<dim>24</dim>
					<dim>42</dim>
				</port>
			</output>
			<blobs>
				<biases offset="432376" size="928" />
				<weights offset="433304" size="8352" />
			</blobs>
		</layer>
		<layer name="relu4_2/dw" type="ReLU" precision="FP32" id="25">
			<input>
				<port id="0">
					<dim>1</dim>
					<dim>232</dim>
					<dim>24</dim>
					<dim>42</dim>
				</port>
			</input>
			<output>
				<port id="1">
					<dim>1</dim>
					<dim>232</dim>
					<dim>24</dim>
					<dim>42</dim>
				</port>
			</output>
		</layer>
		<layer name="conv4_2/sep" type="Convolution" precision="FP32" id="26">
			<data dilations="1,1" group="1" kernel="1,1" output="360" pads_begin="0,0" pads_end="0,0" quantization_level="I8" strides="1,1" />
			<input>
				<port id="0">
					<dim>1</dim>
					<dim>232</dim>
					<dim>24</dim>
					<dim>42</dim>
				</port>
			</input>
			<output>
				<port id="1">
					<dim>1</dim>
					<dim>360</dim>
					<dim>24</dim>
					<dim>42</dim>
				</port>
			</output>
			<blobs>
				<biases offset="441656" size="1440" />
				<weights offset="443096" size="334080" />
			</blobs>
		</layer>
		<layer name="relu4_2/sep" type="ReLU" precision="FP32" id="27">
			<input>
				<port id="0">
					<dim>1</dim>
					<dim>360</dim>
					<dim>24</dim>
					<dim>42</dim>
				</port>
			</input>
			<output>
				<port id="1">
					<dim>1</dim>
					<dim>360</dim>
					<dim>24</dim>
					<dim>42</dim>
				</port>
			</output>
		</layer>
		<layer name="conv5_1/dw" type="Convolution" precision="FP32" id="28">
			<data dilations="1,1" group="360" kernel="3,3" output="360" pads_begin="1,1" pads_end="1,1" quantization_level="FP32" strides="1,1" />
			<input>
				<port id="0">
					<dim>1</dim>
					<dim>360</dim>
					<dim>24</dim>
					<dim>42</dim>
				</port>
			</input>
			<output>
				<port id="1">
					<dim>1</dim>
					<dim>360</dim>
					<dim>24</dim>
					<dim>42</dim>
				</port>
			</output>
			<blobs>
				<biases offset="777176" size="1440" />
				<weights offset="778616" size="12960" />
			</blobs>
		</layer>
		<layer name="relu5_1/dw" type="ReLU" precision="FP32" id="29">
			<input>
				<port id="0">
					<dim>1</dim>
					<dim>360</dim>
					<dim>24</dim>
					<dim>42</dim>
				</port>
			</input>
			<output>
				<port id="1">
					<dim>1</dim>
					<dim>360</dim>
					<dim>24</dim>
					<dim>42</dim>
				</port>
			</output>
		</layer>
		<layer name="conv5_1/sep" type="Convolution" precision="FP32" id="30">
			<data dilations="1,1" group="1" kernel="1,1" output="328" pads_begin="0,0" pads_end="0,0" quantization_level="I8" strides="1,1" />
			<input>
				<port id="0">
					<dim>1</dim>
					<dim>360</dim>
					<dim>24</dim>
					<dim>42</dim>
				</port>
			</input>
			<output>
				<port id="1">
					<dim>1</dim>
					<dim>328</dim>
					<dim>24</dim>
					<dim>42</dim>
				</port>
			</output>
			<blobs>
				<biases offset="791576" size="1312" />
				<weights offset="792888" size="472320" />
			</blobs>
		</layer>
		<layer name="relu5_1/sep" type="ReLU" precision="FP32" id="31">
			<input>
				<port id="0">
					<dim>1</dim>
					<dim>328</dim>
					<dim>24</dim>
					<dim>42</dim>
				</port>
			</input>
			<output>
				<port id="1">
					<dim>1</dim>
					<dim>328</dim>
					<dim>24</dim>
					<dim>42</dim>
				</port>
			</output>
		</layer>
		<layer name="conv5_2/dw" type="Convolution" precision="FP32" id="32">
			<data dilations="1,1" group="328" kernel="3,3" output="328" pads_begin="1,1" pads_end="1,1" quantization_level="FP32" strides="1,1" />
			<input>
				<port id="0">
					<dim>1</dim>
					<dim>328</dim>
					<dim>24</dim>
					<dim>42</dim>
				</port>
			</input>
			<output>
				<port id="1">
					<dim>1</dim>
					<dim>328</dim>
					<dim>24</dim>
					<dim>42</dim>
				</port>
			</output>
			<blobs>
				<biases offset="1265208" size="1312" />
				<weights offset="1266520" size="11808" />
			</blobs>
		</layer>
		<layer name="relu5_2/dw" type="ReLU" precision="FP32" id="33">
			<input>
				<port id="0">
					<dim>1</dim>
					<dim>328</dim>
					<dim>24</dim>
					<dim>42</dim>
				</port>
			</input>
			<output>
				<port id="1">
					<dim>1</dim>
					<dim>328</dim>
					<dim>24</dim>
					<dim>42</dim>
				</port>
			</output>
		</layer>
		<layer name="conv5_2/sep" type="Convolution" precision="FP32" id="34">
			<data dilations="1,1" group="1" kernel="1,1" output="304" pads_begin="0,0" pads_end="0,0" quantization_level="I8" strides="1,1" />
			<input>
				<port id="0">
					<dim>1</dim>
					<dim>328</dim>
					<dim>24</dim>
					<dim>42</dim>
				</port>
			</input>
			<output>
				<port id="1">
					<dim>1</dim>
					<dim>304</dim>
					<dim>24</dim>
					<dim>42</dim>
				</port>
			</output>
			<blobs>
				<biases offset="1278328" size="1216" />
				<weights offset="1279544" size="398848" />
			</blobs>
		</layer>
		<layer name="relu5_2/sep" type="ReLU" precision="FP32" id="35">
			<input>
				<port id="0">
					<dim>1</dim>
					<dim>304</dim>
					<dim>24</dim>
					<dim>42</dim>
				</port>
			</input>
			<output>
				<port id="1">
					<dim>1</dim>
					<dim>304</dim>
					<dim>24</dim>
					<dim>42</dim>
				</port>
			</output>
		</layer>
		<layer name="conv5_3/dw" type="Convolution" precision="FP32" id="36">
			<data dilations="1,1" group="304" kernel="3,3" output="304" pads_begin="1,1" pads_end="1,1" quantization_level="I8" strides="1,1" />
			<input>
				<port id="0">
					<dim>1</dim>
					<dim>304</dim>
					<dim>24</dim>
					<dim>42</dim>
				</port>
			</input>
			<output>
				<port id="1">
					<dim>1</dim>
					<dim>304</dim>
					<dim>24</dim>
					<dim>42</dim>
				</port>
			</output>
			<blobs>
				<biases offset="1678392" size="1216" />
				<weights offset="1679608" size="10944" />
			</blobs>
		</layer>
		<layer name="relu5_3/dw" type="ReLU" precision="FP32" id="37">
			<input>
				<port id="0">
					<dim>1</dim>
					<dim>304</dim>
					<dim>24</dim>
					<dim>42</dim>
				</port>
			</input>
			<output>
				<port id="1">
					<dim>1</dim>
					<dim>304</dim>
					<dim>24</dim>
					<dim>42</dim>
				</port>
			</output>
		</layer>
		<layer name="conv5_3/sep" type="Convolution" precision="FP32" id="38">
			<data dilations="1,1" group="1" kernel="1,1" output="248" pads_begin="0,0" pads_end="0,0" quantization_level="I8" strides="1,1" />
			<input>
				<port id="0">
					<dim>1</dim>
					<dim>304</dim>
					<dim>24</dim>
					<dim>42</dim>
				</port>
			</input>
			<output>
				<port id="1">
					<dim>1</dim>
					<dim>248</dim>
					<dim>24</dim>
					<dim>42</dim>
				</port>
			</output>
			<blobs>
				<biases offset="1690552" size="992" />
				<weights offset="1691544" size="301568" />
			</blobs>
		</layer>
		<layer name="relu5_3/sep" type="ReLU" precision="FP32" id="39">
			<input>
				<port id="0">
					<dim>1</dim>
					<dim>248</dim>
					<dim>24</dim>
					<dim>42</dim>
				</port>
			</input>
			<output>
				<port id="1">
					<dim>1</dim>
					<dim>248</dim>
					<dim>24</dim>
					<dim>42</dim>
				</port>
			</output>
		</layer>
		<layer name="conv5_4/dw" type="Convolution" precision="FP32" id="40">
			<data dilations="1,1" group="248" kernel="3,3" output="248" pads_begin="1,1" pads_end="1,1" quantization_level="FP32" strides="1,1" />
			<input>
				<port id="0">
					<dim>1</dim>
					<dim>248</dim>
					<dim>24</dim>
					<dim>42</dim>
				</port>
			</input>
			<output>
				<port id="1">
					<dim>1</dim>
					<dim>248</dim>
					<dim>24</dim>
					<dim>42</dim>
				</port>
			</output>
			<blobs>
				<biases offset="1993112" size="992" />
				<weights offset="1994104" size="8928" />
			</blobs>
		</layer>
		<layer name="relu5_4/dw" type="ReLU" precision="FP32" id="41">
			<input>
				<port id="0">
					<dim>1</dim>
					<dim>248</dim>
					<dim>24</dim>
					<dim>42</dim>
				</port>
			</input>
			<output>
				<port id="1">
					<dim>1</dim>
					<dim>248</dim>
					<dim>24</dim>
					<dim>42</dim>
				</port>
			</output>
		</layer>
		<layer name="conv5_4/sep" type="Convolution" precision="FP32" id="42">
			<data dilations="1,1" group="1" kernel="1,1" output="224" pads_begin="0,0" pads_end="0,0" quantization_level="I8" strides="1,1" />
			<input>
				<port id="0">
					<dim>1</dim>
					<dim>248</dim>
					<dim>24</dim>
					<dim>42</dim>
				</port>
			</input>
			<output>
				<port id="1">
					<dim>1</dim>
					<dim>224</dim>
					<dim>24</dim>
					<dim>42</dim>
				</port>
			</output>
			<blobs>
				<biases offset="2003032" size="896" />
				<weights offset="2003928" size="222208" />
			</blobs>
		</layer>
		<layer name="relu5_4/sep" type="ReLU" precision="FP32" id="43">
			<input>
				<port id="0">
					<dim>1</dim>
					<dim>224</dim>
					<dim>24</dim>
					<dim>42</dim>
				</port>
			</input>
			<output>
				<port id="1">
					<dim>1</dim>
					<dim>224</dim>
					<dim>24</dim>
					<dim>42</dim>
				</port>
			</output>
		</layer>
		<layer name="conv5_5/dw" type="Convolution" precision="FP32" id="44">
			<data dilations="1,1" group="224" kernel="3,3" output="224" pads_begin="1,1" pads_end="1,1" quantization_level="I8" strides="1,1" />
			<input>
				<port id="0">
					<dim>1</dim>
					<dim>224</dim>
					<dim>24</dim>
					<dim>42</dim>
				</port>
			</input>
			<output>
				<port id="1">
					<dim>1</dim>
					<dim>224</dim>
					<dim>24</dim>
					<dim>42</dim>
				</port>
			</output>
			<blobs>
				<biases offset="2226136" size="896" />
				<weights offset="2227032" size="8064" />
			</blobs>
		</layer>
		<layer name="relu5_5/dw" type="ReLU" precision="FP32" id="45">
			<input>
				<port id="0">
					<dim>1</dim>
					<dim>224</dim>
					<dim>24</dim>
					<dim>42</dim>
				</port>
			</input>
			<output>
				<port id="1">
					<dim>1</dim>
					<dim>224</dim>
					<dim>24</dim>
					<dim>42</dim>
				</port>
			</output>
		</layer>
		<layer name="conv5_5/sep" type="Convolution" precision="FP32" id="46">
			<data dilations="1,1" group="1" kernel="1,1" output="184" pads_begin="0,0" pads_end="0,0" quantization_level="I8" strides="1,1" />
			<input>
				<port id="0">
					<dim>1</dim>
					<dim>224</dim>
					<dim>24</dim>
					<dim>42</dim>
				</port>
			</input>
			<output>
				<port id="1">
					<dim>1</dim>
					<dim>184</dim>
					<dim>24</dim>
					<dim>42</dim>
				</port>
			</output>
			<blobs>
				<biases offset="2235096" size="736" />
				<weights offset="2235832" size="164864" />
			</blobs>
		</layer>
		<layer name="relu5_5/sep" type="ReLU" precision="FP32" id="47">
			<input>
				<port id="0">
					<dim>1</dim>
					<dim>184</dim>
					<dim>24</dim>
					<dim>42</dim>
				</port>
			</input>
			<output>
				<port id="1">
					<dim>1</dim>
					<dim>184</dim>
					<dim>24</dim>
					<dim>42</dim>
				</port>
			</output>
		</layer>
		<layer name="conv5_6/dw" type="Convolution" precision="FP32" id="48">
			<data dilations="1,1" group="184" kernel="3,3" output="184" pads_begin="1,1" pads_end="1,1" quantization_level="I8" strides="2,2" />
			<input>
				<port id="0">
					<dim>1</dim>
					<dim>184</dim>
					<dim>24</dim>
					<dim>42</dim>
				</port>
			</input>
			<output>
				<port id="1">
					<dim>1</dim>
					<dim>184</dim>
					<dim>12</dim>
					<dim>21</dim>
				</port>
			</output>
			<blobs>
				<biases offset="2400696" size="736" />
				<weights offset="2401432" size="6624" />
			</blobs>
		</layer>
		<layer name="relu5_6/dw" type="ReLU" precision="FP32" id="49">
			<input>
				<port id="0">
					<dim>1</dim>
					<dim>184</dim>
					<dim>12</dim>
					<dim>21</dim>
				</port>
			</input>
			<output>
				<port id="1">
					<dim>1</dim>
					<dim>184</dim>
					<dim>12</dim>
					<dim>21</dim>
				</port>
			</output>
		</layer>
		<layer name="conv5_6/sep" type="Convolution" precision="FP32" id="50">
			<data dilations="1,1" group="1" kernel="1,1" output="224" pads_begin="0,0" pads_end="0,0" quantization_level="I8" strides="1,1" />
			<input>
				<port id="0">
					<dim>1</dim>
					<dim>184</dim>
					<dim>12</dim>
					<dim>21</dim>
				</port>
			</input>
			<output>
				<port id="1">
					<dim>1</dim>
					<dim>224</dim>
					<dim>12</dim>
					<dim>21</dim>
				</port>
			</output>
			<blobs>
				<biases offset="2408056" size="896" />
				<weights offset="2408952" size="164864" />
			</blobs>
		</layer>
		<layer name="relu5_6/sep" type="ReLU" precision="FP32" id="51">
			<input>
				<port id="0">
					<dim>1</dim>
					<dim>224</dim>
					<dim>12</dim>
					<dim>21</dim>
				</port>
			</input>
			<output>
				<port id="1">
					<dim>1</dim>
					<dim>224</dim>
					<dim>12</dim>
					<dim>21</dim>
				</port>
			</output>
		</layer>
		<layer name="conv6/dw" type="Convolution" precision="FP32" id="52">
			<data dilations="1,1" group="224" kernel="3,3" output="224" pads_begin="1,1" pads_end="1,1" quantization_level="I8" strides="1,1" />
			<input>
				<port id="0">
					<dim>1</dim>
					<dim>224</dim>
					<dim>12</dim>
					<dim>21</dim>
				</port>
			</input>
			<output>
				<port id="1">
					<dim>1</dim>
					<dim>224</dim>
					<dim>12</dim>
					<dim>21</dim>
				</port>
			</output>
			<blobs>
				<biases offset="2573816" size="896" />
				<weights offset="2574712" size="8064" />
			</blobs>
		</layer>
		<layer name="relu6/dw" type="ReLU" precision="FP32" id="53">
			<input>
				<port id="0">
					<dim>1</dim>
					<dim>224</dim>
					<dim>12</dim>
					<dim>21</dim>
				</port>
			</input>
			<output>
				<port id="1">
					<dim>1</dim>
					<dim>224</dim>
					<dim>12</dim>
					<dim>21</dim>
				</port>
			</output>
		</layer>
		<layer name="conv6/sep" type="Convolution" precision="FP32" id="54">
			<data dilations="1,1" group="1" kernel="1,1" output="128" pads_begin="0,0" pads_end="0,0" quantization_level="I8" strides="1,1" />
			<input>
				<port id="0">
					<dim>1</dim>
					<dim>224</dim>
					<dim>12</dim>
					<dim>21</dim>
				</port>
			</input>
			<output>
				<port id="1">
					<dim>1</dim>
					<dim>128</dim>
					<dim>12</dim>
					<dim>21</dim>
				</port>
			</output>
			<blobs>
				<biases offset="2582776" size="512" />
				<weights offset="2583288" size="114688" />
			</blobs>
		</layer>
		<layer name="relu6/sep" type="ReLU" precision="FP32" id="55">
			<input>
				<port id="0">
					<dim>1</dim>
					<dim>128</dim>
					<dim>12</dim>
					<dim>21</dim>
				</port>
			</input>
			<output>
				<port id="1">
					<dim>1</dim>
					<dim>128</dim>
					<dim>12</dim>
					<dim>21</dim>
				</port>
			</output>
		</layer>
		<layer name="fc7_mbox_priorbox" type="PriorBox" precision="FP32" id="56">
			<data aspect_ratio="2.0,3.0" clip="0" density="" fixed_ratio="" fixed_size="" flip="1" max_size="142.0800018310547" min_size="76.80000305175781" offset="0.5" step="32.0" variance="0.10000000149011612,0.10000000149011612,0.20000000298023224,0.20000000298023224" />
			<input>
				<port id="0">
					<dim>1</dim>
					<dim>128</dim>
					<dim>12</dim>
					<dim>21</dim>
				</port>
				<port id="1">
					<dim>1</dim>
					<dim>3</dim>
					<dim>384</dim>
					<dim>672</dim>
				</port>
			</input>
			<output>
				<port id="2">
					<dim>1</dim>
					<dim>2</dim>
					<dim>6048</dim>
				</port>
			</output>
		</layer>
		<layer name="fc7_mbox_loc" type="Convolution" precision="FP32" id="57">
			<data dilations="1,1" group="1" kernel="3,3" output="24" pads_begin="1,1" pads_end="1,1" quantization_level="I8" strides="1,1" />
			<input>
				<port id="0">
					<dim>1</dim>
					<dim>128</dim>
					<dim>12</dim>
					<dim>21</dim>
				</port>
			</input>
			<output>
				<port id="1">
					<dim>1</dim>
					<dim>24</dim>
					<dim>12</dim>
					<dim>21</dim>
				</port>
			</output>
			<blobs>
				<biases offset="2697976" size="96" />
				<weights offset="2698072" size="110592" />
			</blobs>
		</layer>
		<layer name="fc7_mbox_loc_perm" type="Permute" precision="FP32" id="58">
			<data order="0,2,3,1" />
			<input>
				<port id="0">
					<dim>1</dim>
					<dim>24</dim>
					<dim>12</dim>
					<dim>21</dim>
				</port>
			</input>
			<output>
				<port id="1">
					<dim>1</dim>
					<dim>12</dim>
					<dim>21</dim>
					<dim>24</dim>
				</port>
			</output>
		</layer>
		<layer name="fc7_mbox_loc_flat" type="Flatten" precision="FP32" id="59">
			<data axis="1" end_axis="-1" />
			<input>
				<port id="0">
					<dim>1</dim>
					<dim>12</dim>
					<dim>21</dim>
					<dim>24</dim>
				</port>
			</input>
			<output>
				<port id="1">
					<dim>1</dim>
					<dim>6048</dim>
				</port>
			</output>
		</layer>
		<layer name="conv6_1" type="Convolution" precision="FP32" id="60">
			<data dilations="1,1" group="1" kernel="1,1" output="120" pads_begin="0,0" pads_end="0,0" quantization_level="I8" strides="1,1" />
			<input>
				<port id="0">
					<dim>1</dim>
					<dim>128</dim>
					<dim>12</dim>
					<dim>21</dim>
				</port>
			</input>
			<output>
				<port id="1">
					<dim>1</dim>
					<dim>120</dim>
					<dim>12</dim>
					<dim>21</dim>
				</port>
			</output>
			<blobs>
				<biases offset="2808664" size="480" />
				<weights offset="2809144" size="61440" />
			</blobs>
		</layer>
		<layer name="relu6_1" type="ReLU" precision="FP32" id="61">
			<input>
				<port id="0">
					<dim>1</dim>
					<dim>120</dim>
					<dim>12</dim>
					<dim>21</dim>
				</port>
			</input>
			<output>
				<port id="1">
					<dim>1</dim>
					<dim>120</dim>
					<dim>12</dim>
					<dim>21</dim>
				</port>
			</output>
		</layer>
		<layer name="conv6_2/dw" type="Convolution" precision="FP32" id="62">
			<data dilations="1,1" group="120" kernel="3,3" output="120" pads_begin="1,1" pads_end="1,1" quantization_level="FP32" strides="2,2" />
			<input>
				<port id="0">
					<dim>1</dim>
					<dim>120</dim>
					<dim>12</dim>
					<dim>21</dim>
				</port>
			</input>
			<output>
				<port id="1">
					<dim>1</dim>
					<dim>120</dim>
					<dim>6</dim>
					<dim>11</dim>
				</port>
			</output>
			<blobs>
				<biases offset="2870584" size="480" />
				<weights offset="2871064" size="4320" />
			</blobs>
		</layer>
		<layer name="relu6_2/dw" type="ReLU" precision="FP32" id="63">
			<input>
				<port id="0">
					<dim>1</dim>
					<dim>120</dim>
					<dim>6</dim>
					<dim>11</dim>
				</port>
			</input>
			<output>
				<port id="1">
					<dim>1</dim>
					<dim>120</dim>
					<dim>6</dim>
					<dim>11</dim>
				</port>
			</output>
		</layer>
		<layer name="conv6_2_new" type="Convolution" precision="FP32" id="64">
			<data dilations="1,1" group="1" kernel="1,1" output="152" pads_begin="0,0" pads_end="0,0" quantization_level="I8" strides="1,1" />
			<input>
				<port id="0">
					<dim>1</dim>
					<dim>120</dim>
					<dim>6</dim>
					<dim>11</dim>
				</port>
			</input>
			<output>
				<port id="1">
					<dim>1</dim>
					<dim>152</dim>
					<dim>6</dim>
					<dim>11</dim>
				</port>
			</output>
			<blobs>
				<biases offset="2875384" size="608" />
				<weights offset="2875992" size="72960" />
			</blobs>
		</layer>
		<layer name="relu6_2" type="ReLU" precision="FP32" id="65">
			<input>
				<port id="0">
					<dim>1</dim>
					<dim>152</dim>
					<dim>6</dim>
					<dim>11</dim>
				</port>
			</input>
			<output>
				<port id="1">
					<dim>1</dim>
					<dim>152</dim>
					<dim>6</dim>
					<dim>11</dim>
				</port>
			</output>
		</layer>
		<layer name="conv7_1" type="Convolution" precision="FP32" id="66">
			<data dilations="1,1" group="1" kernel="1,1" output="112" pads_begin="0,0" pads_end="0,0" quantization_level="I8" strides="1,1" />
			<input>
				<port id="0">
					<dim>1</dim>
					<dim>152</dim>
					<dim>6</dim>
					<dim>11</dim>
				</port>
			</input>
			<output>
				<port id="1">
					<dim>1</dim>
					<dim>112</dim>
					<dim>6</dim>
					<dim>11</dim>
				</port>
			</output>
			<blobs>
				<biases offset="2948952" size="448" />
				<weights offset="2949400" size="68096" />
			</blobs>
		</layer>
		<layer name="relu7_1" type="ReLU" precision="FP32" id="67">
			<input>
				<port id="0">
					<dim>1</dim>
					<dim>112</dim>
					<dim>6</dim>
					<dim>11</dim>
				</port>
			</input>
			<output>
				<port id="1">
					<dim>1</dim>
					<dim>112</dim>
					<dim>6</dim>
					<dim>11</dim>
				</port>
			</output>
		</layer>
		<layer name="conv7_2/dw" type="Convolution" precision="FP32" id="68">
			<data dilations="1,1" group="112" kernel="3,3" output="112" pads_begin="1,1" pads_end="1,1" quantization_level="I8" strides="2,2" />
			<input>
				<port id="0">
					<dim>1</dim>
					<dim>112</dim>
					<dim>6</dim>
					<dim>11</dim>
				</port>
			</input>
			<output>
				<port id="1">
					<dim>1</dim>
					<dim>112</dim>
					<dim>3</dim>
					<dim>6</dim>
				</port>
			</output>
			<blobs>
				<biases offset="3017496" size="448" />
				<weights offset="3017944" size="4032" />
			</blobs>
		</layer>
		<layer name="relu7_2/dw" type="ReLU" precision="FP32" id="69">
			<input>
				<port id="0">
					<dim>1</dim>
					<dim>112</dim>
					<dim>3</dim>
					<dim>6</dim>
				</port>
			</input>
			<output>
				<port id="1">
					<dim>1</dim>
					<dim>112</dim>
					<dim>3</dim>
					<dim>6</dim>
				</port>
			</output>
		</layer>
		<layer name="conv7_2_new" type="Convolution" precision="FP32" id="70">
			<data dilations="1,1" group="1" kernel="1,1" output="168" pads_begin="0,0" pads_end="0,0" quantization_level="I8" strides="1,1" />
			<input>
				<port id="0">
					<dim>1</dim>
					<dim>112</dim>
					<dim>3</dim>
					<dim>6</dim>
				</port>
			</input>
			<output>
				<port id="1">
					<dim>1</dim>
					<dim>168</dim>
					<dim>3</dim>
					<dim>6</dim>
				</port>
			</output>
			<blobs>
				<biases offset="3021976" size="672" />
				<weights offset="3022648" size="75264" />
			</blobs>
		</layer>
		<layer name="relu7_2" type="ReLU" precision="FP32" id="71">
			<input>
				<port id="0">
					<dim>1</dim>
					<dim>168</dim>
					<dim>3</dim>
					<dim>6</dim>
				</port>
			</input>
			<output>
				<port id="1">
					<dim>1</dim>
					<dim>168</dim>
					<dim>3</dim>
					<dim>6</dim>
				</port>
			</output>
		</layer>
		<layer name="conv8_1" type="Convolution" precision="FP32" id="72">
			<data dilations="1,1" group="1" kernel="1,1" output="120" pads_begin="0,0" pads_end="0,0" quantization_level="I8" strides="1,1" />
			<input>
				<port id="0">
					<dim>1</dim>
					<dim>168</dim>
					<dim>3</dim>
					<dim>6</dim>
				</port>
			</input>
			<output>
				<port id="1">
					<dim>1</dim>
					<dim>120</dim>
					<dim>3</dim>
					<dim>6</dim>
				</port>
			</output>
			<blobs>
				<biases offset="3097912" size="480" />
				<weights offset="3098392" size="80640" />
			</blobs>
		</layer>
		<layer name="relu8_1" type="ReLU" precision="FP32" id="73">
			<input>
				<port id="0">
					<dim>1</dim>
					<dim>120</dim>
					<dim>3</dim>
					<dim>6</dim>
				</port>
			</input>
			<output>
				<port id="1">
					<dim>1</dim>
					<dim>120</dim>
					<dim>3</dim>
					<dim>6</dim>
				</port>
			</output>
		</layer>
		<layer name="conv8_2/dw" type="Convolution" precision="FP32" id="74">
			<data dilations="1,1" group="120" kernel="3,3" output="120" pads_begin="1,1" pads_end="1,1" quantization_level="FP32" strides="2,2" />
			<input>
				<port id="0">
					<dim>1</dim>
					<dim>120</dim>
					<dim>3</dim>
					<dim>6</dim>
				</port>
			</input>
			<output>
				<port id="1">
					<dim>1</dim>
					<dim>120</dim>
					<dim>2</dim>
					<dim>3</dim>
				</port>
			</output>
			<blobs>
				<biases offset="3179032" size="480" />
				<weights offset="3179512" size="4320" />
			</blobs>
		</layer>
		<layer name="relu8_2/dw" type="ReLU" precision="FP32" id="75">
			<input>
				<port id="0">
					<dim>1</dim>
					<dim>120</dim>
					<dim>2</dim>
					<dim>3</dim>
				</port>
			</input>
			<output>
				<port id="1">
					<dim>1</dim>
					<dim>120</dim>
					<dim>2</dim>
					<dim>3</dim>
				</port>
			</output>
		</layer>
		<layer name="conv8_2_new" type="Convolution" precision="FP32" id="76">
			<data dilations="1,1" group="1" kernel="1,1" output="200" pads_begin="0,0" pads_end="0,0" quantization_level="I8" strides="1,1" />
			<input>
				<port id="0">
					<dim>1</dim>
					<dim>120</dim>
					<dim>2</dim>
					<dim>3</dim>
				</port>
			</input>
			<output>
				<port id="1">
					<dim>1</dim>
					<dim>200</dim>
					<dim>2</dim>
					<dim>3</dim>
				</port>
			</output>
			<blobs>
				<biases offset="3183832" size="800" />
				<weights offset="3184632" size="96000" />
			</blobs>
		</layer>
		<layer name="relu8_2" type="ReLU" precision="FP32" id="77">
			<input>
				<port id="0">
					<dim>1</dim>
					<dim>200</dim>
					<dim>2</dim>
					<dim>3</dim>
				</port>
			</input>
			<output>
				<port id="1">
					<dim>1</dim>
					<dim>200</dim>
					<dim>2</dim>
					<dim>3</dim>
				</port>
			</output>
		</layer>
		<layer name="conv9_1" type="Convolution" precision="FP32" id="78">
			<data dilations="1,1" group="1" kernel="1,1" output="64" pads_begin="0,0" pads_end="0,0" quantization_level="I8" strides="1,1" />
			<input>
				<port id="0">
					<dim>1</dim>
					<dim>200</dim>
					<dim>2</dim>
					<dim>3</dim>
				</port>
			</input>
			<output>
				<port id="1">
					<dim>1</dim>
					<dim>64</dim>
					<dim>2</dim>
					<dim>3</dim>
				</port>
			</output>
			<blobs>
				<biases offset="3280632" size="256" />
				<weights offset="3280888" size="51200" />
			</blobs>
		</layer>
		<layer name="relu9_1" type="ReLU" precision="FP32" id="79">
			<input>
				<port id="0">
					<dim>1</dim>
					<dim>64</dim>
					<dim>2</dim>
					<dim>3</dim>
				</port>
			</input>
			<output>
				<port id="1">
					<dim>1</dim>
					<dim>64</dim>
					<dim>2</dim>
					<dim>3</dim>
				</port>
			</output>
		</layer>
		<layer name="conv9_2/dw" type="Convolution" precision="FP32" id="80">
			<data dilations="1,1" group="64" kernel="3,3" output="64" pads_begin="1,1" pads_end="1,1" quantization_level="I8" strides="2,2" />
			<input>
				<port id="0">
					<dim>1</dim>
					<dim>64</dim>
					<dim>2</dim>
					<dim>3</dim>
				</port>
			</input>
			<output>
				<port id="1">
					<dim>1</dim>
					<dim>64</dim>
					<dim>1</dim>
					<dim>2</dim>
				</port>
			</output>
			<blobs>
				<biases offset="3332088" size="256" />
				<weights offset="3332344" size="2304" />
			</blobs>
		</layer>
		<layer name="relu9_2/dw" type="ReLU" precision="FP32" id="81">
			<input>
				<port id="0">
					<dim>1</dim>
					<dim>64</dim>
					<dim>1</dim>
					<dim>2</dim>
				</port>
			</input>
			<output>
				<port id="1">
					<dim>1</dim>
					<dim>64</dim>
					<dim>1</dim>
					<dim>2</dim>
				</port>
			</output>
		</layer>
		<layer name="conv9_2_new" type="Convolution" precision="FP32" id="82">
			<data dilations="1,1" group="1" kernel="1,1" output="128" pads_begin="0,0" pads_end="0,0" quantization_level="I8" strides="1,1" />
			<input>
				<port id="0">
					<dim>1</dim>
					<dim>64</dim>
					<dim>1</dim>
					<dim>2</dim>
				</port>
			</input>
			<output>
				<port id="1">
					<dim>1</dim>
					<dim>128</dim>
					<dim>1</dim>
					<dim>2</dim>
				</port>
			</output>
			<blobs>
				<biases offset="3334648" size="512" />
				<weights offset="3335160" size="32768" />
			</blobs>
		</layer>
		<layer name="relu9_2" type="ReLU" precision="FP32" id="83">
			<input>
				<port id="0">
					<dim>1</dim>
					<dim>128</dim>
					<dim>1</dim>
					<dim>2</dim>
				</port>
			</input>
			<output>
				<port id="1">
					<dim>1</dim>
					<dim>128</dim>
					<dim>1</dim>
					<dim>2</dim>
				</port>
			</output>
		</layer>
		<layer name="conv9_2_mbox_priorbox" type="PriorBox" precision="FP32" id="84">
			<data aspect_ratio="2.0" clip="0" density="" fixed_ratio="" fixed_size="" flip="1" max_size="403.20001220703125" min_size="337.9200134277344" offset="0.5" step="300.0" variance="0.10000000149011612,0.10000000149011612,0.20000000298023224,0.20000000298023224" />
			<input>
				<port id="0">
					<dim>1</dim>
					<dim>128</dim>
					<dim>1</dim>
					<dim>2</dim>
				</port>
				<port id="1">
					<dim>1</dim>
					<dim>3</dim>
					<dim>384</dim>
					<dim>672</dim>
				</port>
			</input>
			<output>
				<port id="2">
					<dim>1</dim>
					<dim>2</dim>
					<dim>32</dim>
				</port>
			</output>
		</layer>
		<layer name="conv9_2_mbox_loc" type="Convolution" precision="FP32" id="85">
			<data dilations="1,1" group="1" kernel="3,3" output="16" pads_begin="1,1" pads_end="1,1" quantization_level="I8" strides="1,1" />
			<input>
				<port id="0">
					<dim>1</dim>
					<dim>128</dim>
					<dim>1</dim>
					<dim>2</dim>
				</port>
			</input>
			<output>
				<port id="1">
					<dim>1</dim>
					<dim>16</dim>
					<dim>1</dim>
					<dim>2</dim>
				</port>
			</output>
			<blobs>
				<biases offset="3367928" size="64" />
				<weights offset="3367992" size="73728" />
			</blobs>
		</layer>
		<layer name="conv9_2_mbox_loc_perm" type="Permute" precision="FP32" id="86">
			<data order="0,2,3,1" />
			<input>
				<port id="0">
					<dim>1</dim>
					<dim>16</dim>
					<dim>1</dim>
					<dim>2</dim>
				</port>
			</input>
			<output>
				<port id="1">
					<dim>1</dim>
					<dim>1</dim>
					<dim>2</dim>
					<dim>16</dim>
				</port>
			</output>
		</layer>
		<layer name="conv9_2_mbox_loc_flat" type="Flatten" precision="FP32" id="87">
			<data axis="1" end_axis="-1" />
			<input>
				<port id="0">
					<dim>1</dim>
					<dim>1</dim>
					<dim>2</dim>
					<dim>16</dim>
				</port>
			</input>
			<output>
				<port id="1">
					<dim>1</dim>
					<dim>32</dim>
				</port>
			</output>
		</layer>
		<layer name="conv9_2/reduce" type="Convolution" precision="FP32" id="88">
			<data dilations="1,1" group="1" kernel="1,1" output="16" pads_begin="0,0" pads_end="0,0" quantization_level="I8" strides="1,1" />
			<input>
				<port id="0">
					<dim>1</dim>
					<dim>128</dim>
					<dim>1</dim>
					<dim>2</dim>
				</port>
			</input>
			<output>
				<port id="1">
					<dim>1</dim>
					<dim>16</dim>
					<dim>1</dim>
					<dim>2</dim>
				</port>
			</output>
			<blobs>
				<biases offset="3441720" size="64" />
				<weights offset="3441784" size="8192" />
			</blobs>
		</layer>
		<layer name="conv9_2_reduced/relu" type="ReLU" precision="FP32" id="89">
			<input>
				<port id="0">
					<dim>1</dim>
					<dim>16</dim>
					<dim>1</dim>
					<dim>2</dim>
				</port>
			</input>
			<output>
				<port id="1">
					<dim>1</dim>
					<dim>16</dim>
					<dim>1</dim>
					<dim>2</dim>
				</port>
			</output>
		</layer>
		<layer name="pre_conv9_2_mbox_conf_64" type="Convolution" precision="FP32" id="90">
			<data dilations="1,1" group="1" kernel="3,3" output="16" pads_begin="1,1" pads_end="1,1" quantization_level="I8" strides="1,1" />
			<input>
				<port id="0">
					<dim>1</dim>
					<dim>16</dim>
					<dim>1</dim>
					<dim>2</dim>
				</port>
			</input>
			<output>
				<port id="1">
					<dim>1</dim>
					<dim>16</dim>
					<dim>1</dim>
					<dim>2</dim>
				</port>
			</output>
			<blobs>
				<biases offset="3449976" size="64" />
				<weights offset="3450040" size="9216" />
			</blobs>
		</layer>
		<layer name="pre_conv9_2_mbox_conf/relu" type="ReLU" precision="FP32" id="91">
			<input>
				<port id="0">
					<dim>1</dim>
					<dim>16</dim>
					<dim>1</dim>
					<dim>2</dim>
				</port>
			</input>
			<output>
				<port id="1">
					<dim>1</dim>
					<dim>16</dim>
					<dim>1</dim>
					<dim>2</dim>
				</port>
			</output>
		</layer>
		<layer name="conv9_2_mbox_conf_64" type="Convolution" precision="FP32" id="92">
			<data dilations="1,1" group="1" kernel="3,3" output="8" pads_begin="1,1" pads_end="1,1" quantization_level="I8" strides="1,1" />
			<input>
				<port id="0">
					<dim>1</dim>
					<dim>16</dim>
					<dim>1</dim>
					<dim>2</dim>
				</port>
			</input>
			<output>
				<port id="1">
					<dim>1</dim>
					<dim>8</dim>
					<dim>1</dim>
					<dim>2</dim>
				</port>
			</output>
			<blobs>
				<biases offset="3459256" size="32" />
				<weights offset="3459288" size="4608" />
			</blobs>
		</layer>
		<layer name="conv9_2_mbox_conf_perm" type="Permute" precision="FP32" id="93">
			<data order="0,2,3,1" />
			<input>
				<port id="0">
					<dim>1</dim>
					<dim>8</dim>
					<dim>1</dim>
					<dim>2</dim>
				</port>
			</input>
			<output>
				<port id="1">
					<dim>1</dim>
					<dim>1</dim>
					<dim>2</dim>
					<dim>8</dim>
				</port>
			</output>
		</layer>
		<layer name="conv9_2_mbox_conf_flat" type="Flatten" precision="FP32" id="94">
			<data axis="1" end_axis="-1" />
			<input>
				<port id="0">
					<dim>1</dim>
					<dim>1</dim>
					<dim>2</dim>
					<dim>8</dim>
				</port>
			</input>
			<output>
				<port id="1">
					<dim>1</dim>
					<dim>16</dim>
				</port>
			</output>
		</layer>
		<layer name="conv8_2_mbox_priorbox" type="PriorBox" precision="FP32" id="95">
			<data aspect_ratio="2.0" clip="0" density="" fixed_ratio="" fixed_size="" flip="1" max_size="337.9200134277344" min_size="272.6400146484375" offset="0.5" step="150.0" variance="0.10000000149011612,0.10000000149011612,0.20000000298023224,0.20000000298023224" />
			<input>
				<port id="0">
					<dim>1</dim>
					<dim>200</dim>
					<dim>2</dim>
					<dim>3</dim>
				</port>
				<port id="1">
					<dim>1</dim>
					<dim>3</dim>
					<dim>384</dim>
					<dim>672</dim>
				</port>
			</input>
			<output>
				<port id="2">
					<dim>1</dim>
					<dim>2</dim>
					<dim>96</dim>
				</port>
			</output>
		</layer>
		<layer name="conv8_2_mbox_loc" type="Convolution" precision="FP32" id="96">
			<data dilations="1,1" group="1" kernel="3,3" output="16" pads_begin="1,1" pads_end="1,1" quantization_level="I8" strides="1,1" />
			<input>
				<port id="0">
					<dim>1</dim>
					<dim>200</dim>
					<dim>2</dim>
					<dim>3</dim>
				</port>
			</input>
			<output>
				<port id="1">
					<dim>1</dim>
					<dim>16</dim>
					<dim>2</dim>
					<dim>3</dim>
				</port>
			</output>
			<blobs>
				<biases offset="3463896" size="64" />
				<weights offset="3463960" size="115200" />
			</blobs>
		</layer>
		<layer name="conv8_2_mbox_loc_perm" type="Permute" precision="FP32" id="97">
			<data order="0,2,3,1" />
			<input>
				<port id="0">
					<dim>1</dim>
					<dim>16</dim>
					<dim>2</dim>
					<dim>3</dim>
				</port>
			</input>
			<output>
				<port id="1">
					<dim>1</dim>
					<dim>2</dim>
					<dim>3</dim>
					<dim>16</dim>
				</port>
			</output>
		</layer>
		<layer name="conv8_2_mbox_loc_flat" type="Flatten" precision="FP32" id="98">
			<data axis="1" end_axis="-1" />
			<input>
				<port id="0">
					<dim>1</dim>
					<dim>2</dim>
					<dim>3</dim>
					<dim>16</dim>
				</port>
			</input>
			<output>
				<port id="1">
					<dim>1</dim>
					<dim>96</dim>
				</port>
			</output>
		</layer>
		<layer name="conv8_2/reduce" type="Convolution" precision="FP32" id="99">
			<data dilations="1,1" group="1" kernel="1,1" output="16" pads_begin="0,0" pads_end="0,0" quantization_level="I8" strides="1,1" />
			<input>
				<port id="0">
					<dim>1</dim>
					<dim>200</dim>
					<dim>2</dim>
					<dim>3</dim>
				</port>
			</input>
			<output>
				<port id="1">
					<dim>1</dim>
					<dim>16</dim>
					<dim>2</dim>
					<dim>3</dim>
				</port>
			</output>
			<blobs>
				<biases offset="3579160" size="64" />
				<weights offset="3579224" size="12800" />
			</blobs>
		</layer>
		<layer name="conv8_2_reduced/relu" type="ReLU" precision="FP32" id="100">
			<input>
				<port id="0">
					<dim>1</dim>
					<dim>16</dim>
					<dim>2</dim>
					<dim>3</dim>
				</port>
			</input>
			<output>
				<port id="1">
					<dim>1</dim>
					<dim>16</dim>
					<dim>2</dim>
					<dim>3</dim>
				</port>
			</output>
		</layer>
		<layer name="pre_conv8_2_mbox_conf_64" type="Convolution" precision="FP32" id="101">
			<data dilations="1,1" group="1" kernel="3,3" output="16" pads_begin="1,1" pads_end="1,1" quantization_level="I8" strides="1,1" />
			<input>
				<port id="0">
					<dim>1</dim>
					<dim>16</dim>
					<dim>2</dim>
					<dim>3</dim>
				</port>
			</input>
			<output>
				<port id="1">
					<dim>1</dim>
					<dim>16</dim>
					<dim>2</dim>
					<dim>3</dim>
				</port>
			</output>
			<blobs>
				<biases offset="3592024" size="64" />
				<weights offset="3592088" size="9216" />
			</blobs>
		</layer>
		<layer name="pre_conv8_2_mbox_conf/relu" type="ReLU" precision="FP32" id="102">
			<input>
				<port id="0">
					<dim>1</dim>
					<dim>16</dim>
					<dim>2</dim>
					<dim>3</dim>
				</port>
			</input>
			<output>
				<port id="1">
					<dim>1</dim>
					<dim>16</dim>
					<dim>2</dim>
					<dim>3</dim>
				</port>
			</output>
		</layer>
		<layer name="conv8_2_mbox_conf_64" type="Convolution" precision="FP32" id="103">
			<data dilations="1,1" group="1" kernel="3,3" output="8" pads_begin="1,1" pads_end="1,1" quantization_level="I8" strides="1,1" />
			<input>
				<port id="0">
					<dim>1</dim>
					<dim>16</dim>
					<dim>2</dim>
					<dim>3</dim>
				</port>
			</input>
			<output>
				<port id="1">
					<dim>1</dim>
					<dim>8</dim>
					<dim>2</dim>
					<dim>3</dim>
				</port>
			</output>
			<blobs>
				<biases offset="3601304" size="32" />
				<weights offset="3601336" size="4608" />
			</blobs>
		</layer>
		<layer name="conv8_2_mbox_conf_perm" type="Permute" precision="FP32" id="104">
			<data order="0,2,3,1" />
			<input>
				<port id="0">
					<dim>1</dim>
					<dim>8</dim>
					<dim>2</dim>
					<dim>3</dim>
				</port>
			</input>
			<output>
				<port id="1">
					<dim>1</dim>
					<dim>2</dim>
					<dim>3</dim>
					<dim>8</dim>
				</port>
			</output>
		</layer>
		<layer name="conv8_2_mbox_conf_flat" type="Flatten" precision="FP32" id="105">
			<data axis="1" end_axis="-1" />
			<input>
				<port id="0">
					<dim>1</dim>
					<dim>2</dim>
					<dim>3</dim>
					<dim>8</dim>
				</port>
			</input>
			<output>
				<port id="1">
					<dim>1</dim>
					<dim>48</dim>
				</port>
			</output>
		</layer>
		<layer name="conv7_2_mbox_priorbox" type="PriorBox" precision="FP32" id="106">
			<data aspect_ratio="2.0,3.0" clip="0" density="" fixed_ratio="" fixed_size="" flip="1" max_size="272.6400146484375" min_size="207.36000061035156" offset="0.5" step="100.0" variance="0.10000000149011612,0.10000000149011612,0.20000000298023224,0.20000000298023224" />
			<input>
				<port id="0">
					<dim>1</dim>
					<dim>168</dim>
					<dim>3</dim>
					<dim>6</dim>
				</port>
				<port id="1">
					<dim>1</dim>
					<dim>3</dim>
					<dim>384</dim>
					<dim>672</dim>
				</port>
			</input>
			<output>
				<port id="2">
					<dim>1</dim>
					<dim>2</dim>
					<dim>432</dim>
				</port>
			</output>
		</layer>
		<layer name="conv7_2_mbox_loc" type="Convolution" precision="FP32" id="107">
			<data dilations="1,1" group="1" kernel="3,3" output="24" pads_begin="1,1" pads_end="1,1" quantization_level="I8" strides="1,1" />
			<input>
				<port id="0">
					<dim>1</dim>
					<dim>168</dim>
					<dim>3</dim>
					<dim>6</dim>
				</port>
			</input>
			<output>
				<port id="1">
					<dim>1</dim>
					<dim>24</dim>
					<dim>3</dim>
					<dim>6</dim>
				</port>
			</output>
			<blobs>
				<biases offset="3605944" size="96" />
				<weights offset="3606040" size="145152" />
			</blobs>
		</layer>
		<layer name="conv7_2_mbox_loc_perm" type="Permute" precision="FP32" id="108">
			<data order="0,2,3,1" />
			<input>
				<port id="0">
					<dim>1</dim>
					<dim>24</dim>
					<dim>3</dim>
					<dim>6</dim>
				</port>
			</input>
			<output>
				<port id="1">
					<dim>1</dim>
					<dim>3</dim>
					<dim>6</dim>
					<dim>24</dim>
				</port>
			</output>
		</layer>
		<layer name="conv7_2_mbox_loc_flat" type="Flatten" precision="FP32" id="109">
			<data axis="1" end_axis="-1" />
			<input>
				<port id="0">
					<dim>1</dim>
					<dim>3</dim>
					<dim>6</dim>
					<dim>24</dim>
				</port>
			</input>
			<output>
				<port id="1">
					<dim>1</dim>
					<dim>432</dim>
				</port>
			</output>
		</layer>
		<layer name="conv7_2/reduce" type="Convolution" precision="FP32" id="110">
			<data dilations="1,1" group="1" kernel="1,1" output="16" pads_begin="0,0" pads_end="0,0" quantization_level="I8" strides="1,1" />
			<input>
				<port id="0">
					<dim>1</dim>
					<dim>168</dim>
					<dim>3</dim>
					<dim>6</dim>
				</port>
			</input>
			<output>
				<port id="1">
					<dim>1</dim>
					<dim>16</dim>
					<dim>3</dim>
					<dim>6</dim>
				</port>
			</output>
			<blobs>
				<biases offset="3751192" size="64" />
				<weights offset="3751256" size="10752" />
			</blobs>
		</layer>
		<layer name="conv7_2_reduced/relu" type="ReLU" precision="FP32" id="111">
			<input>
				<port id="0">
					<dim>1</dim>
					<dim>16</dim>
					<dim>3</dim>
					<dim>6</dim>
				</port>
			</input>
			<output>
				<port id="1">
					<dim>1</dim>
					<dim>16</dim>
					<dim>3</dim>
					<dim>6</dim>
				</port>
			</output>
		</layer>
		<layer name="pre_conv7_2_mbox_conf_64" type="Convolution" precision="FP32" id="112">
			<data dilations="1,1" group="1" kernel="3,3" output="16" pads_begin="1,1" pads_end="1,1" quantization_level="I8" strides="1,1" />
			<input>
				<port id="0">
					<dim>1</dim>
					<dim>16</dim>
					<dim>3</dim>
					<dim>6</dim>
				</port>
			</input>
			<output>
				<port id="1">
					<dim>1</dim>
					<dim>16</dim>
					<dim>3</dim>
					<dim>6</dim>
				</port>
			</output>
			<blobs>
				<biases offset="3762008" size="64" />
				<weights offset="3762072" size="9216" />
			</blobs>
		</layer>
		<layer name="pre_conv7_2_mbox_conf/relu" type="ReLU" precision="FP32" id="113">
			<input>
				<port id="0">
					<dim>1</dim>
					<dim>16</dim>
					<dim>3</dim>
					<dim>6</dim>
				</port>
			</input>
			<output>
				<port id="1">
					<dim>1</dim>
					<dim>16</dim>
					<dim>3</dim>
					<dim>6</dim>
				</port>
			</output>
		</layer>
		<layer name="conv7_2_mbox_conf_64" type="Convolution" precision="FP32" id="114">
			<data dilations="1,1" group="1" kernel="3,3" output="12" pads_begin="1,1" pads_end="1,1" quantization_level="I8" strides="1,1" />
			<input>
				<port id="0">
					<dim>1</dim>
					<dim>16</dim>
					<dim>3</dim>
					<dim>6</dim>
				</port>
			</input>
			<output>
				<port id="1">
					<dim>1</dim>
					<dim>12</dim>
					<dim>3</dim>
					<dim>6</dim>
				</port>
			</output>
			<blobs>
				<biases offset="3771288" size="48" />
				<weights offset="3771336" size="6912" />
			</blobs>
		</layer>
		<layer name="conv7_2_mbox_conf_perm" type="Permute" precision="FP32" id="115">
			<data order="0,2,3,1" />
			<input>
				<port id="0">
					<dim>1</dim>
					<dim>12</dim>
					<dim>3</dim>
					<dim>6</dim>
				</port>
			</input>
			<output>
				<port id="1">
					<dim>1</dim>
					<dim>3</dim>
					<dim>6</dim>
					<dim>12</dim>
				</port>
			</output>
		</layer>
		<layer name="conv7_2_mbox_conf_flat" type="Flatten" precision="FP32" id="116">
			<data axis="1" end_axis="-1" />
			<input>
				<port id="0">
					<dim>1</dim>
					<dim>3</dim>
					<dim>6</dim>
					<dim>12</dim>
				</port>
			</input>
			<output>
				<port id="1">
					<dim>1</dim>
					<dim>216</dim>
				</port>
			</output>
		</layer>
		<layer name="conv6_2_mbox_priorbox" type="PriorBox" precision="FP32" id="117">
			<data aspect_ratio="2.0,3.0" clip="0" density="" fixed_ratio="" fixed_size="" flip="1" max_size="207.36000061035156" min_size="142.0800018310547" offset="0.5" step="64.0" variance="0.10000000149011612,0.10000000149011612,0.20000000298023224,0.20000000298023224" />
			<input>
				<port id="0">
					<dim>1</dim>
					<dim>152</dim>
					<dim>6</dim>
					<dim>11</dim>
				</port>
				<port id="1">
					<dim>1</dim>
					<dim>3</dim>
					<dim>384</dim>
					<dim>672</dim>
				</port>
			</input>
			<output>
				<port id="2">
					<dim>1</dim>
					<dim>2</dim>
					<dim>1584</dim>
				</port>
			</output>
		</layer>
		<layer name="conv6_2_mbox_loc" type="Convolution" precision="FP32" id="118">
			<data dilations="1,1" group="1" kernel="3,3" output="24" pads_begin="1,1" pads_end="1,1" quantization_level="I8" strides="1,1" />
			<input>
				<port id="0">
					<dim>1</dim>
					<dim>152</dim>
					<dim>6</dim>
					<dim>11</dim>
				</port>
			</input>
			<output>
				<port id="1">
					<dim>1</dim>
					<dim>24</dim>
					<dim>6</dim>
					<dim>11</dim>
				</port>
			</output>
			<blobs>
				<biases offset="3778248" size="96" />
				<weights offset="3778344" size="131328" />
			</blobs>
		</layer>
		<layer name="conv6_2_mbox_loc_perm" type="Permute" precision="FP32" id="119">
			<data order="0,2,3,1" />
			<input>
				<port id="0">
					<dim>1</dim>
					<dim>24</dim>
					<dim>6</dim>
					<dim>11</dim>
				</port>
			</input>
			<output>
				<port id="1">
					<dim>1</dim>
					<dim>6</dim>
					<dim>11</dim>
					<dim>24</dim>
				</port>
			</output>
		</layer>
		<layer name="conv6_2_mbox_loc_flat" type="Flatten" precision="FP32" id="120">
			<data axis="1" end_axis="-1" />
			<input>
				<port id="0">
					<dim>1</dim>
					<dim>6</dim>
					<dim>11</dim>
					<dim>24</dim>
				</port>
			</input>
			<output>
				<port id="1">
					<dim>1</dim>
					<dim>1584</dim>
				</port>
			</output>
		</layer>
		<layer name="conv6_2/reduce" type="Convolution" precision="FP32" id="121">
			<data dilations="1,1" group="1" kernel="1,1" output="16" pads_begin="0,0" pads_end="0,0" quantization_level="I8" strides="1,1" />
			<input>
				<port id="0">
					<dim>1</dim>
					<dim>152</dim>
					<dim>6</dim>
					<dim>11</dim>
				</port>
			</input>
			<output>
				<port id="1">
					<dim>1</dim>
					<dim>16</dim>
					<dim>6</dim>
					<dim>11</dim>
				</port>
			</output>
			<blobs>
				<biases offset="3909672" size="64" />
				<weights offset="3909736" size="9728" />
			</blobs>
		</layer>
		<layer name="conv6_2/reduced/relu" type="ReLU" precision="FP32" id="122">
			<input>
				<port id="0">
					<dim>1</dim>
					<dim>16</dim>
					<dim>6</dim>
					<dim>11</dim>
				</port>
			</input>
			<output>
				<port id="1">
					<dim>1</dim>
					<dim>16</dim>
					<dim>6</dim>
					<dim>11</dim>
				</port>
			</output>
		</layer>
		<layer name="pre_conv6_2_mbox_conf_64" type="Convolution" precision="FP32" id="123">
			<data dilations="1,1" group="1" kernel="3,3" output="16" pads_begin="1,1" pads_end="1,1" quantization_level="I8" strides="1,1" />
			<input>
				<port id="0">
					<dim>1</dim>
					<dim>16</dim>
					<dim>6</dim>
					<dim>11</dim>
				</port>
			</input>
			<output>
				<port id="1">
					<dim>1</dim>
					<dim>16</dim>
					<dim>6</dim>
					<dim>11</dim>
				</port>
			</output>
			<blobs>
				<biases offset="3919464" size="64" />
				<weights offset="3919528" size="9216" />
			</blobs>
		</layer>
		<layer name="pre_conv6_2_mbox_conf/relu" type="ReLU" precision="FP32" id="124">
			<input>
				<port id="0">
					<dim>1</dim>
					<dim>16</dim>
					<dim>6</dim>
					<dim>11</dim>
				</port>
			</input>
			<output>
				<port id="1">
					<dim>1</dim>
					<dim>16</dim>
					<dim>6</dim>
					<dim>11</dim>
				</port>
			</output>
		</layer>
		<layer name="conv6_2_mbox_conf_64" type="Convolution" precision="FP32" id="125">
			<data dilations="1,1" group="1" kernel="3,3" output="12" pads_begin="1,1" pads_end="1,1" quantization_level="I8" strides="1,1" />
			<input>
				<port id="0">
					<dim>1</dim>
					<dim>16</dim>
					<dim>6</dim>
					<dim>11</dim>
				</port>
			</input>
			<output>
				<port id="1">
					<dim>1</dim>
					<dim>12</dim>
					<dim>6</dim>
					<dim>11</dim>
				</port>
			</output>
			<blobs>
				<biases offset="3928744" size="48" />
				<weights offset="3928792" size="6912" />
			</blobs>
		</layer>
		<layer name="conv6_2_mbox_conf_perm" type="Permute" precision="FP32" id="126">
			<data order="0,2,3,1" />
			<input>
				<port id="0">
					<dim>1</dim>
					<dim>12</dim>
					<dim>6</dim>
					<dim>11</dim>
				</port>
			</input>
			<output>
				<port id="1">
					<dim>1</dim>
					<dim>6</dim>
					<dim>11</dim>
					<dim>12</dim>
				</port>
			</output>
		</layer>
		<layer name="conv6_2_mbox_conf_flat" type="Flatten" precision="FP32" id="127">
			<data axis="1" end_axis="-1" />
			<input>
				<port id="0">
					<dim>1</dim>
					<dim>6</dim>
					<dim>11</dim>
					<dim>12</dim>
				</port>
			</input>
			<output>
				<port id="1">
					<dim>1</dim>
					<dim>792</dim>
				</port>
			</output>
		</layer>
		<layer name="conv6/sep/reduce" type="Convolution" precision="FP32" id="128">
			<data dilations="1,1" group="1" kernel="1,1" output="16" pads_begin="0,0" pads_end="0,0" quantization_level="I8" strides="1,1" />
			<input>
				<port id="0">
					<dim>1</dim>
					<dim>128</dim>
					<dim>12</dim>
					<dim>21</dim>
				</port>
			</input>
			<output>
				<port id="1">
					<dim>1</dim>
					<dim>16</dim>
					<dim>12</dim>
					<dim>21</dim>
				</port>
			</output>
			<blobs>
				<biases offset="3935704" size="64" />
				<weights offset="3935768" size="8192" />
			</blobs>
		</layer>
		<layer name="conv6/sep/reduced/relu" type="ReLU" precision="FP32" id="129">
			<input>
				<port id="0">
					<dim>1</dim>
					<dim>16</dim>
					<dim>12</dim>
					<dim>21</dim>
				</port>
			</input>
			<output>
				<port id="1">
					<dim>1</dim>
					<dim>16</dim>
					<dim>12</dim>
					<dim>21</dim>
				</port>
			</output>
		</layer>
		<layer name="pre_fc7_mbox_conf_64" type="Convolution" precision="FP32" id="130">
			<data dilations="1,1" group="1" kernel="3,3" output="16" pads_begin="1,1" pads_end="1,1" quantization_level="I8" strides="1,1" />
			<input>
				<port id="0">
					<dim>1</dim>
					<dim>16</dim>
					<dim>12</dim>
					<dim>21</dim>
				</port>
			</input>
			<output>
				<port id="1">
					<dim>1</dim>
					<dim>16</dim>
					<dim>12</dim>
					<dim>21</dim>
				</port>
			</output>
			<blobs>
				<biases offset="3943960" size="64" />
				<weights offset="3944024" size="9216" />
			</blobs>
		</layer>
		<layer name="pre_fc7_mbox_conf/relu" type="ReLU" precision="FP32" id="131">
			<input>
				<port id="0">
					<dim>1</dim>
					<dim>16</dim>
					<dim>12</dim>
					<dim>21</dim>
				</port>
			</input>
			<output>
				<port id="1">
					<dim>1</dim>
					<dim>16</dim>
					<dim>12</dim>
					<dim>21</dim>
				</port>
			</output>
		</layer>
		<layer name="fc7_mbox_conf_64" type="Convolution" precision="FP32" id="132">
			<data dilations="1,1" group="1" kernel="3,3" output="12" pads_begin="1,1" pads_end="1,1" quantization_level="I8" strides="1,1" />
			<input>
				<port id="0">
					<dim>1</dim>
					<dim>16</dim>
					<dim>12</dim>
					<dim>21</dim>
				</port>
			</input>
			<output>
				<port id="1">
					<dim>1</dim>
					<dim>12</dim>
					<dim>12</dim>
					<dim>21</dim>
				</port>
			</output>
			<blobs>
				<biases offset="3953240" size="48" />
				<weights offset="3953288" size="6912" />
			</blobs>
		</layer>
		<layer name="fc7_mbox_conf_perm" type="Permute" precision="FP32" id="133">
			<data order="0,2,3,1" />
			<input>
				<port id="0">
					<dim>1</dim>
					<dim>12</dim>
					<dim>12</dim>
					<dim>21</dim>
				</port>
			</input>
			<output>
				<port id="1">
					<dim>1</dim>
					<dim>12</dim>
					<dim>21</dim>
					<dim>12</dim>
				</port>
			</output>
		</layer>
		<layer name="fc7_mbox_conf_flat" type="Flatten" precision="FP32" id="134">
			<data axis="1" end_axis="-1" />
			<input>
				<port id="0">
					<dim>1</dim>
					<dim>12</dim>
					<dim>21</dim>
					<dim>12</dim>
				</port>
			</input>
			<output>
				<port id="1">
					<dim>1</dim>
					<dim>3024</dim>
				</port>
			</output>
		</layer>
		<layer name="conv5_5/sep/reduce" type="Convolution" precision="FP32" id="135">
			<data dilations="1,1" group="1" kernel="1,1" output="16" pads_begin="0,0" pads_end="0,0" quantization_level="I8" strides="1,1" />
			<input>
				<port id="0">
					<dim>1</dim>
					<dim>184</dim>
					<dim>24</dim>
					<dim>42</dim>
				</port>
			</input>
			<output>
				<port id="1">
					<dim>1</dim>
					<dim>16</dim>
					<dim>24</dim>
					<dim>42</dim>
				</port>
			</output>
			<blobs>
				<biases offset="3960200" size="64" />
				<weights offset="3960264" size="11776" />
			</blobs>
		</layer>
		<layer name="conv5_5/sep/reduced/relu" type="ReLU" precision="FP32" id="136">
			<input>
				<port id="0">
					<dim>1</dim>
					<dim>16</dim>
					<dim>24</dim>
					<dim>42</dim>
				</port>
			</input>
			<output>
				<port id="1">
					<dim>1</dim>
					<dim>16</dim>
					<dim>24</dim>
					<dim>42</dim>
				</port>
			</output>
		</layer>
		<layer name="pre_conv4_3_norm_mbox_conf_64" type="Convolution" precision="FP32" id="137">
			<data dilations="1,1" group="1" kernel="3,3" output="16" pads_begin="1,1" pads_end="1,1" quantization_level="I8" strides="1,1" />
			<input>
				<port id="0">
					<dim>1</dim>
					<dim>16</dim>
					<dim>24</dim>
					<dim>42</dim>
				</port>
			</input>
			<output>
				<port id="1">
					<dim>1</dim>
					<dim>16</dim>
					<dim>24</dim>
					<dim>42</dim>
				</port>
			</output>
			<blobs>
				<biases offset="3972040" size="64" />
				<weights offset="3972104" size="9216" />
			</blobs>
		</layer>
		<layer name="pre_conv4_3_norm_mbox_conf/relu" type="ReLU" precision="FP32" id="138">
			<input>
				<port id="0">
					<dim>1</dim>
					<dim>16</dim>
					<dim>24</dim>
					<dim>42</dim>
				</port>
			</input>
			<output>
				<port id="1">
					<dim>1</dim>
					<dim>16</dim>
					<dim>24</dim>
					<dim>42</dim>
				</port>
			</output>
		</layer>
		<layer name="conv4_3_norm_mbox_conf_64" type="Convolution" precision="FP32" id="139">
			<data dilations="1,1" group="1" kernel="3,3" output="8" pads_begin="1,1" pads_end="1,1" quantization_level="I8" strides="1,1" />
			<input>
				<port id="0">
					<dim>1</dim>
					<dim>16</dim>
					<dim>24</dim>
					<dim>42</dim>
				</port>
			</input>
			<output>
				<port id="1">
					<dim>1</dim>
					<dim>8</dim>
					<dim>24</dim>
					<dim>42</dim>
				</port>
			</output>
			<blobs>
				<biases offset="3981320" size="32" />
				<weights offset="3981352" size="4608" />
			</blobs>
		</layer>
		<layer name="conv4_3_norm_mbox_conf_perm" type="Permute" precision="FP32" id="140">
			<data order="0,2,3,1" />
			<input>
				<port id="0">
					<dim>1</dim>
					<dim>8</dim>
					<dim>24</dim>
					<dim>42</dim>
				</port>
			</input>
			<output>
				<port id="1">
					<dim>1</dim>
					<dim>24</dim>
					<dim>42</dim>
					<dim>8</dim>
				</port>
			</output>
		</layer>
		<layer name="conv4_3_norm_mbox_conf_flat" type="Flatten" precision="FP32" id="141">
			<data axis="1" end_axis="-1" />
			<input>
				<port id="0">
					<dim>1</dim>
					<dim>24</dim>
					<dim>42</dim>
					<dim>8</dim>
				</port>
			</input>
			<output>
				<port id="1">
					<dim>1</dim>
					<dim>8064</dim>
				</port>
			</output>
		</layer>
		<layer name="pre_conv4_3_0_norm_mbox_conf_64" type="Convolution" precision="FP32" id="142">
			<data dilations="1,1" group="1" kernel="3,3" output="16" pads_begin="1,1" pads_end="1,1" quantization_level="I8" strides="1,1" />
			<input>
				<port id="0">
					<dim>1</dim>
					<dim>16</dim>
					<dim>24</dim>
					<dim>42</dim>
				</port>
			</input>
			<output>
				<port id="1">
					<dim>1</dim>
					<dim>16</dim>
					<dim>24</dim>
					<dim>42</dim>
				</port>
			</output>
			<blobs>
				<biases offset="3985960" size="64" />
				<weights offset="3986024" size="9216" />
			</blobs>
		</layer>
		<layer name="pre_conv4_3_0_norm_mbox_conf/relu" type="ReLU" precision="FP32" id="143">
			<input>
				<port id="0">
					<dim>1</dim>
					<dim>16</dim>
					<dim>24</dim>
					<dim>42</dim>
				</port>
			</input>
			<output>
				<port id="1">
					<dim>1</dim>
					<dim>16</dim>
					<dim>24</dim>
					<dim>42</dim>
				</port>
			</output>
		</layer>
		<layer name="conv4_3_0_norm_mbox_conf_64" type="Convolution" precision="FP32" id="144">
			<data dilations="1,1" group="1" kernel="3,3" output="8" pads_begin="1,1" pads_end="1,1" quantization_level="I8" strides="1,1" />
			<input>
				<port id="0">
					<dim>1</dim>
					<dim>16</dim>
					<dim>24</dim>
					<dim>42</dim>
				</port>
			</input>
			<output>
				<port id="1">
					<dim>1</dim>
					<dim>8</dim>
					<dim>24</dim>
					<dim>42</dim>
				</port>
			</output>
			<blobs>
				<biases offset="3995240" size="32" />
				<weights offset="3995272" size="4608" />
			</blobs>
		</layer>
		<layer name="conv4_3_0_norm_mbox_conf_perm" type="Permute" precision="FP32" id="145">
			<data order="0,2,3,1" />
			<input>
				<port id="0">
					<dim>1</dim>
					<dim>8</dim>
					<dim>24</dim>
					<dim>42</dim>
				</port>
			</input>
			<output>
				<port id="1">
					<dim>1</dim>
					<dim>24</dim>
					<dim>42</dim>
					<dim>8</dim>
				</port>
			</output>
		</layer>
		<layer name="conv4_3_0_norm_mbox_conf_flat" type="Flatten" precision="FP32" id="146">
			<data axis="1" end_axis="-1" />
			<input>
				<port id="0">
					<dim>1</dim>
					<dim>24</dim>
					<dim>42</dim>
					<dim>8</dim>
				</port>
			</input>
			<output>
				<port id="1">
					<dim>1</dim>
					<dim>8064</dim>
				</port>
			</output>
		</layer>
		<layer name="mbox_conf_16" type="Concat" precision="FP32" id="147">
			<data axis="1" />
			<input>
				<port id="0">
					<dim>1</dim>
					<dim>8064</dim>
				</port>
				<port id="1">
					<dim>1</dim>
					<dim>8064</dim>
				</port>
				<port id="2">
					<dim>1</dim>
					<dim>3024</dim>
				</port>
				<port id="3">
					<dim>1</dim>
					<dim>792</dim>
				</port>
				<port id="4">
					<dim>1</dim>
					<dim>216</dim>
				</port>
				<port id="5">
					<dim>1</dim>
					<dim>48</dim>
				</port>
				<port id="6">
					<dim>1</dim>
					<dim>16</dim>
				</port>
			</input>
			<output>
				<port id="7">
					<dim>1</dim>
					<dim>20224</dim>
				</port>
			</output>
		</layer>
		<layer name="conv4_3_norm_mbox_priorbox" type="PriorBox" precision="FP32" id="148">
			<data aspect_ratio="2.0" clip="0" density="" fixed_ratio="" fixed_size="" flip="1" max_size="76.80000305175781" min_size="38.400001525878906" offset="0.5" step="16.0" variance="0.10000000149011612,0.10000000149011612,0.20000000298023224,0.20000000298023224" />
			<input>
				<port id="0">
					<dim>1</dim>
					<dim>184</dim>
					<dim>24</dim>
					<dim>42</dim>
				</port>
				<port id="1">
					<dim>1</dim>
					<dim>3</dim>
					<dim>384</dim>
					<dim>672</dim>
				</port>
			</input>
			<output>
				<port id="2">
					<dim>1</dim>
					<dim>2</dim>
					<dim>16128</dim>
				</port>
			</output>
		</layer>
		<layer name="conv4_3_norm_mbox_loc" type="Convolution" precision="FP32" id="149">
			<data dilations="1,1" group="1" kernel="3,3" output="16" pads_begin="1,1" pads_end="1,1" quantization_level="I8" strides="1,1" />
			<input>
				<port id="0">
					<dim>1</dim>
					<dim>184</dim>
					<dim>24</dim>
					<dim>42</dim>
				</port>
			</input>
			<output>
				<port id="1">
					<dim>1</dim>
					<dim>16</dim>
					<dim>24</dim>
					<dim>42</dim>
				</port>
			</output>
			<blobs>
				<biases offset="3999880" size="64" />
				<weights offset="3999944" size="105984" />
			</blobs>
		</layer>
		<layer name="conv4_3_norm_mbox_loc_perm" type="Permute" precision="FP32" id="150">
			<data order="0,2,3,1" />
			<input>
				<port id="0">
					<dim>1</dim>
					<dim>16</dim>
					<dim>24</dim>
					<dim>42</dim>
				</port>
			</input>
			<output>
				<port id="1">
					<dim>1</dim>
					<dim>24</dim>
					<dim>42</dim>
					<dim>16</dim>
				</port>
			</output>
		</layer>
		<layer name="conv4_3_norm_mbox_loc_flat" type="Flatten" precision="FP32" id="151">
			<data axis="1" end_axis="-1" />
			<input>
				<port id="0">
					<dim>1</dim>
					<dim>24</dim>
					<dim>42</dim>
					<dim>16</dim>
				</port>
			</input>
			<output>
				<port id="1">
					<dim>1</dim>
					<dim>16128</dim>
				</port>
			</output>
		</layer>
		<layer name="conv4_3_0_norm_mbox_priorbox" type="PriorBox" precision="FP32" id="152">
			<data aspect_ratio="2.0" clip="0" density="" fixed_ratio="" fixed_size="" flip="1" max_size="38.400001525878906" min_size="16.0" offset="0.5" step="16.0" variance="0.10000000149011612,0.10000000149011612,0.20000000298023224,0.20000000298023224" />
			<input>
				<port id="0">
					<dim>1</dim>
					<dim>184</dim>
					<dim>24</dim>
					<dim>42</dim>
				</port>
				<port id="1">
					<dim>1</dim>
					<dim>3</dim>
					<dim>384</dim>
					<dim>672</dim>
				</port>
			</input>
			<output>
				<port id="2">
					<dim>1</dim>
					<dim>2</dim>
					<dim>16128</dim>
				</port>
			</output>
		</layer>
		<layer name="mbox_priorbox" type="Concat" precision="FP32" id="153">
			<data axis="2" />
			<input>
				<port id="0">
					<dim>1</dim>
					<dim>2</dim>
					<dim>16128</dim>
				</port>
				<port id="1">
					<dim>1</dim>
					<dim>2</dim>
					<dim>16128</dim>
				</port>
				<port id="2">
					<dim>1</dim>
					<dim>2</dim>
					<dim>6048</dim>
				</port>
				<port id="3">
					<dim>1</dim>
					<dim>2</dim>
					<dim>1584</dim>
				</port>
				<port id="4">
					<dim>1</dim>
					<dim>2</dim>
					<dim>432</dim>
				</port>
				<port id="5">
					<dim>1</dim>
					<dim>2</dim>
					<dim>96</dim>
				</port>
				<port id="6">
					<dim>1</dim>
					<dim>2</dim>
					<dim>32</dim>
				</port>
			</input>
			<output>
				<port id="7">
					<dim>1</dim>
					<dim>2</dim>
					<dim>40448</dim>
				</port>
			</output>
		</layer>
		<layer name="conv4_3_0_norm_mbox_loc" type="Convolution" precision="FP32" id="154">
			<data dilations="1,1" group="1" kernel="3,3" output="16" pads_begin="1,1" pads_end="1,1" quantization_level="I8" strides="1,1" />
			<input>
				<port id="0">
					<dim>1</dim>
					<dim>184</dim>
					<dim>24</dim>
					<dim>42</dim>
				</port>
			</input>
			<output>
				<port id="1">
					<dim>1</dim>
					<dim>16</dim>
					<dim>24</dim>
					<dim>42</dim>
				</port>
			</output>
			<blobs>
				<biases offset="4105928" size="64" />
				<weights offset="4105992" size="105984" />
			</blobs>
		</layer>
		<layer name="conv4_3_0_norm_mbox_loc_perm" type="Permute" precision="FP32" id="155">
			<data order="0,2,3,1" />
			<input>
				<port id="0">
					<dim>1</dim>
					<dim>16</dim>
					<dim>24</dim>
					<dim>42</dim>
				</port>
			</input>
			<output>
				<port id="1">
					<dim>1</dim>
					<dim>24</dim>
					<dim>42</dim>
					<dim>16</dim>
				</port>
			</output>
		</layer>
		<layer name="conv4_3_0_norm_mbox_loc_flat" type="Flatten" precision="FP32" id="156">
			<data axis="1" end_axis="-1" />
			<input>
				<port id="0">
					<dim>1</dim>
					<dim>24</dim>
					<dim>42</dim>
					<dim>16</dim>
				</port>
			</input>
			<output>
				<port id="1">
					<dim>1</dim>
					<dim>16128</dim>
				</port>
			</output>
		</layer>
		<layer name="mbox_loc" type="Concat" precision="FP32" id="157">
			<data axis="1" />
			<input>
				<port id="0">
					<dim>1</dim>
					<dim>16128</dim>
				</port>
				<port id="1">
					<dim>1</dim>
					<dim>16128</dim>
				</port>
				<port id="2">
					<dim>1</dim>
					<dim>6048</dim>
				</port>
				<port id="3">
					<dim>1</dim>
					<dim>1584</dim>
				</port>
				<port id="4">
					<dim>1</dim>
					<dim>432</dim>
				</port>
				<port id="5">
					<dim>1</dim>
					<dim>96</dim>
				</port>
				<port id="6">
					<dim>1</dim>
					<dim>32</dim>
				</port>
			</input>
			<output>
				<port id="7">
					<dim>1</dim>
					<dim>40448</dim>
				</port>
			</output>
		</layer>
		<layer name="255/Output_0/Data__const" type="Const" precision="I32" id="158">
			<output>
				<port id="0">
					<dim>3</dim>
				</port>
			</output>
			<blobs>
				<custom offset="4211976" size="12" />
			</blobs>
		</layer>
		<layer name="mbox_conf_reshape" type="Reshape" precision="FP32" id="159">
			<data axis="0" dim="" num_axes="-1" />
			<input>
				<port id="0">
					<dim>1</dim>
					<dim>20224</dim>
				</port>
				<port id="1">
					<dim>3</dim>
				</port>
			</input>
			<output>
				<port id="2">
					<dim>1</dim>
					<dim>10112</dim>
					<dim>2</dim>
				</port>
			</output>
		</layer>
		<layer name="mbox_conf_softmax" type="SoftMax" precision="FP32" id="160">
			<data axis="2" />
			<input>
				<port id="0">
					<dim>1</dim>
					<dim>10112</dim>
					<dim>2</dim>
				</port>
			</input>
			<output>
				<port id="1">
					<dim>1</dim>
					<dim>10112</dim>
					<dim>2</dim>
				</port>
			</output>
		</layer>
		<layer name="mbox_conf_flatten" type="Flatten" precision="FP32" id="161">
			<data axis="1" end_axis="-1" />
			<input>
				<port id="0">
					<dim>1</dim>
					<dim>10112</dim>
					<dim>2</dim>
				</port>
			</input>
			<output>
				<port id="1">
					<dim>1</dim>
					<dim>20224</dim>
				</port>
			</output>
		</layer>
		<layer name="detection_out" type="DetectionOutput" precision="FP32" id="162">
			<data background_label_id="0" code_type="caffe.PriorBoxParameter.CENTER_SIZE" confidence_threshold="0.009999999776482582" eta="1.0" input_height="1" input_width="1" keep_top_k="200" nms_threshold="0.44999998807907104" normalized="1" num_classes="2" share_location="1" top_k="400" variance_encoded_in_target="0" visualize="False" />
			<input>
				<port id="0">
					<dim>1</dim>
					<dim>40448</dim>
				</port>
				<port id="1">
					<dim>1</dim>
					<dim>20224</dim>
				</port>
				<port id="2">
					<dim>1</dim>
					<dim>2</dim>
					<dim>40448</dim>
				</port>
			</input>
			<output>
				<port id="3">
					<dim>1</dim>
					<dim>1</dim>
					<dim>200</dim>
					<dim>7</dim>
				</port>
			</output>
		</layer>
	</layers>
	<edges>
		<edge from-layer="0" from-port="0" to-layer="1" to-port="0" />
		<edge from-layer="1" from-port="1" to-layer="2" to-port="0" />
		<edge from-layer="1" from-port="1" to-layer="152" to-port="1" />
		<edge from-layer="1" from-port="1" to-layer="148" to-port="1" />
		<edge from-layer="1" from-port="1" to-layer="117" to-port="1" />
		<edge from-layer="1" from-port="1" to-layer="106" to-port="1" />
		<edge from-layer="1" from-port="1" to-layer="95" to-port="1" />
		<edge from-layer="1" from-port="1" to-layer="84" to-port="1" />
		<edge from-layer="1" from-port="1" to-layer="56" to-port="1" />
		<edge from-layer="2" from-port="1" to-layer="3" to-port="0" />
		<edge from-layer="3" from-port="1" to-layer="4" to-port="0" />
		<edge from-layer="4" from-port="1" to-layer="5" to-port="0" />
		<edge from-layer="5" from-port="1" to-layer="6" to-port="0" />
		<edge from-layer="6" from-port="1" to-layer="7" to-port="0" />
		<edge from-layer="7" from-port="1" to-layer="8" to-port="0" />
		<edge from-layer="8" from-port="1" to-layer="9" to-port="0" />
		<edge from-layer="9" from-port="1" to-layer="10" to-port="0" />
		<edge from-layer="10" from-port="1" to-layer="11" to-port="0" />
		<edge from-layer="11" from-port="1" to-layer="12" to-port="0" />
		<edge from-layer="12" from-port="1" to-layer="13" to-port="0" />
		<edge from-layer="13" from-port="1" to-layer="14" to-port="0" />
		<edge from-layer="14" from-port="1" to-layer="15" to-port="0" />
		<edge from-layer="15" from-port="1" to-layer="16" to-port="0" />
		<edge from-layer="16" from-port="1" to-layer="17" to-port="0" />
		<edge from-layer="17" from-port="1" to-layer="18" to-port="0" />
		<edge from-layer="18" from-port="1" to-layer="19" to-port="0" />
		<edge from-layer="19" from-port="1" to-layer="20" to-port="0" />
		<edge from-layer="20" from-port="1" to-layer="21" to-port="0" />
		<edge from-layer="21" from-port="1" to-layer="22" to-port="0" />
		<edge from-layer="22" from-port="1" to-layer="23" to-port="0" />
		<edge from-layer="23" from-port="1" to-layer="24" to-port="0" />
		<edge from-layer="24" from-port="1" to-layer="25" to-port="0" />
		<edge from-layer="25" from-port="1" to-layer="26" to-port="0" />
		<edge from-layer="26" from-port="1" to-layer="27" to-port="0" />
		<edge from-layer="27" from-port="1" to-layer="28" to-port="0" />
		<edge from-layer="28" from-port="1" to-layer="29" to-port="0" />
		<edge from-layer="29" from-port="1" to-layer="30" to-port="0" />
		<edge from-layer="30" from-port="1" to-layer="31" to-port="0" />
		<edge from-layer="31" from-port="1" to-layer="32" to-port="0" />
		<edge from-layer="32" from-port="1" to-layer="33" to-port="0" />
		<edge from-layer="33" from-port="1" to-layer="34" to-port="0" />
		<edge from-layer="34" from-port="1" to-layer="35" to-port="0" />
		<edge from-layer="35" from-port="1" to-layer="36" to-port="0" />
		<edge from-layer="36" from-port="1" to-layer="37" to-port="0" />
		<edge from-layer="37" from-port="1" to-layer="38" to-port="0" />
		<edge from-layer="38" from-port="1" to-layer="39" to-port="0" />
		<edge from-layer="39" from-port="1" to-layer="40" to-port="0" />
		<edge from-layer="40" from-port="1" to-layer="41" to-port="0" />
		<edge from-layer="41" from-port="1" to-layer="42" to-port="0" />
		<edge from-layer="42" from-port="1" to-layer="43" to-port="0" />
		<edge from-layer="43" from-port="1" to-layer="44" to-port="0" />
		<edge from-layer="44" from-port="1" to-layer="45" to-port="0" />
		<edge from-layer="45" from-port="1" to-layer="46" to-port="0" />
		<edge from-layer="46" from-port="1" to-layer="47" to-port="0" />
		<edge from-layer="47" from-port="1" to-layer="154" to-port="0" />
		<edge from-layer="47" from-port="1" to-layer="152" to-port="0" />
		<edge from-layer="47" from-port="1" to-layer="149" to-port="0" />
		<edge from-layer="47" from-port="1" to-layer="148" to-port="0" />
		<edge from-layer="47" from-port="1" to-layer="135" to-port="0" />
		<edge from-layer="47" from-port="1" to-layer="48" to-port="0" />
		<edge from-layer="48" from-port="1" to-layer="49" to-port="0" />
		<edge from-layer="49" from-port="1" to-layer="50" to-port="0" />
		<edge from-layer="50" from-port="1" to-layer="51" to-port="0" />
		<edge from-layer="51" from-port="1" to-layer="52" to-port="0" />
		<edge from-layer="52" from-port="1" to-layer="53" to-port="0" />
		<edge from-layer="53" from-port="1" to-layer="54" to-port="0" />
		<edge from-layer="54" from-port="1" to-layer="55" to-port="0" />
		<edge from-layer="55" from-port="1" to-layer="128" to-port="0" />
		<edge from-layer="55" from-port="1" to-layer="60" to-port="0" />
		<edge from-layer="55" from-port="1" to-layer="57" to-port="0" />
		<edge from-layer="55" from-port="1" to-layer="56" to-port="0" />
		<edge from-layer="56" from-port="2" to-layer="153" to-port="2" />
		<edge from-layer="57" from-port="1" to-layer="58" to-port="0" />
		<edge from-layer="58" from-port="1" to-layer="59" to-port="0" />
		<edge from-layer="59" from-port="1" to-layer="157" to-port="2" />
		<edge from-layer="60" from-port="1" to-layer="61" to-port="0" />
		<edge from-layer="61" from-port="1" to-layer="62" to-port="0" />
		<edge from-layer="62" from-port="1" to-layer="63" to-port="0" />
		<edge from-layer="63" from-port="1" to-layer="64" to-port="0" />
		<edge from-layer="64" from-port="1" to-layer="65" to-port="0" />
		<edge from-layer="65" from-port="1" to-layer="121" to-port="0" />
		<edge from-layer="65" from-port="1" to-layer="118" to-port="0" />
		<edge from-layer="65" from-port="1" to-layer="117" to-port="0" />
		<edge from-layer="65" from-port="1" to-layer="66" to-port="0" />
		<edge from-layer="66" from-port="1" to-layer="67" to-port="0" />
		<edge from-layer="67" from-port="1" to-layer="68" to-port="0" />
		<edge from-layer="68" from-port="1" to-layer="69" to-port="0" />
		<edge from-layer="69" from-port="1" to-layer="70" to-port="0" />
		<edge from-layer="70" from-port="1" to-layer="71" to-port="0" />
		<edge from-layer="71" from-port="1" to-layer="110" to-port="0" />
		<edge from-layer="71" from-port="1" to-layer="107" to-port="0" />
		<edge from-layer="71" from-port="1" to-layer="106" to-port="0" />
		<edge from-layer="71" from-port="1" to-layer="72" to-port="0" />
		<edge from-layer="72" from-port="1" to-layer="73" to-port="0" />
		<edge from-layer="73" from-port="1" to-layer="74" to-port="0" />
		<edge from-layer="74" from-port="1" to-layer="75" to-port="0" />
		<edge from-layer="75" from-port="1" to-layer="76" to-port="0" />
		<edge from-layer="76" from-port="1" to-layer="77" to-port="0" />
		<edge from-layer="77" from-port="1" to-layer="99" to-port="0" />
		<edge from-layer="77" from-port="1" to-layer="96" to-port="0" />
		<edge from-layer="77" from-port="1" to-layer="95" to-port="0" />
		<edge from-layer="77" from-port="1" to-layer="78" to-port="0" />
		<edge from-layer="78" from-port="1" to-layer="79" to-port="0" />
		<edge from-layer="79" from-port="1" to-layer="80" to-port="0" />
		<edge from-layer="80" from-port="1" to-layer="81" to-port="0" />
		<edge from-layer="81" from-port="1" to-layer="82" to-port="0" />
		<edge from-layer="82" from-port="1" to-layer="83" to-port="0" />
		<edge from-layer="83" from-port="1" to-layer="88" to-port="0" />
		<edge from-layer="83" from-port="1" to-layer="85" to-port="0" />
		<edge from-layer="83" from-port="1" to-layer="84" to-port="0" />
		<edge from-layer="84" from-port="2" to-layer="153" to-port="6" />
		<edge from-layer="85" from-port="1" to-layer="86" to-port="0" />
		<edge from-layer="86" from-port="1" to-layer="87" to-port="0" />
		<edge from-layer="87" from-port="1" to-layer="157" to-port="6" />
		<edge from-layer="88" from-port="1" to-layer="89" to-port="0" />
		<edge from-layer="89" from-port="1" to-layer="90" to-port="0" />
		<edge from-layer="90" from-port="1" to-layer="91" to-port="0" />
		<edge from-layer="91" from-port="1" to-layer="92" to-port="0" />
		<edge from-layer="92" from-port="1" to-layer="93" to-port="0" />
		<edge from-layer="93" from-port="1" to-layer="94" to-port="0" />
		<edge from-layer="94" from-port="1" to-layer="147" to-port="6" />
		<edge from-layer="95" from-port="2" to-layer="153" to-port="5" />
		<edge from-layer="96" from-port="1" to-layer="97" to-port="0" />
		<edge from-layer="97" from-port="1" to-layer="98" to-port="0" />
		<edge from-layer="98" from-port="1" to-layer="157" to-port="5" />
		<edge from-layer="99" from-port="1" to-layer="100" to-port="0" />
		<edge from-layer="100" from-port="1" to-layer="101" to-port="0" />
		<edge from-layer="101" from-port="1" to-layer="102" to-port="0" />
		<edge from-layer="102" from-port="1" to-layer="103" to-port="0" />
		<edge from-layer="103" from-port="1" to-layer="104" to-port="0" />
		<edge from-layer="104" from-port="1" to-layer="105" to-port="0" />
		<edge from-layer="105" from-port="1" to-layer="147" to-port="5" />
		<edge from-layer="106" from-port="2" to-layer="153" to-port="4" />
		<edge from-layer="107" from-port="1" to-layer="108" to-port="0" />
		<edge from-layer="108" from-port="1" to-layer="109" to-port="0" />
		<edge from-layer="109" from-port="1" to-layer="157" to-port="4" />
		<edge from-layer="110" from-port="1" to-layer="111" to-port="0" />
		<edge from-layer="111" from-port="1" to-layer="112" to-port="0" />
		<edge from-layer="112" from-port="1" to-layer="113" to-port="0" />
		<edge from-layer="113" from-port="1" to-layer="114" to-port="0" />
		<edge from-layer="114" from-port="1" to-layer="115" to-port="0" />
		<edge from-layer="115" from-port="1" to-layer="116" to-port="0" />
		<edge from-layer="116" from-port="1" to-layer="147" to-port="4" />
		<edge from-layer="117" from-port="2" to-layer="153" to-port="3" />
		<edge from-layer="118" from-port="1" to-layer="119" to-port="0" />
		<edge from-layer="119" from-port="1" to-layer="120" to-port="0" />
		<edge from-layer="120" from-port="1" to-layer="157" to-port="3" />
		<edge from-layer="121" from-port="1" to-layer="122" to-port="0" />
		<edge from-layer="122" from-port="1" to-layer="123" to-port="0" />
		<edge from-layer="123" from-port="1" to-layer="124" to-port="0" />
		<edge from-layer="124" from-port="1" to-layer="125" to-port="0" />
		<edge from-layer="125" from-port="1" to-layer="126" to-port="0" />
		<edge from-layer="126" from-port="1" to-layer="127" to-port="0" />
		<edge from-layer="127" from-port="1" to-layer="147" to-port="3" />
		<edge from-layer="128" from-port="1" to-layer="129" to-port="0" />
		<edge from-layer="129" from-port="1" to-layer="130" to-port="0" />
		<edge from-layer="130" from-port="1" to-layer="131" to-port="0" />
		<edge from-layer="131" from-port="1" to-layer="132" to-port="0" />
		<edge from-layer="132" from-port="1" to-layer="133" to-port="0" />
		<edge from-layer="133" from-port="1" to-layer="134" to-port="0" />
		<edge from-layer="134" from-port="1" to-layer="147" to-port="2" />
		<edge from-layer="135" from-port="1" to-layer="136" to-port="0" />
		<edge from-layer="136" from-port="1" to-layer="142" to-port="0" />
		<edge from-layer="136" from-port="1" to-layer="137" to-port="0" />
		<edge from-layer="137" from-port="1" to-layer="138" to-port="0" />
		<edge from-layer="138" from-port="1" to-layer="139" to-port="0" />
		<edge from-layer="139" from-port="1" to-layer="140" to-port="0" />
		<edge from-layer="140" from-port="1" to-layer="141" to-port="0" />
		<edge from-layer="141" from-port="1" to-layer="147" to-port="1" />
		<edge from-layer="142" from-port="1" to-layer="143" to-port="0" />
		<edge from-layer="143" from-port="1" to-layer="144" to-port="0" />
		<edge from-layer="144" from-port="1" to-layer="145" to-port="0" />
		<edge from-layer="145" from-port="1" to-layer="146" to-port="0" />
		<edge from-layer="146" from-port="1" to-layer="147" to-port="0" />
		<edge from-layer="147" from-port="7" to-layer="159" to-port="0" />
		<edge from-layer="148" from-port="2" to-layer="153" to-port="1" />
		<edge from-layer="149" from-port="1" to-layer="150" to-port="0" />
		<edge from-layer="150" from-port="1" to-layer="151" to-port="0" />
		<edge from-layer="151" from-port="1" to-layer="157" to-port="1" />
		<edge from-layer="152" from-port="2" to-layer="153" to-port="0" />
		<edge from-layer="153" from-port="7" to-layer="162" to-port="2" />
		<edge from-layer="154" from-port="1" to-layer="155" to-port="0" />
		<edge from-layer="155" from-port="1" to-layer="156" to-port="0" />
		<edge from-layer="156" from-port="1" to-layer="157" to-port="0" />
		<edge from-layer="157" from-port="7" to-layer="162" to-port="0" />
		<edge from-layer="158" from-port="0" to-layer="159" to-port="1" />
		<edge from-layer="159" from-port="2" to-layer="160" to-port="0" />
		<edge from-layer="160" from-port="1" to-layer="161" to-port="0" />
		<edge from-layer="161" from-port="1" to-layer="162" to-port="1" />
	</edges>
	<statistics>
		<layer>
			<name>Mul_/Fused_Mul_/FusedScaleShift_</name>
			<min>-1.144000, -1.391000, -1.326000</min>
			<max>2.171000, 1.924000, 1.989000</max>
		</layer>
		<layer>
			<name>conv1</name>
			<min>… -6.412595</min>
			<max>… 6.402049</max>
		</layer>
		<layer>
			<name>conv2_1/dw</name>
			<min>… -2.066943</min>
			<max>… 9.065848</max>
		</layer>
		<layer>
			<name>conv2_1/sep</name>
			<min>… -1.968954</min>
			<max>… 8.911036</max>
		</layer>
		<layer>
			<name>conv2_2/dw</name>
			<min>… -0.031538</min>
			<max>… 9.463033</max>
		</layer>
		<layer>
			<name>conv2_2/sep</name>
			<min>… -1.510109</min>
			<max>… 4.611566</max>
		</layer>
		<layer>
			<name>conv3_1/dw</name>
			<min>… -13.758529</min>
			<max>… 14.359627</max>
		</layer>
		<layer>
			<name>conv3_1/sep</name>
			<min>… -7.597663</min>
			<max>… 7.755945</max>
		</layer>
		<layer>
			<name>conv3_2/dw</name>
			<min>… -6.318199</min>
			<max>… 9.208035</max>
		</layer>
		<layer>
			<name>conv3_2/sep</name>
			<min>… -4.597808</min>
			<max>… 6.843121</max>
		</layer>
		<layer>
			<name>conv4_1/dw</name>
			<min>… -8.270019</min>
			<max>… 7.530898</max>
		</layer>
		<layer>
			<name>conv4_1/sep</name>
			<min>… -6.030279</min>
			<max>… 6.426234</max>
		</layer>
		<layer>
			<name>conv4_2/dw</name>
			<min>… -5.573345</min>
			<max>… 7.233920</max>
		</layer>
		<layer>
			<name>conv4_2/sep</name>
			<min>… -4.856318</min>
			<max>… 5.290894</max>
		</layer>
		<layer>
			<name>conv4_3_0_norm_mbox_conf_64</name>
			<min>-1.241031, -5.742805, -10.315748, -11.364304, -0.063154, -8.953172, -1.156101, -9.664854</min>
			<max>8.924661, 1.333460, 7.284708, 9.480631, 8.219397, 1.236955, 7.094551, 0.889031</max>
		</layer>
		<layer>
			<name>conv4_3_0_norm_mbox_conf_flat</name>
			<min>… -3.517167</min>
			<max>… -1.814425</max>
		</layer>
		<layer>
			<name>conv4_3_0_norm_mbox_conf_perm</name>
			<min>… -8.432050</min>
			<max>… 6.265784</max>
		</layer>
		<layer>
			<name>conv4_3_0_norm_mbox_loc</name>
			<min>-3.912916, -4.144353, -0.111084, -0.321881, -4.123478, -4.255038, -2.449154, -2.543232, -2.597545, -5.469390, -1.866775, 1.420263, -5.051376, -2.777888, 1.616327, -1.970767</min>
			<max>3.938375, 4.037501, 4.174694, 4.619184, 4.338777, 4.231198, 4.085256, 3.982674, 2.663934, 5.057903, 2.155865, 5.302359, 5.172915, 2.560099, 6.050841, 2.761837</max>
		</layer>
		<layer>
			<name>conv4_3_0_norm_mbox_loc_flat</name>
			<min>… -0.897382</min>
			<max>… 0.836085</max>
		</layer>
		<layer>
			<name>conv4_3_0_norm_mbox_loc_perm</name>
			<min>… -3.967297</min>
			<max>… 4.899159</max>
		</layer>
		<layer>
			<name>conv4_3_0_norm_mbox_priorbox</name>
			<min>-0.011442</min>
			<max>1.011442</max>
		</layer>
		<layer>
			<name>conv4_3_norm_mbox_conf_64</name>
			<min>-7.091298, -8.994929, -9.311761, -9.330781, -4.086401, -8.785064, -9.529324, -8.853744</min>
			<max>11.905528, 7.905564, 9.216047, 11.362098, 9.306446, 7.570083, 11.183679, 4.756609</max>
		</layer>
		<layer>
			<name>conv4_3_norm_mbox_conf_flat</name>
			<min>… -4.971588</min>
			<max>… -1.885663</max>
		</layer>
		<layer>
			<name>conv4_3_norm_mbox_conf_perm</name>
			<min>… -7.613645</min>
			<max>… 9.983074</max>
		</layer>
		<layer>
			<name>conv4_3_norm_mbox_loc</name>
			<min>-4.485762, -4.439319, -4.202640, -3.677206, -4.477399, -4.547794, -4.537202, -3.962766, -3.387632, -5.531875, -4.337813, -2.342294, -5.116670, -3.424432, -2.962707, -4.207217</min>
			<max>4.520917, 5.030610, 4.093193, 3.813155, 4.668781, 4.459514, 4.042540, 3.468664, 3.555742, 6.665146, 3.047102, 5.016707, 5.789770, 3.245027, 4.870581, 2.477021</max>
		</layer>
		<layer>
			<name>conv4_3_norm_mbox_loc_flat</name>
			<min>… -2.726460</min>
			<max>… -1.285786</max>
		</layer>
		<layer>
			<name>conv4_3_norm_mbox_loc_perm</name>
			<min>… -4.793332</min>
			<max>… 3.339755</max>
		</layer>
		<layer>
			<name>conv4_3_norm_mbox_priorbox</name>
			<min>-0.049877</min>
			<max>1.049877</max>
		</layer>
		<layer>
			<name>conv5_1/dw</name>
			<min>… -6.625023</min>
			<max>… 5.869828</max>
		</layer>
		<layer>
			<name>conv5_1/sep</name>
			<min>… -6.215599</min>
			<max>… 4.871053</max>
		</layer>
		<layer>
			<name>conv5_2/dw</name>
			<min>… -3.911344</min>
			<max>… 7.185199</max>
		</layer>
		<layer>
			<name>conv5_2/sep</name>
			<min>… -6.967839</min>
			<max>… 6.586741</max>
		</layer>
		<layer>
			<name>conv5_3/dw</name>
			<min>… -3.907528</min>
			<max>… 9.306568</max>
		</layer>
		<layer>
			<name>conv5_3/sep</name>
			<min>… -5.411624</min>
			<max>… 5.923047</max>
		</layer>
		<layer>
			<name>conv5_4/dw</name>
			<min>… -7.509599</min>
			<max>… 6.903857</max>
		</layer>
		<layer>
			<name>conv5_4/sep</name>
			<min>… -4.779880</min>
			<max>… 6.564472</max>
		</layer>
		<layer>
			<name>conv5_5/dw</name>
			<min>… -8.094506</min>
			<max>… 6.359231</max>
		</layer>
		<layer>
			<name>conv5_5/sep</name>
			<min>… -5.970910</min>
			<max>… 3.349455</max>
		</layer>
		<layer>
			<name>conv5_5/sep/reduce</name>
			<min>-1.755477, -0.803383, -0.868415, -1.194672, -2.254048, -1.830044, -2.108185, -2.624856, -0.699201, -1.314049, -1.265250, -1.953706, -2.589236, -0.179067, -0.789508, -1.977372</min>
			<max>3.204191, 1.652125, 2.926065, 1.965290, 4.734081, 5.894103, 5.283209, 4.313264, 1.181545, 2.313233, 4.179010, 4.476661, 4.805035, 0.111312, 7.335280, 5.277264</max>
		</layer>
		<layer>
			<name>conv5_5/sep/reduced/relu</name>
			<min>-0.000000, -0.000000, -0.000000, -0.000000, -0.000000, -0.000000, -0.000000, -0.000000, -0.000000, -0.000000, -0.000000, -0.000000, -0.000000, -0.000000, -0.000000, -0.000000</min>
			<max>3.204191, 1.652125, 2.926065, 1.965290, 4.734081, 5.894103, 5.283209, 4.313264, 1.181545, 2.313233, 4.179010, 4.476661, 4.805035, 0.111312, 7.335280, 5.277264</max>
		</layer>
		<layer>
			<name>conv5_6/dw</name>
			<min>… -1.173116</min>
			<max>… 8.850574</max>
		</layer>
		<layer>
			<name>conv5_6/sep</name>
			<min>… -5.343143</min>
			<max>… 3.119481</max>
		</layer>
		<layer>
			<name>conv6/dw</name>
			<min>… -3.711240</min>
			<max>… 5.067072</max>
		</layer>
		<layer>
			<name>conv6/sep</name>
			<min>… -5.063081</min>
			<max>… 6.552685</max>
		</layer>
		<layer>
			<name>conv6/sep/reduce</name>
			<min>-4.592154, -1.920825, -1.458218, -1.870898, -2.287384, -3.318880, -1.400363, -2.055585, -1.433340, -1.167196, -2.200162, -1.969074, -5.132944, -1.942411, -0.553163, -2.162255</min>
			<max>3.477952, 3.830489, 3.152288, 3.375954, 5.138647, 2.962620, 5.148995, 2.513428, 7.364348, 3.537547, 6.088959, 2.589398, 4.214595, 5.638126, 0.228125, 1.886097</max>
		</layer>
		<layer>
			<name>conv6/sep/reduced/relu</name>
			<min>-0.000000, -0.000000, -0.000000, -0.000000, -0.000000, -0.000000, -0.000000, -0.000000, -0.000000, -0.000000, -0.000000, -0.000000, -0.000000, -0.000000, -0.000000, -0.000000</min>
			<max>3.477952, 3.830489, 3.152288, 3.375954, 5.138647, 2.962620, 5.148995, 2.513428, 7.364348, 3.537547, 6.088959, 2.589398, 4.214595, 5.638126, 0.228125, 1.886097</max>
		</layer>
		<layer>
			<name>conv6_1</name>
			<min>… -4.075644</min>
			<max>… 6.700914</max>
		</layer>
		<layer>
			<name>conv6_2/dw</name>
			<min>… -4.037673</min>
			<max>… 6.970151</max>
		</layer>
		<layer>
			<name>conv6_2/reduce</name>
			<min>-0.830171, -1.072632, -0.941153, -0.442104, -0.380507, -0.484244, -0.060814, 0.025986, -0.063496, -0.850887, -0.063565, -0.961473, -0.300397, -0.539016, -0.440459, -0.714923</min>
			<max>1.803832, 1.134817, 1.742982, 2.023251, 2.150484, 0.492713, -0.060814, 3.072134, -0.063496, 0.635314, 3.017962, 1.510097, 1.847480, 0.329811, 1.390609, 1.206373</max>
		</layer>
		<layer>
			<name>conv6_2/reduced/relu</name>
			<min>-0.000000, -0.000000, -0.000000, -0.000000, -0.000000, -0.000000, -0.000000, 0.025986, -0.000000, -0.000000, -0.000000, -0.000000, -0.000000, -0.000000, -0.000000, -0.000000</min>
			<max>1.803832, 1.134817, 1.742982, 2.023251, 2.150484, 0.492713, -0.000000, 3.072134, -0.000000, 0.635314, 3.017962, 1.510097, 1.847480, 0.329811, 1.390609, 1.206373</max>
		</layer>
		<layer>
			<name>conv6_2_mbox_conf_64</name>
			<min>-2.106510, -5.284479, -0.795512, -4.978224, -1.227825, -5.102621, 0.439194, -6.273179, -0.245493, -5.825578, 1.239574, -8.212767</min>
			<max>5.800072, 1.017378, 7.284741, 3.817941, 5.736842, 1.021429, 7.050875, 0.494767, 6.034495, -0.626118, 8.122643, -1.644918</max>
		</layer>
		<layer>
			<name>conv6_2_mbox_conf_flat</name>
			<min>… -2.539760</min>
			<max>… -1.869119</max>
		</layer>
		<layer>
			<name>conv6_2_mbox_conf_perm</name>
			<min>-4.420773, -7.017075, -7.415888, -6.805813, -4.634409, -3.522564</min>
			<max>5.211331, 7.875314, 7.148942, 6.611236, 5.153577, 3.904429</max>
		</layer>
		<layer>
			<name>conv6_2_mbox_loc</name>
			<min>… -3.308247</min>
			<max>… 0.352761</max>
		</layer>
		<layer>
			<name>conv6_2_mbox_loc_flat</name>
			<min>… -0.596464</min>
			<max>… -0.321198</max>
		</layer>
		<layer>
			<name>conv6_2_mbox_loc_perm</name>
			<min>-2.807286, -3.413543, -3.436791, -2.934143, -2.036463, -2.069640</min>
			<max>2.444830, 3.097436, 3.384336, 2.398140, 2.088928, 1.495585</max>
		</layer>
		<layer>
			<name>conv6_2_mbox_priorbox</name>
			<min>-0.237096</min>
			<max>1.237096</max>
		</layer>
		<layer>
			<name>conv6_2_new</name>
			<min>… -3.821083</min>
			<max>… 1.857965</max>
		</layer>
		<layer>
			<name>conv7_1</name>
			<min>… -3.193516</min>
			<max>… 3.559268</max>
		</layer>
		<layer>
			<name>conv7_2/dw</name>
			<min>… -3.501505</min>
			<max>… 1.871386</max>
		</layer>
		<layer>
			<name>conv7_2/reduce</name>
			<min>0.087957, -0.494484, -0.370590, -1.477504, -0.792753, -0.710518, -0.095280, -0.060736, -0.409945, -0.006988, -0.496544, -1.010789, -0.501767, -0.581012, -0.711806, -1.068037</min>
			<max>2.270337, 2.700470, 1.035742, 1.227532, 2.528606, 0.908233, -0.095280, -0.060736, 0.755586, 2.282590, 1.036880, 0.917004, 1.110623, 1.840755, 0.888567, 1.140529</max>
		</layer>
		<layer>
			<name>conv7_2_mbox_conf_64</name>
			<min>-1.559633, -4.905777, -0.944360, -4.702759, -0.935407, -5.274105, 1.399078, -5.206583, 0.149268, -5.606963, 1.629806, -6.454703</min>
			<max>5.697375, 1.601697, 5.793855, 1.505468, 5.959977, 2.233887, 5.984804, -0.451752, 5.426843, -0.055761, 6.476626, -1.506078</max>
		</layer>
		<layer>
			<name>conv7_2_mbox_conf_flat</name>
			<min>… -2.733246</min>
			<max>… -1.790571</max>
		</layer>
		<layer>
			<name>conv7_2_mbox_conf_perm</name>
			<min>-5.153929, -6.770363, -4.910051</min>
			<max>5.295481, 6.860691, 5.763904</max>
		</layer>
		<layer>
			<name>conv7_2_mbox_loc</name>
			<min>… -3.480847</min>
			<max>… -0.776552</max>
		</layer>
		<layer>
			<name>conv7_2_mbox_loc_flat</name>
			<min>… -1.834446</min>
			<max>… -1.107539</max>
		</layer>
		<layer>
			<name>conv7_2_mbox_loc_perm</name>
			<min>-3.331677, -3.462588, -2.677142</min>
			<max>2.138984, 3.235080, 1.903011</max>
		</layer>
		<layer>
			<name>conv7_2_mbox_priorbox</name>
			<min>-0.337445</min>
			<max>1.118695</max>
		</layer>
		<layer>
			<name>conv7_2_new</name>
			<min>… -3.175782</min>
			<max>… 3.838374</max>
		</layer>
		<layer>
			<name>conv7_2_reduced/relu</name>
			<min>0.087957, -0.000000, -0.000000, -0.000000, -0.000000, -0.000000, -0.000000, -0.000000, -0.000000, -0.000000, -0.000000, -0.000000, -0.000000, -0.000000, -0.000000, -0.000000</min>
			<max>2.270337, 2.700470, 1.035742, 1.227532, 2.528606, 0.908233, -0.000000, -0.000000, 0.755586, 2.282590, 1.036880, 0.917004, 1.110623, 1.840755, 0.888567, 1.140529</max>
		</layer>
		<layer>
			<name>conv8_1</name>
			<min>… -2.286252</min>
			<max>… 2.915154</max>
		</layer>
		<layer>
			<name>conv8_2/dw</name>
			<min>… -2.639542</min>
			<max>… 1.733419</max>
		</layer>
		<layer>
			<name>conv8_2/reduce</name>
			<min>-1.068880, -0.045538, -0.393344, -0.242690, -1.228672, -0.780973, -0.948439, -0.797442, -0.222974, 0.284902, -0.639386, -0.652830, -0.510953, -0.535210, -0.102052, 0.063433</min>
			<max>0.787671, -0.045538, 0.905976, 1.165069, 0.535056, 0.363171, 0.464370, 1.411194, 1.237258, 2.354766, 0.906027, 1.145145, 0.956059, 1.091551, 1.053324, 1.919000</max>
		</layer>
		<layer>
			<name>conv8_2_mbox_conf_64</name>
			<min>1.426089, -4.054161, 1.439006, -4.127975, 1.450459, -4.325793, 1.699296, -4.035222</min>
			<max>3.869214, -1.278308, 4.462399, -1.439409, 4.317509, -1.491946, 4.603121, -1.523874</max>
		</layer>
		<layer>
			<name>conv8_2_mbox_conf_flat</name>
			<min>… -3.689354</min>
			<max>… -1.728095</max>
		</layer>
		<layer>
			<name>conv8_2_mbox_conf_perm</name>
			<min>-4.341892, -4.241506</min>
			<max>4.416167, 4.833546</max>
		</layer>
		<layer>
			<name>conv8_2_mbox_loc</name>
			<min>-1.736248, -1.933617, -1.762366, -2.604768, -1.483754, -1.694338, -1.773570, -2.680420, -1.116461, -1.989186, -2.243785, -1.315443, -1.596137, -1.582949, -0.762753, -3.256790</min>
			<max>1.836449, 1.787759, 1.249104, 0.761596, 1.937625, 1.667125, 1.642751, 0.501726, 1.345631, 2.155257, 0.309752, 1.692383, 1.715595, 1.325279, 1.792737, -0.735839</max>
		</layer>
		<layer>
			<name>conv8_2_mbox_loc_flat</name>
			<min>… -2.936665</min>
			<max>… -0.845980</max>
		</layer>
		<layer>
			<name>conv8_2_mbox_loc_perm</name>
			<min>-3.057041, -3.144013</min>
			<max>2.155257, 2.172404</max>
		</layer>
		<layer>
			<name>conv8_2_mbox_priorbox</name>
			<min>-0.306733</min>
			<max>1.087983</max>
		</layer>
		<layer>
			<name>conv8_2_new</name>
			<min>… -2.358552</min>
			<max>… 2.052845</max>
		</layer>
		<layer>
			<name>conv8_2_reduced/relu</name>
			<min>-0.000000, -0.000000, -0.000000, -0.000000, -0.000000, -0.000000, -0.000000, -0.000000, -0.000000, 0.284902, -0.000000, -0.000000, -0.000000, -0.000000, -0.000000, 0.063433</min>
			<max>0.787671, -0.000000, 0.905976, 1.165069, 0.535056, 0.363171, 0.464370, 1.411194, 1.237258, 2.354766, 0.906027, 1.145145, 0.956059, 1.091551, 1.053324, 1.919000</max>
		</layer>
		<layer>
			<name>conv9_1</name>
			<min>… -0.611838</min>
			<max>… 1.489137</max>
		</layer>
		<layer>
			<name>conv9_2/dw</name>
			<min>… -1.503229</min>
			<max>… 1.042401</max>
		</layer>
		<layer>
			<name>conv9_2/reduce</name>
			<min>-1.379248, -1.226703, -0.200900, -0.827037, -1.045010, -2.186819, -0.278791, 0.862767, 0.335508, -0.499735, -0.633483, -0.681389, -1.025483, -1.026307, -1.023437, -0.038406</min>
			<max>1.005030, 1.928415, 1.075968, 1.757777, 1.353937, 1.124492, 1.254212, 1.665783, 2.600607, 1.631558, 2.169267, 0.301080, 1.008323, 0.767535, 1.127886, 2.243852</max>
		</layer>
		<layer>
			<name>conv9_2_mbox_conf_64</name>
			<min>1.438510, -2.983669, 1.495056, -2.908565, 1.377965, -2.651957, 1.617724, -2.700331</min>
			<max>2.702998, -1.615471, 2.862862, -1.497254, 2.419544, -1.738485, 2.863665, -1.704167</max>
		</layer>
		<layer>
			<name>conv9_2_mbox_conf_flat</name>
			<min>1.616735, -2.561926, 1.547383, -2.908565, 1.723941, -2.383175, 1.673633, -2.700331, 1.456220, -2.947011, 1.500024, -2.891091, 1.377965, -2.642552, 1.673892, -2.538845</min>
			<max>2.447077, -1.638348, 2.703751, -1.644925, 2.370002, -1.753221, 2.863665, -1.754638, 2.688013, -1.711738, 2.862862, -1.498927, 2.352090, -1.830875, 2.570735, -1.761417</max>
		</layer>
		<layer>
			<name>conv9_2_mbox_conf_perm</name>
			<min>-3.022120</min>
			<max>2.863665</max>
		</layer>
		<layer>
			<name>conv9_2_mbox_loc</name>
			<min>-1.477201, -0.011982, -1.185115, -1.943769, -1.831053, 0.306809, -1.117190, -2.018713, -1.802354, -0.317697, -2.134095, -0.599757, -1.050370, 0.549772, 0.023830, -3.023742</min>
			<max>1.870302, 1.111156, 1.205519, 0.151277, 2.193786, 1.174639, 1.323969, -0.080999, 1.775819, 1.354350, 0.031441, 1.685102, 1.197259, 1.030484, 1.730185, -1.376248</max>
		</layer>
		<layer>
			<name>conv9_2_mbox_loc_flat</name>
			<min>… -3.023742</min>
			<max>… -1.446033</max>
		</layer>
		<layer>
			<name>conv9_2_mbox_loc_perm</name>
			<min>-3.023742</min>
			<max>2.211142</max>
		</layer>
		<layer>
			<name>conv9_2_mbox_priorbox</name>
			<min>-0.231629</min>
			<max>1.025217</max>
		</layer>
		<layer>
			<name>conv9_2_new</name>
			<min>… -1.613761</min>
			<max>… 2.543613</max>
		</layer>
		<layer>
			<name>conv9_2_reduced/relu</name>
			<min>-0.000000, -0.000000, -0.000000, -0.000000, -0.000000, -0.000000, -0.000000, 0.862767, 0.335508, -0.000000, -0.000000, -0.000000, -0.000000, -0.000000, -0.000000, -0.000000</min>
			<max>1.005030, 1.928415, 1.075968, 1.757777, 1.353937, 1.124492, 1.254212, 1.665783, 2.600607, 1.631558, 2.169267, 0.301080, 1.008323, 0.767535, 1.127886, 2.243852</max>
		</layer>
		<layer>
			<name>data</name>
			<min>0.000000, 0.000000, 0.000000</min>
			<max>255.000000, 255.000000, 255.000000</max>
		</layer>
		<layer>
			<name>detection_out</name>
			<min>-1.000000</min>
			<max>1.193521</max>
		</layer>
		<layer>
			<name>fc7_mbox_conf_64</name>
			<min>-6.582438, -6.908571, -2.627996, -5.743014, -5.464180, -7.168859, -2.769245, -5.432300, -2.901302, -6.327908, -1.546518, -5.712028</min>
			<max>5.035076, 3.623630, 7.354484, 4.066516, 4.501539, 2.138859, 6.283047, 5.055209, 5.749301, 1.682478, 5.576020, 1.123999</max>
		</layer>
		<layer>
			<name>fc7_mbox_conf_flat</name>
			<min>… -3.810023</min>
			<max>… -2.008084</max>
		</layer>
		<layer>
			<name>fc7_mbox_conf_perm</name>
			<min>-6.813262, -6.774845, -6.970030, -6.583862, -6.317707, -5.675473, -5.100638, -5.114641, -4.466555, -4.625517, -5.776841, -5.743014</min>
			<max>5.949896, 7.031340, 6.167250, 6.270531, 6.154149, 5.956287, 5.557325, 5.055209, 5.058969, 5.902830, 5.989522, 5.191090</max>
		</layer>
		<layer>
			<name>fc7_mbox_loc</name>
			<min>… -4.617020</min>
			<max>… 0.367493</max>
		</layer>
		<layer>
			<name>fc7_mbox_loc_flat</name>
			<min>… -2.695215</min>
			<max>… -1.753208</max>
		</layer>
		<layer>
			<name>fc7_mbox_loc_perm</name>
			<min>-3.918455, -4.503674, -4.444396, -4.387328, -4.308456, -4.391540, -4.163177, -4.028139, -4.042248, -3.755848, -4.683483, -3.752733</min>
			<max>2.619857, 3.389445, 3.499183, 3.328031, 3.172831, 2.784422, 2.638839, 2.295040, 2.221869, 2.060842, 2.990628, 2.644844</max>
		</layer>
		<layer>
			<name>fc7_mbox_priorbox</name>
			<min>-0.131538</min>
			<max>1.131538</max>
		</layer>
		<layer>
			<name>mbox_conf_16</name>
			<min>… -2.538845</min>
			<max>… -1.761417</max>
		</layer>
		<layer>
			<name>mbox_conf_flatten</name>
			<min>… 0.006002</min>
			<max>… 0.030511</max>
		</layer>
		<layer>
			<name>mbox_conf_reshape</name>
			<min>-12.319116</min>
			<max>12.962740</max>
		</layer>
		<layer>
			<name>mbox_conf_softmax</name>
			<min>0.000000</min>
			<max>1.000000</max>
		</layer>
		<layer>
			<name>mbox_loc</name>
			<min>… -3.023742</min>
			<max>… -1.446033</max>
		</layer>
		<layer>
			<name>mbox_priorbox</name>
			<min>-0.337445</min>
			<max>1.237096</max>
		</layer>
		<layer>
			<name>pre_conv4_3_0_norm_mbox_conf/relu</name>
			<min>-0.000000, -0.000000, -0.000000, -0.000000, -0.000000, -0.000000, -0.000000, -0.000000, -0.000000, -0.000000, -0.000000, -0.000000, -0.000000, -0.000000, -0.000000, -0.000000</min>
			<max>6.599335, 10.326524, 4.063476, 7.766195, 5.153864, 12.165343, 12.854653, 7.096037, 8.430164, 7.625741, 8.936912, 2.332882, 7.497205, 10.065784, 9.136949, 6.275473</max>
		</layer>
		<layer>
			<name>pre_conv4_3_0_norm_mbox_conf_64</name>
			<min>-7.085404, -5.059484, -7.512319, -2.280855, -6.543280, -3.674653, -1.342704, -8.374585, -5.940049, -7.825325, -2.210485, -7.214206, -7.232203, -2.993686, -3.230743, -6.291295</min>
			<max>6.599335, 10.326524, 4.063476, 7.766195, 5.153864, 12.165343, 12.854653, 7.096037, 8.430164, 7.625741, 8.936912, 2.332882, 7.497205, 10.065784, 9.136949, 6.275473</max>
		</layer>
		<layer>
			<name>pre_conv4_3_norm_mbox_conf/relu</name>
			<min>-0.000000, -0.000000, -0.000000, -0.000000, -0.000000, -0.000000, -0.000000, -0.000000, -0.000000, -0.000000, -0.000000, -0.000000, -0.000000, -0.000000, -0.000000, -0.000000</min>
			<max>6.340189, 9.265252, 3.703138, 8.552491, 5.953972, 11.571963, 14.332617, 6.536359, 6.363919, 7.012214, 8.512108, 2.296609, 7.704880, 8.991403, 9.008385, 6.885096</max>
		</layer>
		<layer>
			<name>pre_conv4_3_norm_mbox_conf_64</name>
			<min>-7.378743, -5.564609, -6.263544, -2.794698, -7.849540, -4.682007, -2.087122, -8.731543, -5.121056, -7.434497, -2.431426, -6.978278, -7.830943, -2.969405, -3.803118, -8.015408</min>
			<max>6.340189, 9.265252, 3.703138, 8.552491, 5.953972, 11.571963, 14.332617, 6.536359, 6.363919, 7.012214, 8.512108, 2.296609, 7.704880, 8.991403, 9.008385, 6.885096</max>
		</layer>
		<layer>
			<name>pre_conv6_2_mbox_conf/relu</name>
			<min>-0.000000, -0.000000, -0.000000, -0.000000, -0.000000, -0.000000, -0.000000, -0.000000, -0.000000, -0.000000, -0.000000, -0.000000, -0.000000, -0.000000, -0.000000, -0.000000</min>
			<max>4.709264, 6.811109, 6.590552, 3.879211, 4.302232, 8.509565, 4.666838, 5.130833, 3.506063, 3.305803, 4.678162, 3.847773, 4.511461, 5.034304, 7.398953, 4.630149</max>
		</layer>
		<layer>
			<name>pre_conv6_2_mbox_conf_64</name>
			<min>-3.337752, -3.115756, -2.984497, -2.824550, -5.040897, -3.944593, -3.096280, -2.324733, -6.670833, -3.722414, -3.615984, -4.026592, -4.472171, -2.362558, -2.954505, -3.389760</min>
			<max>4.709264, 6.811109, 6.590552, 3.879211, 4.302232, 8.509565, 4.666838, 5.130833, 3.506063, 3.305803, 4.678162, 3.847773, 4.511461, 5.034304, 7.398953, 4.630149</max>
		</layer>
		<layer>
			<name>pre_conv7_2_mbox_conf/relu</name>
			<min>-0.000000, -0.000000, -0.000000, -0.000000, -0.000000, -0.000000, -0.000000, -0.000000, -0.000000, -0.000000, -0.000000, -0.000000, -0.000000, -0.000000, -0.000000, -0.000000</min>
			<max>5.607669, 4.513858, 5.717098, 4.672837, 4.478519, 2.858494, 6.563128, 4.126296, 3.112166, 4.642811, 3.878299, 3.826984, 3.914780, 3.353254, 4.883336, 4.718122</max>
		</layer>
		<layer>
			<name>pre_conv7_2_mbox_conf_64</name>
			<min>-2.515236, -3.393065, -3.209019, -2.015215, -3.313647, -3.078768, -2.779723, -1.993203, -2.607511, -3.221519, -3.105650, -3.452664, -3.543499, -1.936386, -3.903571, -2.557884</min>
			<max>5.607669, 4.513858, 5.717098, 4.672837, 4.478519, 2.858494, 6.563128, 4.126296, 3.112166, 4.642811, 3.878299, 3.826984, 3.914780, 3.353254, 4.883336, 4.718122</max>
		</layer>
		<layer>
			<name>pre_conv8_2_mbox_conf/relu</name>
			<min>-0.000000, -0.000000, -0.000000, -0.000000, -0.000000, -0.000000, -0.000000, -0.000000, -0.000000, -0.000000, -0.000000, -0.000000, -0.000000, -0.000000, -0.000000, -0.000000</min>
			<max>4.021585, 4.780195, 3.289924, 3.060516, 2.710649, 2.463895, 4.842364, 3.750586, 3.933763, 5.068889, 3.378052, 2.893324, 4.316184, 3.639288, 3.695900, 3.591416</max>
		</layer>
		<layer>
			<name>pre_conv8_2_mbox_conf_64</name>
			<min>-1.251392, -2.778723, -1.666014, -1.571359, -2.299485, -2.598722, -1.563035, -1.769840, -1.749649, -1.822644, -1.679669, -1.672371, -1.992748, -1.809760, -2.596044, -1.793265</min>
			<max>4.021585, 4.780195, 3.289924, 3.060516, 2.710649, 2.463895, 4.842364, 3.750586, 3.933763, 5.068889, 3.378052, 2.893324, 4.316184, 3.639288, 3.695900, 3.591416</max>
		</layer>
		<layer>
			<name>pre_conv9_2_mbox_conf/relu</name>
			<min>-0.000000, -0.000000, -0.000000, -0.000000, -0.000000, -0.000000, -0.000000, -0.000000, -0.000000, -0.000000, -0.000000, -0.000000, -0.000000, -0.000000, -0.000000, -0.000000</min>
			<max>2.314382, 3.516232, 2.399594, 2.902583, 2.608969, 2.909420, 2.954824, 3.404243, 2.370289, 2.547133, 3.489664, 2.448450, 2.821796, 2.583947, 3.066311, 1.946442</max>
		</layer>
		<layer>
			<name>pre_conv9_2_mbox_conf_64</name>
			<min>-1.491474, -1.239907, -1.193310, -1.230780, -1.239094, -1.551147, -1.089400, -1.148746, -1.388799, -1.432046, -1.412418, -1.919249, -1.267143, -2.033737, -1.766158, -2.073920</min>
			<max>2.314382, 3.516232, 2.399594, 2.902583, 2.608969, 2.909420, 2.954824, 3.404243, 2.370289, 2.547133, 3.489664, 2.448450, 2.821796, 2.583947, 3.066311, 1.946442</max>
		</layer>
		<layer>
			<name>pre_fc7_mbox_conf/relu</name>
			<min>-0.000000, -0.000000, -0.000000, -0.000000, -0.000000, -0.000000, -0.000000, -0.000000, -0.000000, -0.000000, -0.000000, -0.000000, -0.000000, -0.000000, -0.000000, -0.000000</min>
			<max>2.987440, 6.282142, 5.269135, 9.465391, 6.993741, 3.670066, 7.471164, 6.000875, 2.280206, 6.599965, 5.473838, 3.418098, 7.534040, 8.166409, 6.822640, 7.217972</max>
		</layer>
		<layer>
			<name>pre_fc7_mbox_conf_64</name>
			<min>-5.775106, -3.124322, -4.829336, -4.000645, -3.963357, -5.518390, -4.391613, -2.506885, -4.962780, -5.996291, -4.014342, -6.016978, -4.464444, -2.128030, -4.612844, -2.889190</min>
			<max>2.987440, 6.282142, 5.269135, 9.465391, 6.993741, 3.670066, 7.471164, 6.000875, 2.280206, 6.599965, 5.473838, 3.418098, 7.534040, 8.166409, 6.822640, 7.217972</max>
		</layer>
		<layer>
			<name>relu1</name>
			<min>… -0.000000</min>
			<max>… 6.402049</max>
		</layer>
		<layer>
			<name>relu2_1/dw</name>
			<min>… -0.000000</min>
			<max>… 9.065848</max>
		</layer>
		<layer>
			<name>relu2_1/sep</name>
			<min>… -0.000000</min>
			<max>… 8.911036</max>
		</layer>
		<layer>
			<name>relu2_2/dw</name>
			<min>… -0.000000</min>
			<max>… 9.463033</max>
		</layer>
		<layer>
			<name>relu2_2/sep</name>
			<min>… -0.000000</min>
			<max>… 4.611566</max>
		</layer>
		<layer>
			<name>relu3_1/dw</name>
			<min>… -0.000000</min>
			<max>… 14.359627</max>
		</layer>
		<layer>
			<name>relu3_1/sep</name>
			<min>… -0.000000</min>
			<max>… 7.755945</max>
		</layer>
		<layer>
			<name>relu3_2/dw</name>
			<min>… -0.000000</min>
			<max>… 9.208035</max>
		</layer>
		<layer>
			<name>relu3_2/sep</name>
			<min>… -0.000000</min>
			<max>… 6.843121</max>
		</layer>
		<layer>
			<name>relu4_1/dw</name>
			<min>… -0.000000</min>
			<max>… 7.530898</max>
		</layer>
		<layer>
			<name>relu4_1/sep</name>
			<min>… -0.000000</min>
			<max>… 6.426234</max>
		</layer>
		<layer>
			<name>relu4_2/dw</name>
			<min>… -0.000000</min>
			<max>… 7.233920</max>
		</layer>
		<layer>
			<name>relu4_2/sep</name>
			<min>… -0.000000</min>
			<max>… 5.290894</max>
		</layer>
		<layer>
			<name>relu5_1/dw</name>
			<min>… -0.000000</min>
			<max>… 5.869828</max>
		</layer>
		<layer>
			<name>relu5_1/sep</name>
			<min>… -0.000000</min>
			<max>… 4.871053</max>
		</layer>
		<layer>
			<name>relu5_2/dw</name>
			<min>… -0.000000</min>
			<max>… 7.185199</max>
		</layer>
		<layer>
			<name>relu5_2/sep</name>
			<min>… -0.000000</min>
			<max>… 6.586741</max>
		</layer>
		<layer>
			<name>relu5_3/dw</name>
			<min>… -0.000000</min>
			<max>… 9.306568</max>
		</layer>
		<layer>
			<name>relu5_3/sep</name>
			<min>… -0.000000</min>
			<max>… 5.923047</max>
		</layer>
		<layer>
			<name>relu5_4/dw</name>
			<min>… -0.000000</min>
			<max>… 6.903857</max>
		</layer>
		<layer>
			<name>relu5_4/sep</name>
			<min>… -0.000000</min>
			<max>… 6.564472</max>
		</layer>
		<layer>
			<name>relu5_5/dw</name>
			<min>… -0.000000</min>
			<max>… 6.359231</max>
		</layer>
		<layer>
			<name>relu5_5/sep</name>
			<min>… -0.000000</min>
			<max>… 3.349455</max>
		</layer>
		<layer>
			<name>relu5_6/dw</name>
			<min>… -0.000000</min>
			<max>… 8.850574</max>
		</layer>
		<layer>
			<name>relu5_6/sep</name>
			<min>… -0.000000</min>
			<max>… 3.119481</max>
		</layer>
		<layer>
			<name>relu6/dw</name>
			<min>… -0.000000</min>
			<max>… 5.067072</max>
		</layer>
		<layer>
			<name>relu6/sep</name>
			<min>… -0.000000</min>
			<max>… 6.552685</max>
		</layer>
		<layer>
			<name>relu6_1</name>
			<min>… -0.000000</min>
			<max>… 6.700914</max>
		</layer>
		<layer>
			<name>relu6_2</name>
			<min>… -0.000000</min>
			<max>… 1.857965</max>
		</layer>
		<layer>
			<name>relu6_2/dw</name>
			<min>… -0.000000</min>
			<max>… 6.970151</max>
		</layer>
		<layer>
			<name>relu7_1</name>
			<min>… -0.000000</min>
			<max>… 3.559268</max>
		</layer>
		<layer>
			<name>relu7_2</name>
			<min>… -0.000000</min>
			<max>… 3.838374</max>
		</layer>
		<layer>
			<name>relu7_2/dw</name>
			<min>… -0.000000</min>
			<max>… 1.871386</max>
		</layer>
		<layer>
			<name>relu8_1</name>
			<min>… -0.000000</min>
			<max>… 2.915154</max>
		</layer>
		<layer>
			<name>relu8_2</name>
			<min>… -0.000000</min>
			<max>… 2.052845</max>
		</layer>
		<layer>
			<name>relu8_2/dw</name>
			<min>… -0.000000</min>
			<max>… 1.733419</max>
		</layer>
		<layer>
			<name>relu9_1</name>
			<min>… -0.000000</min>
			<max>… 1.489137</max>
		</layer>
		<layer>
			<name>relu9_2</name>
			<min>… -0.000000</min>
			<max>… 2.543613</max>
		</layer>
		<layer>
			<name>relu9_2/dw</name>
			<min>… -0.000000</min>
			<max>… 1.042401</max>
		</layer>
	</statistics>
</net>
