<?xml version="1.0"?>
<net name="face-detection-retail-0005" version="6" batch="1">
	<layers>
		<layer name="input.1" type="Input" precision="FP32" id="0">
			<output>
				<port id="0">
					<dim>1</dim>
					<dim>3</dim>
					<dim>300</dim>
					<dim>300</dim>
				</port>
			</output>
		</layer>
		<layer name="Mul_" type="Power" precision="FP32" id="1">
			<data power="1.000000" scale="0.003922" shift="0.000000" />
			<input>
				<port id="0">
					<dim>1</dim>
					<dim>3</dim>
					<dim>300</dim>
					<dim>300</dim>
				</port>
			</input>
			<output>
				<port id="1">
					<dim>1</dim>
					<dim>3</dim>
					<dim>300</dim>
					<dim>300</dim>
				</port>
			</output>
		</layer>
		<layer name="Mul1_6931/Fused_Mul_/FusedScaleShift_" type="ScaleShift" precision="FP32" id="2">
			<data broadcast="0" />
			<input>
				<port id="0">
					<dim>1</dim>
					<dim>3</dim>
					<dim>300</dim>
					<dim>300</dim>
				</port>
			</input>
			<output>
				<port id="1">
					<dim>1</dim>
					<dim>3</dim>
					<dim>300</dim>
					<dim>300</dim>
				</port>
			</output>
			<blobs>
				<biases offset="0" size="12" />
				<weights offset="12" size="12" />
			</blobs>
		</layer>
		<layer name="332" type="Convolution" precision="FP32" id="3">
			<data dilations="1,1" group="1" kernel="3,3" output="24" pads_begin="1,1" pads_end="1,1" quantization_level="I8" strides="2,2" />
			<input>
				<port id="0">
					<dim>1</dim>
					<dim>3</dim>
					<dim>300</dim>
					<dim>300</dim>
				</port>
			</input>
			<output>
				<port id="1">
					<dim>1</dim>
					<dim>24</dim>
					<dim>150</dim>
					<dim>150</dim>
				</port>
			</output>
			<blobs>
				<biases offset="24" size="96" />
				<weights offset="120" size="2592" />
			</blobs>
		</layer>
		<layer name="334" type="ReLU" precision="FP32" id="4">
			<input>
				<port id="0">
					<dim>1</dim>
					<dim>24</dim>
					<dim>150</dim>
					<dim>150</dim>
				</port>
			</input>
			<output>
				<port id="1">
					<dim>1</dim>
					<dim>24</dim>
					<dim>150</dim>
					<dim>150</dim>
				</port>
			</output>
		</layer>
		<layer name="335" type="Convolution" precision="FP32" id="5">
			<data dilations="1,1" group="24" kernel="3,3" output="24" pads_begin="1,1" pads_end="1,1" quantization_level="I8" strides="1,1" />
			<input>
				<port id="0">
					<dim>1</dim>
					<dim>24</dim>
					<dim>150</dim>
					<dim>150</dim>
				</port>
			</input>
			<output>
				<port id="1">
					<dim>1</dim>
					<dim>24</dim>
					<dim>150</dim>
					<dim>150</dim>
				</port>
			</output>
			<blobs>
				<biases offset="2712" size="96" />
				<weights offset="2808" size="864" />
			</blobs>
		</layer>
		<layer name="337" type="ReLU" precision="FP32" id="6">
			<input>
				<port id="0">
					<dim>1</dim>
					<dim>24</dim>
					<dim>150</dim>
					<dim>150</dim>
				</port>
			</input>
			<output>
				<port id="1">
					<dim>1</dim>
					<dim>24</dim>
					<dim>150</dim>
					<dim>150</dim>
				</port>
			</output>
		</layer>
		<layer name="338" type="Convolution" precision="FP32" id="7">
			<data dilations="1,1" group="1" kernel="1,1" output="12" pads_begin="0,0" pads_end="0,0" quantization_level="I8" strides="1,1" />
			<input>
				<port id="0">
					<dim>1</dim>
					<dim>24</dim>
					<dim>150</dim>
					<dim>150</dim>
				</port>
			</input>
			<output>
				<port id="1">
					<dim>1</dim>
					<dim>12</dim>
					<dim>150</dim>
					<dim>150</dim>
				</port>
			</output>
			<blobs>
				<biases offset="3672" size="48" />
				<weights offset="3720" size="1152" />
			</blobs>
		</layer>
		<layer name="340" type="Convolution" precision="FP32" id="8">
			<data dilations="1,1" group="1" kernel="1,1" output="72" pads_begin="0,0" pads_end="0,0" quantization_level="I8" strides="1,1" />
			<input>
				<port id="0">
					<dim>1</dim>
					<dim>12</dim>
					<dim>150</dim>
					<dim>150</dim>
				</port>
			</input>
			<output>
				<port id="1">
					<dim>1</dim>
					<dim>72</dim>
					<dim>150</dim>
					<dim>150</dim>
				</port>
			</output>
			<blobs>
				<biases offset="4872" size="288" />
				<weights offset="5160" size="3456" />
			</blobs>
		</layer>
		<layer name="342" type="ReLU" precision="FP32" id="9">
			<input>
				<port id="0">
					<dim>1</dim>
					<dim>72</dim>
					<dim>150</dim>
					<dim>150</dim>
				</port>
			</input>
			<output>
				<port id="1">
					<dim>1</dim>
					<dim>72</dim>
					<dim>150</dim>
					<dim>150</dim>
				</port>
			</output>
		</layer>
		<layer name="343" type="Convolution" precision="FP32" id="10">
			<data dilations="1,1" group="72" kernel="3,3" output="72" pads_begin="1,1" pads_end="1,1" quantization_level="FP32" strides="2,2" />
			<input>
				<port id="0">
					<dim>1</dim>
					<dim>72</dim>
					<dim>150</dim>
					<dim>150</dim>
				</port>
			</input>
			<output>
				<port id="1">
					<dim>1</dim>
					<dim>72</dim>
					<dim>75</dim>
					<dim>75</dim>
				</port>
			</output>
			<blobs>
				<biases offset="8616" size="288" />
				<weights offset="8904" size="2592" />
			</blobs>
		</layer>
		<layer name="345" type="ReLU" precision="FP32" id="11">
			<input>
				<port id="0">
					<dim>1</dim>
					<dim>72</dim>
					<dim>75</dim>
					<dim>75</dim>
				</port>
			</input>
			<output>
				<port id="1">
					<dim>1</dim>
					<dim>72</dim>
					<dim>75</dim>
					<dim>75</dim>
				</port>
			</output>
		</layer>
		<layer name="346" type="Convolution" precision="FP32" id="12">
			<data dilations="1,1" group="1" kernel="1,1" output="18" pads_begin="0,0" pads_end="0,0" quantization_level="I8" strides="1,1" />
			<input>
				<port id="0">
					<dim>1</dim>
					<dim>72</dim>
					<dim>75</dim>
					<dim>75</dim>
				</port>
			</input>
			<output>
				<port id="1">
					<dim>1</dim>
					<dim>18</dim>
					<dim>75</dim>
					<dim>75</dim>
				</port>
			</output>
			<blobs>
				<biases offset="11496" size="72" />
				<weights offset="11568" size="5184" />
			</blobs>
		</layer>
		<layer name="348" type="Convolution" precision="FP32" id="13">
			<data dilations="1,1" group="1" kernel="1,1" output="108" pads_begin="0,0" pads_end="0,0" quantization_level="I8" strides="1,1" />
			<input>
				<port id="0">
					<dim>1</dim>
					<dim>18</dim>
					<dim>75</dim>
					<dim>75</dim>
				</port>
			</input>
			<output>
				<port id="1">
					<dim>1</dim>
					<dim>108</dim>
					<dim>75</dim>
					<dim>75</dim>
				</port>
			</output>
			<blobs>
				<biases offset="16752" size="432" />
				<weights offset="17184" size="7776" />
			</blobs>
		</layer>
		<layer name="350" type="ReLU" precision="FP32" id="14">
			<input>
				<port id="0">
					<dim>1</dim>
					<dim>108</dim>
					<dim>75</dim>
					<dim>75</dim>
				</port>
			</input>
			<output>
				<port id="1">
					<dim>1</dim>
					<dim>108</dim>
					<dim>75</dim>
					<dim>75</dim>
				</port>
			</output>
		</layer>
		<layer name="351" type="Convolution" precision="FP32" id="15">
			<data dilations="1,1" group="108" kernel="3,3" output="108" pads_begin="1,1" pads_end="1,1" quantization_level="FP32" strides="1,1" />
			<input>
				<port id="0">
					<dim>1</dim>
					<dim>108</dim>
					<dim>75</dim>
					<dim>75</dim>
				</port>
			</input>
			<output>
				<port id="1">
					<dim>1</dim>
					<dim>108</dim>
					<dim>75</dim>
					<dim>75</dim>
				</port>
			</output>
			<blobs>
				<biases offset="24960" size="432" />
				<weights offset="25392" size="3888" />
			</blobs>
		</layer>
		<layer name="353" type="ReLU" precision="FP32" id="16">
			<input>
				<port id="0">
					<dim>1</dim>
					<dim>108</dim>
					<dim>75</dim>
					<dim>75</dim>
				</port>
			</input>
			<output>
				<port id="1">
					<dim>1</dim>
					<dim>108</dim>
					<dim>75</dim>
					<dim>75</dim>
				</port>
			</output>
		</layer>
		<layer name="354" type="Convolution" precision="FP32" id="17">
			<data dilations="1,1" group="1" kernel="1,1" output="18" pads_begin="0,0" pads_end="0,0" quantization_level="I8" strides="1,1" />
			<input>
				<port id="0">
					<dim>1</dim>
					<dim>108</dim>
					<dim>75</dim>
					<dim>75</dim>
				</port>
			</input>
			<output>
				<port id="1">
					<dim>1</dim>
					<dim>18</dim>
					<dim>75</dim>
					<dim>75</dim>
				</port>
			</output>
			<blobs>
				<biases offset="29280" size="72" />
				<weights offset="29352" size="7776" />
			</blobs>
		</layer>
		<layer name="356" type="Eltwise" precision="FP32" id="18">
			<data operation="sum" />
			<input>
				<port id="0">
					<dim>1</dim>
					<dim>18</dim>
					<dim>75</dim>
					<dim>75</dim>
				</port>
				<port id="1">
					<dim>1</dim>
					<dim>18</dim>
					<dim>75</dim>
					<dim>75</dim>
				</port>
			</input>
			<output>
				<port id="2">
					<dim>1</dim>
					<dim>18</dim>
					<dim>75</dim>
					<dim>75</dim>
				</port>
			</output>
		</layer>
		<layer name="357" type="Convolution" precision="FP32" id="19">
			<data dilations="1,1" group="1" kernel="1,1" output="108" pads_begin="0,0" pads_end="0,0" quantization_level="I8" strides="1,1" />
			<input>
				<port id="0">
					<dim>1</dim>
					<dim>18</dim>
					<dim>75</dim>
					<dim>75</dim>
				</port>
			</input>
			<output>
				<port id="1">
					<dim>1</dim>
					<dim>108</dim>
					<dim>75</dim>
					<dim>75</dim>
				</port>
			</output>
			<blobs>
				<biases offset="37128" size="432" />
				<weights offset="37560" size="7776" />
			</blobs>
		</layer>
		<layer name="359" type="ReLU" precision="FP32" id="20">
			<input>
				<port id="0">
					<dim>1</dim>
					<dim>108</dim>
					<dim>75</dim>
					<dim>75</dim>
				</port>
			</input>
			<output>
				<port id="1">
					<dim>1</dim>
					<dim>108</dim>
					<dim>75</dim>
					<dim>75</dim>
				</port>
			</output>
		</layer>
		<layer name="360" type="Convolution" precision="FP32" id="21">
			<data dilations="1,1" group="108" kernel="3,3" output="108" pads_begin="1,1" pads_end="1,1" quantization_level="FP32" strides="2,2" />
			<input>
				<port id="0">
					<dim>1</dim>
					<dim>108</dim>
					<dim>75</dim>
					<dim>75</dim>
				</port>
			</input>
			<output>
				<port id="1">
					<dim>1</dim>
					<dim>108</dim>
					<dim>38</dim>
					<dim>38</dim>
				</port>
			</output>
			<blobs>
				<biases offset="45336" size="432" />
				<weights offset="45768" size="3888" />
			</blobs>
		</layer>
		<layer name="362" type="ReLU" precision="FP32" id="22">
			<input>
				<port id="0">
					<dim>1</dim>
					<dim>108</dim>
					<dim>38</dim>
					<dim>38</dim>
				</port>
			</input>
			<output>
				<port id="1">
					<dim>1</dim>
					<dim>108</dim>
					<dim>38</dim>
					<dim>38</dim>
				</port>
			</output>
		</layer>
		<layer name="363" type="Convolution" precision="FP32" id="23">
			<data dilations="1,1" group="1" kernel="1,1" output="24" pads_begin="0,0" pads_end="0,0" quantization_level="I8" strides="1,1" />
			<input>
				<port id="0">
					<dim>1</dim>
					<dim>108</dim>
					<dim>38</dim>
					<dim>38</dim>
				</port>
			</input>
			<output>
				<port id="1">
					<dim>1</dim>
					<dim>24</dim>
					<dim>38</dim>
					<dim>38</dim>
				</port>
			</output>
			<blobs>
				<biases offset="49656" size="96" />
				<weights offset="49752" size="10368" />
			</blobs>
		</layer>
		<layer name="365" type="Convolution" precision="FP32" id="24">
			<data dilations="1,1" group="1" kernel="1,1" output="144" pads_begin="0,0" pads_end="0,0" quantization_level="I8" strides="1,1" />
			<input>
				<port id="0">
					<dim>1</dim>
					<dim>24</dim>
					<dim>38</dim>
					<dim>38</dim>
				</port>
			</input>
			<output>
				<port id="1">
					<dim>1</dim>
					<dim>144</dim>
					<dim>38</dim>
					<dim>38</dim>
				</port>
			</output>
			<blobs>
				<biases offset="60120" size="576" />
				<weights offset="60696" size="13824" />
			</blobs>
		</layer>
		<layer name="367" type="ReLU" precision="FP32" id="25">
			<input>
				<port id="0">
					<dim>1</dim>
					<dim>144</dim>
					<dim>38</dim>
					<dim>38</dim>
				</port>
			</input>
			<output>
				<port id="1">
					<dim>1</dim>
					<dim>144</dim>
					<dim>38</dim>
					<dim>38</dim>
				</port>
			</output>
		</layer>
		<layer name="368" type="Convolution" precision="FP32" id="26">
			<data dilations="1,1" group="144" kernel="3,3" output="144" pads_begin="1,1" pads_end="1,1" quantization_level="I8" strides="1,1" />
			<input>
				<port id="0">
					<dim>1</dim>
					<dim>144</dim>
					<dim>38</dim>
					<dim>38</dim>
				</port>
			</input>
			<output>
				<port id="1">
					<dim>1</dim>
					<dim>144</dim>
					<dim>38</dim>
					<dim>38</dim>
				</port>
			</output>
			<blobs>
				<biases offset="74520" size="576" />
				<weights offset="75096" size="5184" />
			</blobs>
		</layer>
		<layer name="370" type="ReLU" precision="FP32" id="27">
			<input>
				<port id="0">
					<dim>1</dim>
					<dim>144</dim>
					<dim>38</dim>
					<dim>38</dim>
				</port>
			</input>
			<output>
				<port id="1">
					<dim>1</dim>
					<dim>144</dim>
					<dim>38</dim>
					<dim>38</dim>
				</port>
			</output>
		</layer>
		<layer name="371" type="Convolution" precision="FP32" id="28">
			<data dilations="1,1" group="1" kernel="1,1" output="24" pads_begin="0,0" pads_end="0,0" quantization_level="I8" strides="1,1" />
			<input>
				<port id="0">
					<dim>1</dim>
					<dim>144</dim>
					<dim>38</dim>
					<dim>38</dim>
				</port>
			</input>
			<output>
				<port id="1">
					<dim>1</dim>
					<dim>24</dim>
					<dim>38</dim>
					<dim>38</dim>
				</port>
			</output>
			<blobs>
				<biases offset="80280" size="96" />
				<weights offset="80376" size="13824" />
			</blobs>
		</layer>
		<layer name="373" type="Eltwise" precision="FP32" id="29">
			<data operation="sum" />
			<input>
				<port id="0">
					<dim>1</dim>
					<dim>24</dim>
					<dim>38</dim>
					<dim>38</dim>
				</port>
				<port id="1">
					<dim>1</dim>
					<dim>24</dim>
					<dim>38</dim>
					<dim>38</dim>
				</port>
			</input>
			<output>
				<port id="2">
					<dim>1</dim>
					<dim>24</dim>
					<dim>38</dim>
					<dim>38</dim>
				</port>
			</output>
		</layer>
		<layer name="374" type="Convolution" precision="FP32" id="30">
			<data dilations="1,1" group="1" kernel="1,1" output="144" pads_begin="0,0" pads_end="0,0" quantization_level="I8" strides="1,1" />
			<input>
				<port id="0">
					<dim>1</dim>
					<dim>24</dim>
					<dim>38</dim>
					<dim>38</dim>
				</port>
			</input>
			<output>
				<port id="1">
					<dim>1</dim>
					<dim>144</dim>
					<dim>38</dim>
					<dim>38</dim>
				</port>
			</output>
			<blobs>
				<biases offset="94200" size="576" />
				<weights offset="94776" size="13824" />
			</blobs>
		</layer>
		<layer name="376" type="ReLU" precision="FP32" id="31">
			<input>
				<port id="0">
					<dim>1</dim>
					<dim>144</dim>
					<dim>38</dim>
					<dim>38</dim>
				</port>
			</input>
			<output>
				<port id="1">
					<dim>1</dim>
					<dim>144</dim>
					<dim>38</dim>
					<dim>38</dim>
				</port>
			</output>
		</layer>
		<layer name="377" type="Convolution" precision="FP32" id="32">
			<data dilations="1,1" group="144" kernel="3,3" output="144" pads_begin="1,1" pads_end="1,1" quantization_level="I8" strides="1,1" />
			<input>
				<port id="0">
					<dim>1</dim>
					<dim>144</dim>
					<dim>38</dim>
					<dim>38</dim>
				</port>
			</input>
			<output>
				<port id="1">
					<dim>1</dim>
					<dim>144</dim>
					<dim>38</dim>
					<dim>38</dim>
				</port>
			</output>
			<blobs>
				<biases offset="108600" size="576" />
				<weights offset="109176" size="5184" />
			</blobs>
		</layer>
		<layer name="379" type="ReLU" precision="FP32" id="33">
			<input>
				<port id="0">
					<dim>1</dim>
					<dim>144</dim>
					<dim>38</dim>
					<dim>38</dim>
				</port>
			</input>
			<output>
				<port id="1">
					<dim>1</dim>
					<dim>144</dim>
					<dim>38</dim>
					<dim>38</dim>
				</port>
			</output>
		</layer>
		<layer name="380" type="Convolution" precision="FP32" id="34">
			<data dilations="1,1" group="1" kernel="1,1" output="24" pads_begin="0,0" pads_end="0,0" quantization_level="I8" strides="1,1" />
			<input>
				<port id="0">
					<dim>1</dim>
					<dim>144</dim>
					<dim>38</dim>
					<dim>38</dim>
				</port>
			</input>
			<output>
				<port id="1">
					<dim>1</dim>
					<dim>24</dim>
					<dim>38</dim>
					<dim>38</dim>
				</port>
			</output>
			<blobs>
				<biases offset="114360" size="96" />
				<weights offset="114456" size="13824" />
			</blobs>
		</layer>
		<layer name="382" type="Eltwise" precision="FP32" id="35">
			<data operation="sum" />
			<input>
				<port id="0">
					<dim>1</dim>
					<dim>24</dim>
					<dim>38</dim>
					<dim>38</dim>
				</port>
				<port id="1">
					<dim>1</dim>
					<dim>24</dim>
					<dim>38</dim>
					<dim>38</dim>
				</port>
			</input>
			<output>
				<port id="2">
					<dim>1</dim>
					<dim>24</dim>
					<dim>38</dim>
					<dim>38</dim>
				</port>
			</output>
		</layer>
		<layer name="383" type="Convolution" precision="FP32" id="36">
			<data dilations="1,1" group="1" kernel="1,1" output="144" pads_begin="0,0" pads_end="0,0" quantization_level="I8" strides="1,1" />
			<input>
				<port id="0">
					<dim>1</dim>
					<dim>24</dim>
					<dim>38</dim>
					<dim>38</dim>
				</port>
			</input>
			<output>
				<port id="1">
					<dim>1</dim>
					<dim>144</dim>
					<dim>38</dim>
					<dim>38</dim>
				</port>
			</output>
			<blobs>
				<biases offset="128280" size="576" />
				<weights offset="128856" size="13824" />
			</blobs>
		</layer>
		<layer name="385" type="ReLU" precision="FP32" id="37">
			<input>
				<port id="0">
					<dim>1</dim>
					<dim>144</dim>
					<dim>38</dim>
					<dim>38</dim>
				</port>
			</input>
			<output>
				<port id="1">
					<dim>1</dim>
					<dim>144</dim>
					<dim>38</dim>
					<dim>38</dim>
				</port>
			</output>
		</layer>
		<layer name="386" type="Convolution" precision="FP32" id="38">
			<data dilations="1,1" group="144" kernel="3,3" output="144" pads_begin="1,1" pads_end="1,1" quantization_level="I8" strides="2,2" />
			<input>
				<port id="0">
					<dim>1</dim>
					<dim>144</dim>
					<dim>38</dim>
					<dim>38</dim>
				</port>
			</input>
			<output>
				<port id="1">
					<dim>1</dim>
					<dim>144</dim>
					<dim>19</dim>
					<dim>19</dim>
				</port>
			</output>
			<blobs>
				<biases offset="142680" size="576" />
				<weights offset="143256" size="5184" />
			</blobs>
		</layer>
		<layer name="388" type="ReLU" precision="FP32" id="39">
			<input>
				<port id="0">
					<dim>1</dim>
					<dim>144</dim>
					<dim>19</dim>
					<dim>19</dim>
				</port>
			</input>
			<output>
				<port id="1">
					<dim>1</dim>
					<dim>144</dim>
					<dim>19</dim>
					<dim>19</dim>
				</port>
			</output>
		</layer>
		<layer name="389" type="Convolution" precision="FP32" id="40">
			<data dilations="1,1" group="1" kernel="1,1" output="48" pads_begin="0,0" pads_end="0,0" quantization_level="I8" strides="1,1" />
			<input>
				<port id="0">
					<dim>1</dim>
					<dim>144</dim>
					<dim>19</dim>
					<dim>19</dim>
				</port>
			</input>
			<output>
				<port id="1">
					<dim>1</dim>
					<dim>48</dim>
					<dim>19</dim>
					<dim>19</dim>
				</port>
			</output>
			<blobs>
				<biases offset="148440" size="192" />
				<weights offset="148632" size="27648" />
			</blobs>
		</layer>
		<layer name="391" type="Convolution" precision="FP32" id="41">
			<data dilations="1,1" group="1" kernel="1,1" output="288" pads_begin="0,0" pads_end="0,0" quantization_level="I8" strides="1,1" />
			<input>
				<port id="0">
					<dim>1</dim>
					<dim>48</dim>
					<dim>19</dim>
					<dim>19</dim>
				</port>
			</input>
			<output>
				<port id="1">
					<dim>1</dim>
					<dim>288</dim>
					<dim>19</dim>
					<dim>19</dim>
				</port>
			</output>
			<blobs>
				<biases offset="176280" size="1152" />
				<weights offset="177432" size="55296" />
			</blobs>
		</layer>
		<layer name="393" type="ReLU" precision="FP32" id="42">
			<input>
				<port id="0">
					<dim>1</dim>
					<dim>288</dim>
					<dim>19</dim>
					<dim>19</dim>
				</port>
			</input>
			<output>
				<port id="1">
					<dim>1</dim>
					<dim>288</dim>
					<dim>19</dim>
					<dim>19</dim>
				</port>
			</output>
		</layer>
		<layer name="394" type="Convolution" precision="FP32" id="43">
			<data dilations="1,1" group="288" kernel="3,3" output="288" pads_begin="1,1" pads_end="1,1" quantization_level="I8" strides="1,1" />
			<input>
				<port id="0">
					<dim>1</dim>
					<dim>288</dim>
					<dim>19</dim>
					<dim>19</dim>
				</port>
			</input>
			<output>
				<port id="1">
					<dim>1</dim>
					<dim>288</dim>
					<dim>19</dim>
					<dim>19</dim>
				</port>
			</output>
			<blobs>
				<biases offset="232728" size="1152" />
				<weights offset="233880" size="10368" />
			</blobs>
		</layer>
		<layer name="396" type="ReLU" precision="FP32" id="44">
			<input>
				<port id="0">
					<dim>1</dim>
					<dim>288</dim>
					<dim>19</dim>
					<dim>19</dim>
				</port>
			</input>
			<output>
				<port id="1">
					<dim>1</dim>
					<dim>288</dim>
					<dim>19</dim>
					<dim>19</dim>
				</port>
			</output>
		</layer>
		<layer name="397" type="Convolution" precision="FP32" id="45">
			<data dilations="1,1" group="1" kernel="1,1" output="48" pads_begin="0,0" pads_end="0,0" quantization_level="I8" strides="1,1" />
			<input>
				<port id="0">
					<dim>1</dim>
					<dim>288</dim>
					<dim>19</dim>
					<dim>19</dim>
				</port>
			</input>
			<output>
				<port id="1">
					<dim>1</dim>
					<dim>48</dim>
					<dim>19</dim>
					<dim>19</dim>
				</port>
			</output>
			<blobs>
				<biases offset="244248" size="192" />
				<weights offset="244440" size="55296" />
			</blobs>
		</layer>
		<layer name="399" type="Eltwise" precision="FP32" id="46">
			<data operation="sum" />
			<input>
				<port id="0">
					<dim>1</dim>
					<dim>48</dim>
					<dim>19</dim>
					<dim>19</dim>
				</port>
				<port id="1">
					<dim>1</dim>
					<dim>48</dim>
					<dim>19</dim>
					<dim>19</dim>
				</port>
			</input>
			<output>
				<port id="2">
					<dim>1</dim>
					<dim>48</dim>
					<dim>19</dim>
					<dim>19</dim>
				</port>
			</output>
		</layer>
		<layer name="400" type="Convolution" precision="FP32" id="47">
			<data dilations="1,1" group="1" kernel="1,1" output="288" pads_begin="0,0" pads_end="0,0" quantization_level="I8" strides="1,1" />
			<input>
				<port id="0">
					<dim>1</dim>
					<dim>48</dim>
					<dim>19</dim>
					<dim>19</dim>
				</port>
			</input>
			<output>
				<port id="1">
					<dim>1</dim>
					<dim>288</dim>
					<dim>19</dim>
					<dim>19</dim>
				</port>
			</output>
			<blobs>
				<biases offset="299736" size="1152" />
				<weights offset="300888" size="55296" />
			</blobs>
		</layer>
		<layer name="402" type="ReLU" precision="FP32" id="48">
			<input>
				<port id="0">
					<dim>1</dim>
					<dim>288</dim>
					<dim>19</dim>
					<dim>19</dim>
				</port>
			</input>
			<output>
				<port id="1">
					<dim>1</dim>
					<dim>288</dim>
					<dim>19</dim>
					<dim>19</dim>
				</port>
			</output>
		</layer>
		<layer name="403" type="Convolution" precision="FP32" id="49">
			<data dilations="1,1" group="288" kernel="3,3" output="288" pads_begin="1,1" pads_end="1,1" quantization_level="I8" strides="1,1" />
			<input>
				<port id="0">
					<dim>1</dim>
					<dim>288</dim>
					<dim>19</dim>
					<dim>19</dim>
				</port>
			</input>
			<output>
				<port id="1">
					<dim>1</dim>
					<dim>288</dim>
					<dim>19</dim>
					<dim>19</dim>
				</port>
			</output>
			<blobs>
				<biases offset="356184" size="1152" />
				<weights offset="357336" size="10368" />
			</blobs>
		</layer>
		<layer name="405" type="ReLU" precision="FP32" id="50">
			<input>
				<port id="0">
					<dim>1</dim>
					<dim>288</dim>
					<dim>19</dim>
					<dim>19</dim>
				</port>
			</input>
			<output>
				<port id="1">
					<dim>1</dim>
					<dim>288</dim>
					<dim>19</dim>
					<dim>19</dim>
				</port>
			</output>
		</layer>
		<layer name="406" type="Convolution" precision="FP32" id="51">
			<data dilations="1,1" group="1" kernel="1,1" output="48" pads_begin="0,0" pads_end="0,0" quantization_level="I8" strides="1,1" />
			<input>
				<port id="0">
					<dim>1</dim>
					<dim>288</dim>
					<dim>19</dim>
					<dim>19</dim>
				</port>
			</input>
			<output>
				<port id="1">
					<dim>1</dim>
					<dim>48</dim>
					<dim>19</dim>
					<dim>19</dim>
				</port>
			</output>
			<blobs>
				<biases offset="367704" size="192" />
				<weights offset="367896" size="55296" />
			</blobs>
		</layer>
		<layer name="408" type="Eltwise" precision="FP32" id="52">
			<data operation="sum" />
			<input>
				<port id="0">
					<dim>1</dim>
					<dim>48</dim>
					<dim>19</dim>
					<dim>19</dim>
				</port>
				<port id="1">
					<dim>1</dim>
					<dim>48</dim>
					<dim>19</dim>
					<dim>19</dim>
				</port>
			</input>
			<output>
				<port id="2">
					<dim>1</dim>
					<dim>48</dim>
					<dim>19</dim>
					<dim>19</dim>
				</port>
			</output>
		</layer>
		<layer name="409" type="Convolution" precision="FP32" id="53">
			<data dilations="1,1" group="1" kernel="1,1" output="288" pads_begin="0,0" pads_end="0,0" quantization_level="I8" strides="1,1" />
			<input>
				<port id="0">
					<dim>1</dim>
					<dim>48</dim>
					<dim>19</dim>
					<dim>19</dim>
				</port>
			</input>
			<output>
				<port id="1">
					<dim>1</dim>
					<dim>288</dim>
					<dim>19</dim>
					<dim>19</dim>
				</port>
			</output>
			<blobs>
				<biases offset="423192" size="1152" />
				<weights offset="424344" size="55296" />
			</blobs>
		</layer>
		<layer name="411" type="ReLU" precision="FP32" id="54">
			<input>
				<port id="0">
					<dim>1</dim>
					<dim>288</dim>
					<dim>19</dim>
					<dim>19</dim>
				</port>
			</input>
			<output>
				<port id="1">
					<dim>1</dim>
					<dim>288</dim>
					<dim>19</dim>
					<dim>19</dim>
				</port>
			</output>
		</layer>
		<layer name="412" type="Convolution" precision="FP32" id="55">
			<data dilations="1,1" group="288" kernel="3,3" output="288" pads_begin="1,1" pads_end="1,1" quantization_level="I8" strides="1,1" />
			<input>
				<port id="0">
					<dim>1</dim>
					<dim>288</dim>
					<dim>19</dim>
					<dim>19</dim>
				</port>
			</input>
			<output>
				<port id="1">
					<dim>1</dim>
					<dim>288</dim>
					<dim>19</dim>
					<dim>19</dim>
				</port>
			</output>
			<blobs>
				<biases offset="479640" size="1152" />
				<weights offset="480792" size="10368" />
			</blobs>
		</layer>
		<layer name="414" type="ReLU" precision="FP32" id="56">
			<input>
				<port id="0">
					<dim>1</dim>
					<dim>288</dim>
					<dim>19</dim>
					<dim>19</dim>
				</port>
			</input>
			<output>
				<port id="1">
					<dim>1</dim>
					<dim>288</dim>
					<dim>19</dim>
					<dim>19</dim>
				</port>
			</output>
		</layer>
		<layer name="415" type="Convolution" precision="FP32" id="57">
			<data dilations="1,1" group="1" kernel="1,1" output="48" pads_begin="0,0" pads_end="0,0" quantization_level="I8" strides="1,1" />
			<input>
				<port id="0">
					<dim>1</dim>
					<dim>288</dim>
					<dim>19</dim>
					<dim>19</dim>
				</port>
			</input>
			<output>
				<port id="1">
					<dim>1</dim>
					<dim>48</dim>
					<dim>19</dim>
					<dim>19</dim>
				</port>
			</output>
			<blobs>
				<biases offset="491160" size="192" />
				<weights offset="491352" size="55296" />
			</blobs>
		</layer>
		<layer name="417" type="Eltwise" precision="FP32" id="58">
			<data operation="sum" />
			<input>
				<port id="0">
					<dim>1</dim>
					<dim>48</dim>
					<dim>19</dim>
					<dim>19</dim>
				</port>
				<port id="1">
					<dim>1</dim>
					<dim>48</dim>
					<dim>19</dim>
					<dim>19</dim>
				</port>
			</input>
			<output>
				<port id="2">
					<dim>1</dim>
					<dim>48</dim>
					<dim>19</dim>
					<dim>19</dim>
				</port>
			</output>
		</layer>
		<layer name="418" type="Convolution" precision="FP32" id="59">
			<data dilations="1,1" group="1" kernel="1,1" output="288" pads_begin="0,0" pads_end="0,0" quantization_level="I8" strides="1,1" />
			<input>
				<port id="0">
					<dim>1</dim>
					<dim>48</dim>
					<dim>19</dim>
					<dim>19</dim>
				</port>
			</input>
			<output>
				<port id="1">
					<dim>1</dim>
					<dim>288</dim>
					<dim>19</dim>
					<dim>19</dim>
				</port>
			</output>
			<blobs>
				<biases offset="546648" size="1152" />
				<weights offset="547800" size="55296" />
			</blobs>
		</layer>
		<layer name="420" type="ReLU" precision="FP32" id="60">
			<input>
				<port id="0">
					<dim>1</dim>
					<dim>288</dim>
					<dim>19</dim>
					<dim>19</dim>
				</port>
			</input>
			<output>
				<port id="1">
					<dim>1</dim>
					<dim>288</dim>
					<dim>19</dim>
					<dim>19</dim>
				</port>
			</output>
		</layer>
		<layer name="421" type="Convolution" precision="FP32" id="61">
			<data dilations="1,1" group="288" kernel="3,3" output="288" pads_begin="1,1" pads_end="1,1" quantization_level="I8" strides="1,1" />
			<input>
				<port id="0">
					<dim>1</dim>
					<dim>288</dim>
					<dim>19</dim>
					<dim>19</dim>
				</port>
			</input>
			<output>
				<port id="1">
					<dim>1</dim>
					<dim>288</dim>
					<dim>19</dim>
					<dim>19</dim>
				</port>
			</output>
			<blobs>
				<biases offset="603096" size="1152" />
				<weights offset="604248" size="10368" />
			</blobs>
		</layer>
		<layer name="423" type="ReLU" precision="FP32" id="62">
			<input>
				<port id="0">
					<dim>1</dim>
					<dim>288</dim>
					<dim>19</dim>
					<dim>19</dim>
				</port>
			</input>
			<output>
				<port id="1">
					<dim>1</dim>
					<dim>288</dim>
					<dim>19</dim>
					<dim>19</dim>
				</port>
			</output>
		</layer>
		<layer name="424" type="Convolution" precision="FP32" id="63">
			<data dilations="1,1" group="1" kernel="1,1" output="72" pads_begin="0,0" pads_end="0,0" quantization_level="I8" strides="1,1" />
			<input>
				<port id="0">
					<dim>1</dim>
					<dim>288</dim>
					<dim>19</dim>
					<dim>19</dim>
				</port>
			</input>
			<output>
				<port id="1">
					<dim>1</dim>
					<dim>72</dim>
					<dim>19</dim>
					<dim>19</dim>
				</port>
			</output>
			<blobs>
				<biases offset="614616" size="288" />
				<weights offset="614904" size="82944" />
			</blobs>
		</layer>
		<layer name="426" type="Convolution" precision="FP32" id="64">
			<data dilations="1,1" group="1" kernel="1,1" output="432" pads_begin="0,0" pads_end="0,0" quantization_level="I8" strides="1,1" />
			<input>
				<port id="0">
					<dim>1</dim>
					<dim>72</dim>
					<dim>19</dim>
					<dim>19</dim>
				</port>
			</input>
			<output>
				<port id="1">
					<dim>1</dim>
					<dim>432</dim>
					<dim>19</dim>
					<dim>19</dim>
				</port>
			</output>
			<blobs>
				<biases offset="697848" size="1728" />
				<weights offset="699576" size="124416" />
			</blobs>
		</layer>
		<layer name="428" type="ReLU" precision="FP32" id="65">
			<input>
				<port id="0">
					<dim>1</dim>
					<dim>432</dim>
					<dim>19</dim>
					<dim>19</dim>
				</port>
			</input>
			<output>
				<port id="1">
					<dim>1</dim>
					<dim>432</dim>
					<dim>19</dim>
					<dim>19</dim>
				</port>
			</output>
		</layer>
		<layer name="429" type="Convolution" precision="FP32" id="66">
			<data dilations="1,1" group="432" kernel="3,3" output="432" pads_begin="1,1" pads_end="1,1" quantization_level="I8" strides="1,1" />
			<input>
				<port id="0">
					<dim>1</dim>
					<dim>432</dim>
					<dim>19</dim>
					<dim>19</dim>
				</port>
			</input>
			<output>
				<port id="1">
					<dim>1</dim>
					<dim>432</dim>
					<dim>19</dim>
					<dim>19</dim>
				</port>
			</output>
			<blobs>
				<biases offset="823992" size="1728" />
				<weights offset="825720" size="15552" />
			</blobs>
		</layer>
		<layer name="431" type="ReLU" precision="FP32" id="67">
			<input>
				<port id="0">
					<dim>1</dim>
					<dim>432</dim>
					<dim>19</dim>
					<dim>19</dim>
				</port>
			</input>
			<output>
				<port id="1">
					<dim>1</dim>
					<dim>432</dim>
					<dim>19</dim>
					<dim>19</dim>
				</port>
			</output>
		</layer>
		<layer name="432" type="Convolution" precision="FP32" id="68">
			<data dilations="1,1" group="1" kernel="1,1" output="72" pads_begin="0,0" pads_end="0,0" quantization_level="I8" strides="1,1" />
			<input>
				<port id="0">
					<dim>1</dim>
					<dim>432</dim>
					<dim>19</dim>
					<dim>19</dim>
				</port>
			</input>
			<output>
				<port id="1">
					<dim>1</dim>
					<dim>72</dim>
					<dim>19</dim>
					<dim>19</dim>
				</port>
			</output>
			<blobs>
				<biases offset="841272" size="288" />
				<weights offset="841560" size="124416" />
			</blobs>
		</layer>
		<layer name="434" type="Eltwise" precision="FP32" id="69">
			<data operation="sum" />
			<input>
				<port id="0">
					<dim>1</dim>
					<dim>72</dim>
					<dim>19</dim>
					<dim>19</dim>
				</port>
				<port id="1">
					<dim>1</dim>
					<dim>72</dim>
					<dim>19</dim>
					<dim>19</dim>
				</port>
			</input>
			<output>
				<port id="2">
					<dim>1</dim>
					<dim>72</dim>
					<dim>19</dim>
					<dim>19</dim>
				</port>
			</output>
		</layer>
		<layer name="435" type="Convolution" precision="FP32" id="70">
			<data dilations="1,1" group="1" kernel="1,1" output="432" pads_begin="0,0" pads_end="0,0" quantization_level="I8" strides="1,1" />
			<input>
				<port id="0">
					<dim>1</dim>
					<dim>72</dim>
					<dim>19</dim>
					<dim>19</dim>
				</port>
			</input>
			<output>
				<port id="1">
					<dim>1</dim>
					<dim>432</dim>
					<dim>19</dim>
					<dim>19</dim>
				</port>
			</output>
			<blobs>
				<biases offset="965976" size="1728" />
				<weights offset="967704" size="124416" />
			</blobs>
		</layer>
		<layer name="437" type="ReLU" precision="FP32" id="71">
			<input>
				<port id="0">
					<dim>1</dim>
					<dim>432</dim>
					<dim>19</dim>
					<dim>19</dim>
				</port>
			</input>
			<output>
				<port id="1">
					<dim>1</dim>
					<dim>432</dim>
					<dim>19</dim>
					<dim>19</dim>
				</port>
			</output>
		</layer>
		<layer name="438" type="Convolution" precision="FP32" id="72">
			<data dilations="1,1" group="432" kernel="3,3" output="432" pads_begin="1,1" pads_end="1,1" quantization_level="I8" strides="1,1" />
			<input>
				<port id="0">
					<dim>1</dim>
					<dim>432</dim>
					<dim>19</dim>
					<dim>19</dim>
				</port>
			</input>
			<output>
				<port id="1">
					<dim>1</dim>
					<dim>432</dim>
					<dim>19</dim>
					<dim>19</dim>
				</port>
			</output>
			<blobs>
				<biases offset="1092120" size="1728" />
				<weights offset="1093848" size="15552" />
			</blobs>
		</layer>
		<layer name="440" type="ReLU" precision="FP32" id="73">
			<input>
				<port id="0">
					<dim>1</dim>
					<dim>432</dim>
					<dim>19</dim>
					<dim>19</dim>
				</port>
			</input>
			<output>
				<port id="1">
					<dim>1</dim>
					<dim>432</dim>
					<dim>19</dim>
					<dim>19</dim>
				</port>
			</output>
		</layer>
		<layer name="441" type="Convolution" precision="FP32" id="74">
			<data dilations="1,1" group="1" kernel="1,1" output="72" pads_begin="0,0" pads_end="0,0" quantization_level="I8" strides="1,1" />
			<input>
				<port id="0">
					<dim>1</dim>
					<dim>432</dim>
					<dim>19</dim>
					<dim>19</dim>
				</port>
			</input>
			<output>
				<port id="1">
					<dim>1</dim>
					<dim>72</dim>
					<dim>19</dim>
					<dim>19</dim>
				</port>
			</output>
			<blobs>
				<biases offset="1109400" size="288" />
				<weights offset="1109688" size="124416" />
			</blobs>
		</layer>
		<layer name="443" type="Eltwise" precision="FP32" id="75">
			<data operation="sum" />
			<input>
				<port id="0">
					<dim>1</dim>
					<dim>72</dim>
					<dim>19</dim>
					<dim>19</dim>
				</port>
				<port id="1">
					<dim>1</dim>
					<dim>72</dim>
					<dim>19</dim>
					<dim>19</dim>
				</port>
			</input>
			<output>
				<port id="2">
					<dim>1</dim>
					<dim>72</dim>
					<dim>19</dim>
					<dim>19</dim>
				</port>
			</output>
		</layer>
		<layer name="444" type="Convolution" precision="FP32" id="76">
			<data dilations="1,1" group="1" kernel="1,1" output="432" pads_begin="0,0" pads_end="0,0" quantization_level="I8" strides="1,1" />
			<input>
				<port id="0">
					<dim>1</dim>
					<dim>72</dim>
					<dim>19</dim>
					<dim>19</dim>
				</port>
			</input>
			<output>
				<port id="1">
					<dim>1</dim>
					<dim>432</dim>
					<dim>19</dim>
					<dim>19</dim>
				</port>
			</output>
			<blobs>
				<biases offset="1234104" size="1728" />
				<weights offset="1235832" size="124416" />
			</blobs>
		</layer>
		<layer name="446" type="ReLU" precision="FP32" id="77">
			<input>
				<port id="0">
					<dim>1</dim>
					<dim>432</dim>
					<dim>19</dim>
					<dim>19</dim>
				</port>
			</input>
			<output>
				<port id="1">
					<dim>1</dim>
					<dim>432</dim>
					<dim>19</dim>
					<dim>19</dim>
				</port>
			</output>
		</layer>
		<layer name="447" type="Convolution" precision="FP32" id="78">
			<data dilations="1,1" group="432" kernel="3,3" output="432" pads_begin="1,1" pads_end="1,1" quantization_level="I8" strides="1,1" />
			<input>
				<port id="0">
					<dim>1</dim>
					<dim>432</dim>
					<dim>19</dim>
					<dim>19</dim>
				</port>
			</input>
			<output>
				<port id="1">
					<dim>1</dim>
					<dim>432</dim>
					<dim>19</dim>
					<dim>19</dim>
				</port>
			</output>
			<blobs>
				<biases offset="1360248" size="1728" />
				<weights offset="1361976" size="15552" />
			</blobs>
		</layer>
		<layer name="449" type="ReLU" precision="FP32" id="79">
			<input>
				<port id="0">
					<dim>1</dim>
					<dim>432</dim>
					<dim>19</dim>
					<dim>19</dim>
				</port>
			</input>
			<output>
				<port id="1">
					<dim>1</dim>
					<dim>432</dim>
					<dim>19</dim>
					<dim>19</dim>
				</port>
			</output>
		</layer>
		<layer name="450" type="Convolution" precision="FP32" id="80">
			<data dilations="1,1" group="1" kernel="1,1" output="120" pads_begin="0,0" pads_end="0,0" quantization_level="I8" strides="1,1" />
			<input>
				<port id="0">
					<dim>1</dim>
					<dim>432</dim>
					<dim>19</dim>
					<dim>19</dim>
				</port>
			</input>
			<output>
				<port id="1">
					<dim>1</dim>
					<dim>120</dim>
					<dim>19</dim>
					<dim>19</dim>
				</port>
			</output>
			<blobs>
				<biases offset="1377528" size="480" />
				<weights offset="1378008" size="207360" />
			</blobs>
		</layer>
		<layer name="452" type="Convolution" precision="FP32" id="81">
			<data dilations="1,1" group="1" kernel="1,1" output="720" pads_begin="0,0" pads_end="0,0" quantization_level="I8" strides="1,1" />
			<input>
				<port id="0">
					<dim>1</dim>
					<dim>120</dim>
					<dim>19</dim>
					<dim>19</dim>
				</port>
			</input>
			<output>
				<port id="1">
					<dim>1</dim>
					<dim>720</dim>
					<dim>19</dim>
					<dim>19</dim>
				</port>
			</output>
			<blobs>
				<biases offset="1585368" size="2880" />
				<weights offset="1588248" size="345600" />
			</blobs>
		</layer>
		<layer name="454" type="ReLU" precision="FP32" id="82">
			<input>
				<port id="0">
					<dim>1</dim>
					<dim>720</dim>
					<dim>19</dim>
					<dim>19</dim>
				</port>
			</input>
			<output>
				<port id="1">
					<dim>1</dim>
					<dim>720</dim>
					<dim>19</dim>
					<dim>19</dim>
				</port>
			</output>
		</layer>
		<layer name="455" type="Convolution" precision="FP32" id="83">
			<data dilations="1,1" group="720" kernel="3,3" output="720" pads_begin="1,1" pads_end="1,1" quantization_level="I8" strides="1,1" />
			<input>
				<port id="0">
					<dim>1</dim>
					<dim>720</dim>
					<dim>19</dim>
					<dim>19</dim>
				</port>
			</input>
			<output>
				<port id="1">
					<dim>1</dim>
					<dim>720</dim>
					<dim>19</dim>
					<dim>19</dim>
				</port>
			</output>
			<blobs>
				<biases offset="1933848" size="2880" />
				<weights offset="1936728" size="25920" />
			</blobs>
		</layer>
		<layer name="457" type="ReLU" precision="FP32" id="84">
			<input>
				<port id="0">
					<dim>1</dim>
					<dim>720</dim>
					<dim>19</dim>
					<dim>19</dim>
				</port>
			</input>
			<output>
				<port id="1">
					<dim>1</dim>
					<dim>720</dim>
					<dim>19</dim>
					<dim>19</dim>
				</port>
			</output>
		</layer>
		<layer name="458" type="Convolution" precision="FP32" id="85">
			<data dilations="1,1" group="1" kernel="1,1" output="120" pads_begin="0,0" pads_end="0,0" quantization_level="I8" strides="1,1" />
			<input>
				<port id="0">
					<dim>1</dim>
					<dim>720</dim>
					<dim>19</dim>
					<dim>19</dim>
				</port>
			</input>
			<output>
				<port id="1">
					<dim>1</dim>
					<dim>120</dim>
					<dim>19</dim>
					<dim>19</dim>
				</port>
			</output>
			<blobs>
				<biases offset="1962648" size="480" />
				<weights offset="1963128" size="345600" />
			</blobs>
		</layer>
		<layer name="460" type="Eltwise" precision="FP32" id="86">
			<data operation="sum" />
			<input>
				<port id="0">
					<dim>1</dim>
					<dim>120</dim>
					<dim>19</dim>
					<dim>19</dim>
				</port>
				<port id="1">
					<dim>1</dim>
					<dim>120</dim>
					<dim>19</dim>
					<dim>19</dim>
				</port>
			</input>
			<output>
				<port id="2">
					<dim>1</dim>
					<dim>120</dim>
					<dim>19</dim>
					<dim>19</dim>
				</port>
			</output>
		</layer>
		<layer name="461" type="Convolution" precision="FP32" id="87">
			<data dilations="1,1" group="1" kernel="1,1" output="720" pads_begin="0,0" pads_end="0,0" quantization_level="I8" strides="1,1" />
			<input>
				<port id="0">
					<dim>1</dim>
					<dim>120</dim>
					<dim>19</dim>
					<dim>19</dim>
				</port>
			</input>
			<output>
				<port id="1">
					<dim>1</dim>
					<dim>720</dim>
					<dim>19</dim>
					<dim>19</dim>
				</port>
			</output>
			<blobs>
				<biases offset="2308728" size="2880" />
				<weights offset="2311608" size="345600" />
			</blobs>
		</layer>
		<layer name="463" type="ReLU" precision="FP32" id="88">
			<input>
				<port id="0">
					<dim>1</dim>
					<dim>720</dim>
					<dim>19</dim>
					<dim>19</dim>
				</port>
			</input>
			<output>
				<port id="1">
					<dim>1</dim>
					<dim>720</dim>
					<dim>19</dim>
					<dim>19</dim>
				</port>
			</output>
		</layer>
		<layer name="464" type="Convolution" precision="FP32" id="89">
			<data dilations="1,1" group="720" kernel="3,3" output="720" pads_begin="1,1" pads_end="1,1" quantization_level="I8" strides="1,1" />
			<input>
				<port id="0">
					<dim>1</dim>
					<dim>720</dim>
					<dim>19</dim>
					<dim>19</dim>
				</port>
			</input>
			<output>
				<port id="1">
					<dim>1</dim>
					<dim>720</dim>
					<dim>19</dim>
					<dim>19</dim>
				</port>
			</output>
			<blobs>
				<biases offset="2657208" size="2880" />
				<weights offset="2660088" size="25920" />
			</blobs>
		</layer>
		<layer name="466" type="ReLU" precision="FP32" id="90">
			<input>
				<port id="0">
					<dim>1</dim>
					<dim>720</dim>
					<dim>19</dim>
					<dim>19</dim>
				</port>
			</input>
			<output>
				<port id="1">
					<dim>1</dim>
					<dim>720</dim>
					<dim>19</dim>
					<dim>19</dim>
				</port>
			</output>
		</layer>
		<layer name="467" type="Convolution" precision="FP32" id="91">
			<data dilations="1,1" group="1" kernel="1,1" output="120" pads_begin="0,0" pads_end="0,0" quantization_level="I8" strides="1,1" />
			<input>
				<port id="0">
					<dim>1</dim>
					<dim>720</dim>
					<dim>19</dim>
					<dim>19</dim>
				</port>
			</input>
			<output>
				<port id="1">
					<dim>1</dim>
					<dim>120</dim>
					<dim>19</dim>
					<dim>19</dim>
				</port>
			</output>
			<blobs>
				<biases offset="2686008" size="480" />
				<weights offset="2686488" size="345600" />
			</blobs>
		</layer>
		<layer name="469" type="Eltwise" precision="FP32" id="92">
			<data operation="sum" />
			<input>
				<port id="0">
					<dim>1</dim>
					<dim>120</dim>
					<dim>19</dim>
					<dim>19</dim>
				</port>
				<port id="1">
					<dim>1</dim>
					<dim>120</dim>
					<dim>19</dim>
					<dim>19</dim>
				</port>
			</input>
			<output>
				<port id="2">
					<dim>1</dim>
					<dim>120</dim>
					<dim>19</dim>
					<dim>19</dim>
				</port>
			</output>
		</layer>
		<layer name="470" type="Convolution" precision="FP32" id="93">
			<data dilations="1,1" group="1" kernel="1,1" output="480" pads_begin="0,0" pads_end="0,0" quantization_level="I8" strides="1,1" />
			<input>
				<port id="0">
					<dim>1</dim>
					<dim>120</dim>
					<dim>19</dim>
					<dim>19</dim>
				</port>
			</input>
			<output>
				<port id="1">
					<dim>1</dim>
					<dim>480</dim>
					<dim>19</dim>
					<dim>19</dim>
				</port>
			</output>
			<blobs>
				<biases offset="3032088" size="1920" />
				<weights offset="3034008" size="230400" />
			</blobs>
		</layer>
		<layer name="472" type="ReLU" precision="FP32" id="94">
			<input>
				<port id="0">
					<dim>1</dim>
					<dim>480</dim>
					<dim>19</dim>
					<dim>19</dim>
				</port>
			</input>
			<output>
				<port id="1">
					<dim>1</dim>
					<dim>480</dim>
					<dim>19</dim>
					<dim>19</dim>
				</port>
			</output>
		</layer>
		<layer name="473" type="Convolution" precision="FP32" id="95">
			<data dilations="1,1" group="480" kernel="3,3" output="480" pads_begin="1,1" pads_end="1,1" quantization_level="I8" strides="1,1" />
			<input>
				<port id="0">
					<dim>1</dim>
					<dim>480</dim>
					<dim>19</dim>
					<dim>19</dim>
				</port>
			</input>
			<output>
				<port id="1">
					<dim>1</dim>
					<dim>480</dim>
					<dim>19</dim>
					<dim>19</dim>
				</port>
			</output>
			<blobs>
				<biases offset="3264408" size="1920" />
				<weights offset="3266328" size="17280" />
			</blobs>
		</layer>
		<layer name="475" type="ReLU" precision="FP32" id="96">
			<input>
				<port id="0">
					<dim>1</dim>
					<dim>480</dim>
					<dim>19</dim>
					<dim>19</dim>
				</port>
			</input>
			<output>
				<port id="1">
					<dim>1</dim>
					<dim>480</dim>
					<dim>19</dim>
					<dim>19</dim>
				</port>
			</output>
		</layer>
		<layer name="476" type="Convolution" precision="FP32" id="97">
			<data dilations="1,1" group="1" kernel="1,1" output="360" pads_begin="0,0" pads_end="0,0" quantization_level="I8" strides="1,1" />
			<input>
				<port id="0">
					<dim>1</dim>
					<dim>480</dim>
					<dim>19</dim>
					<dim>19</dim>
				</port>
			</input>
			<output>
				<port id="1">
					<dim>1</dim>
					<dim>360</dim>
					<dim>19</dim>
					<dim>19</dim>
				</port>
			</output>
			<blobs>
				<biases offset="3283608" size="1440" />
				<weights offset="3285048" size="691200" />
			</blobs>
		</layer>
		<layer name="482" type="Convolution" precision="FP32" id="98">
			<data dilations="1,1" group="360" kernel="3,3" output="360" pads_begin="1,1" pads_end="1,1" quantization_level="FP32" strides="1,1" />
			<input>
				<port id="0">
					<dim>1</dim>
					<dim>360</dim>
					<dim>19</dim>
					<dim>19</dim>
				</port>
			</input>
			<output>
				<port id="1">
					<dim>1</dim>
					<dim>360</dim>
					<dim>19</dim>
					<dim>19</dim>
				</port>
			</output>
			<blobs>
				<biases offset="3976248" size="1440" />
				<weights offset="3977688" size="12960" />
			</blobs>
		</layer>
		<layer name="484" type="ReLU" precision="FP32" id="99">
			<input>
				<port id="0">
					<dim>1</dim>
					<dim>360</dim>
					<dim>19</dim>
					<dim>19</dim>
				</port>
			</input>
			<output>
				<port id="1">
					<dim>1</dim>
					<dim>360</dim>
					<dim>19</dim>
					<dim>19</dim>
				</port>
			</output>
		</layer>
		<layer name="485" type="Convolution" precision="FP32" id="100">
			<data dilations="1,1" group="1" kernel="1,1" output="36" pads_begin="0,0" pads_end="0,0" quantization_level="I8" strides="1,1" />
			<input>
				<port id="0">
					<dim>1</dim>
					<dim>360</dim>
					<dim>19</dim>
					<dim>19</dim>
				</port>
			</input>
			<output>
				<port id="1">
					<dim>1</dim>
					<dim>36</dim>
					<dim>19</dim>
					<dim>19</dim>
				</port>
			</output>
			<blobs>
				<biases offset="3990648" size="144" />
				<weights offset="3990792" size="51840" />
			</blobs>
		</layer>
		<layer name="517" type="Permute" precision="FP32" id="101">
			<data order="0,2,3,1" />
			<input>
				<port id="0">
					<dim>1</dim>
					<dim>36</dim>
					<dim>19</dim>
					<dim>19</dim>
				</port>
			</input>
			<output>
				<port id="1">
					<dim>1</dim>
					<dim>19</dim>
					<dim>19</dim>
					<dim>36</dim>
				</port>
			</output>
		</layer>
		<layer name="478" type="Convolution" precision="FP32" id="102">
			<data dilations="1,1" group="360" kernel="3,3" output="360" pads_begin="1,1" pads_end="1,1" quantization_level="FP32" strides="1,1" />
			<input>
				<port id="0">
					<dim>1</dim>
					<dim>360</dim>
					<dim>19</dim>
					<dim>19</dim>
				</port>
			</input>
			<output>
				<port id="1">
					<dim>1</dim>
					<dim>360</dim>
					<dim>19</dim>
					<dim>19</dim>
				</port>
			</output>
			<blobs>
				<biases offset="4042632" size="1440" />
				<weights offset="4044072" size="12960" />
			</blobs>
		</layer>
		<layer name="480" type="ReLU" precision="FP32" id="103">
			<input>
				<port id="0">
					<dim>1</dim>
					<dim>360</dim>
					<dim>19</dim>
					<dim>19</dim>
				</port>
			</input>
			<output>
				<port id="1">
					<dim>1</dim>
					<dim>360</dim>
					<dim>19</dim>
					<dim>19</dim>
				</port>
			</output>
		</layer>
		<layer name="481" type="Convolution" precision="FP32" id="104">
			<data dilations="1,1" group="1" kernel="1,1" output="18" pads_begin="0,0" pads_end="0,0" quantization_level="I8" strides="1,1" />
			<input>
				<port id="0">
					<dim>1</dim>
					<dim>360</dim>
					<dim>19</dim>
					<dim>19</dim>
				</port>
			</input>
			<output>
				<port id="1">
					<dim>1</dim>
					<dim>18</dim>
					<dim>19</dim>
					<dim>19</dim>
				</port>
			</output>
			<blobs>
				<biases offset="4057032" size="72" />
				<weights offset="4057104" size="25920" />
			</blobs>
		</layer>
		<layer name="488" type="Permute" precision="FP32" id="105">
			<data order="0,2,3,1" />
			<input>
				<port id="0">
					<dim>1</dim>
					<dim>18</dim>
					<dim>19</dim>
					<dim>19</dim>
				</port>
			</input>
			<output>
				<port id="1">
					<dim>1</dim>
					<dim>19</dim>
					<dim>19</dim>
					<dim>18</dim>
				</port>
			</output>
		</layer>
		<layer name="486" type="PriorBoxClustered" precision="FP32" id="106">
			<data clip="0" flip="0" height="15.0,39.6,25.5,63.2,227.5,162.9,124.5,105.1,72.6" img_h="0" img_size="0" img_w="0" offset="0.5" step="16.0" step_h="0.0" step_w="0.0" variance="0.1,0.1,0.2,0.2" width="9.4,25.1,14.7,34.7,143.0,77.4,128.8,51.1,75.6" />
			<input>
				<port id="0">
					<dim>1</dim>
					<dim>360</dim>
					<dim>19</dim>
					<dim>19</dim>
				</port>
				<port id="1">
					<dim>1</dim>
					<dim>3</dim>
					<dim>300</dim>
					<dim>300</dim>
				</port>
			</input>
			<output>
				<port id="2">
					<dim>1</dim>
					<dim>2</dim>
					<dim>12996</dim>
				</port>
			</output>
		</layer>
		<layer name="487" type="Concat" precision="FP32" id="107">
			<data axis="2" />
			<input>
				<port id="0">
					<dim>1</dim>
					<dim>2</dim>
					<dim>12996</dim>
				</port>
			</input>
			<output>
				<port id="1">
					<dim>1</dim>
					<dim>2</dim>
					<dim>12996</dim>
				</port>
			</output>
		</layer>
		<layer name="524/Output_0/Data__const" type="Const" precision="I32" id="108">
			<output>
				<port id="0">
					<dim>2</dim>
				</port>
			</output>
			<blobs>
				<custom offset="4083024" size="8" />
			</blobs>
		</layer>
		<layer name="525" type="Reshape" precision="FP32" id="109">
			<data dim="" />
			<input>
				<port id="0">
					<dim>1</dim>
					<dim>19</dim>
					<dim>19</dim>
					<dim>36</dim>
				</port>
				<port id="1">
					<dim>2</dim>
				</port>
			</input>
			<output>
				<port id="2">
					<dim>1</dim>
					<dim>12996</dim>
				</port>
			</output>
		</layer>
		<layer name="526" type="Concat" precision="FP32" id="110">
			<data axis="1" />
			<input>
				<port id="0">
					<dim>1</dim>
					<dim>12996</dim>
				</port>
			</input>
			<output>
				<port id="1">
					<dim>1</dim>
					<dim>12996</dim>
				</port>
			</output>
		</layer>
		<layer name="515/Output_0/Data__const" type="Const" precision="I32" id="111">
			<output>
				<port id="0">
					<dim>2</dim>
				</port>
			</output>
			<blobs>
				<custom offset="4083032" size="8" />
			</blobs>
		</layer>
		<layer name="506/Output_0/Data__const" type="Const" precision="I32" id="112">
			<output>
				<port id="0">
					<dim>3</dim>
				</port>
			</output>
			<blobs>
				<custom offset="4083040" size="12" />
			</blobs>
		</layer>
		<layer name="495/Output_0/Data__const" type="Const" precision="I32" id="113">
			<output>
				<port id="0">
					<dim>2</dim>
				</port>
			</output>
			<blobs>
				<custom offset="4083052" size="8" />
			</blobs>
		</layer>
		<layer name="496" type="Reshape" precision="FP32" id="114">
			<data dim="" />
			<input>
				<port id="0">
					<dim>1</dim>
					<dim>19</dim>
					<dim>19</dim>
					<dim>18</dim>
				</port>
				<port id="1">
					<dim>2</dim>
				</port>
			</input>
			<output>
				<port id="2">
					<dim>1</dim>
					<dim>6498</dim>
				</port>
			</output>
		</layer>
		<layer name="497" type="Concat" precision="FP32" id="115">
			<data axis="1" />
			<input>
				<port id="0">
					<dim>1</dim>
					<dim>6498</dim>
				</port>
			</input>
			<output>
				<port id="1">
					<dim>1</dim>
					<dim>6498</dim>
				</port>
			</output>
		</layer>
		<layer name="507" type="Reshape" precision="FP32" id="116">
			<data dim="" />
			<input>
				<port id="0">
					<dim>1</dim>
					<dim>6498</dim>
				</port>
				<port id="1">
					<dim>3</dim>
				</port>
			</input>
			<output>
				<port id="2">
					<dim>1</dim>
					<dim>3249</dim>
					<dim>2</dim>
				</port>
			</output>
		</layer>
		<layer name="508" type="SoftMax" precision="FP32" id="117">
			<data axis="2" />
			<input>
				<port id="0">
					<dim>1</dim>
					<dim>3249</dim>
					<dim>2</dim>
				</port>
			</input>
			<output>
				<port id="1">
					<dim>1</dim>
					<dim>3249</dim>
					<dim>2</dim>
				</port>
			</output>
		</layer>
		<layer name="516" type="Reshape" precision="FP32" id="118">
			<data dim="" />
			<input>
				<port id="0">
					<dim>1</dim>
					<dim>3249</dim>
					<dim>2</dim>
				</port>
				<port id="1">
					<dim>2</dim>
				</port>
			</input>
			<output>
				<port id="2">
					<dim>1</dim>
					<dim>6498</dim>
				</port>
			</output>
		</layer>
		<layer name="527" type="DetectionOutput" precision="FP32" id="119">
			<data background_label_id="0" code_type="caffe.PriorBoxParameter.CENTER_SIZE" confidence_threshold="0.019999999552965164" eta="1.0" height="0" height_scale="0" input_height="1" input_width="1" interp_mode="" keep_top_k="200" nms_threshold="0.44999998807907104" normalized="1" num_classes="2" pad_mode="" pad_value="" prob="0" resize_mode="" share_location="1" top_k="200" variance_encoded_in_target="0" visualize_threshold="0.6" width="0" width_scale="0" />
			<input>
				<port id="0">
					<dim>1</dim>
					<dim>12996</dim>
				</port>
				<port id="1">
					<dim>1</dim>
					<dim>6498</dim>
				</port>
				<port id="2">
					<dim>1</dim>
					<dim>2</dim>
					<dim>12996</dim>
				</port>
			</input>
			<output>
				<port id="3">
					<dim>1</dim>
					<dim>1</dim>
					<dim>200</dim>
					<dim>7</dim>
				</port>
			</output>
		</layer>
	</layers>
	<edges>
		<edge from-layer="0" from-port="0" to-layer="1" to-port="0" />
		<edge from-layer="1" from-port="1" to-layer="106" to-port="1" />
		<edge from-layer="1" from-port="1" to-layer="2" to-port="0" />
		<edge from-layer="2" from-port="1" to-layer="3" to-port="0" />
		<edge from-layer="3" from-port="1" to-layer="4" to-port="0" />
		<edge from-layer="4" from-port="1" to-layer="5" to-port="0" />
		<edge from-layer="5" from-port="1" to-layer="6" to-port="0" />
		<edge from-layer="6" from-port="1" to-layer="7" to-port="0" />
		<edge from-layer="7" from-port="1" to-layer="8" to-port="0" />
		<edge from-layer="8" from-port="1" to-layer="9" to-port="0" />
		<edge from-layer="9" from-port="1" to-layer="10" to-port="0" />
		<edge from-layer="10" from-port="1" to-layer="11" to-port="0" />
		<edge from-layer="11" from-port="1" to-layer="12" to-port="0" />
		<edge from-layer="12" from-port="1" to-layer="13" to-port="0" />
		<edge from-layer="12" from-port="1" to-layer="18" to-port="0" />
		<edge from-layer="13" from-port="1" to-layer="14" to-port="0" />
		<edge from-layer="14" from-port="1" to-layer="15" to-port="0" />
		<edge from-layer="15" from-port="1" to-layer="16" to-port="0" />
		<edge from-layer="16" from-port="1" to-layer="17" to-port="0" />
		<edge from-layer="17" from-port="1" to-layer="18" to-port="1" />
		<edge from-layer="18" from-port="2" to-layer="19" to-port="0" />
		<edge from-layer="19" from-port="1" to-layer="20" to-port="0" />
		<edge from-layer="20" from-port="1" to-layer="21" to-port="0" />
		<edge from-layer="21" from-port="1" to-layer="22" to-port="0" />
		<edge from-layer="22" from-port="1" to-layer="23" to-port="0" />
		<edge from-layer="23" from-port="1" to-layer="24" to-port="0" />
		<edge from-layer="23" from-port="1" to-layer="29" to-port="0" />
		<edge from-layer="24" from-port="1" to-layer="25" to-port="0" />
		<edge from-layer="25" from-port="1" to-layer="26" to-port="0" />
		<edge from-layer="26" from-port="1" to-layer="27" to-port="0" />
		<edge from-layer="27" from-port="1" to-layer="28" to-port="0" />
		<edge from-layer="28" from-port="1" to-layer="29" to-port="1" />
		<edge from-layer="29" from-port="2" to-layer="30" to-port="0" />
		<edge from-layer="29" from-port="2" to-layer="35" to-port="0" />
		<edge from-layer="30" from-port="1" to-layer="31" to-port="0" />
		<edge from-layer="31" from-port="1" to-layer="32" to-port="0" />
		<edge from-layer="32" from-port="1" to-layer="33" to-port="0" />
		<edge from-layer="33" from-port="1" to-layer="34" to-port="0" />
		<edge from-layer="34" from-port="1" to-layer="35" to-port="1" />
		<edge from-layer="35" from-port="2" to-layer="36" to-port="0" />
		<edge from-layer="36" from-port="1" to-layer="37" to-port="0" />
		<edge from-layer="37" from-port="1" to-layer="38" to-port="0" />
		<edge from-layer="38" from-port="1" to-layer="39" to-port="0" />
		<edge from-layer="39" from-port="1" to-layer="40" to-port="0" />
		<edge from-layer="40" from-port="1" to-layer="41" to-port="0" />
		<edge from-layer="40" from-port="1" to-layer="46" to-port="0" />
		<edge from-layer="41" from-port="1" to-layer="42" to-port="0" />
		<edge from-layer="42" from-port="1" to-layer="43" to-port="0" />
		<edge from-layer="43" from-port="1" to-layer="44" to-port="0" />
		<edge from-layer="44" from-port="1" to-layer="45" to-port="0" />
		<edge from-layer="45" from-port="1" to-layer="46" to-port="1" />
		<edge from-layer="46" from-port="2" to-layer="47" to-port="0" />
		<edge from-layer="46" from-port="2" to-layer="52" to-port="0" />
		<edge from-layer="47" from-port="1" to-layer="48" to-port="0" />
		<edge from-layer="48" from-port="1" to-layer="49" to-port="0" />
		<edge from-layer="49" from-port="1" to-layer="50" to-port="0" />
		<edge from-layer="50" from-port="1" to-layer="51" to-port="0" />
		<edge from-layer="51" from-port="1" to-layer="52" to-port="1" />
		<edge from-layer="52" from-port="2" to-layer="53" to-port="0" />
		<edge from-layer="52" from-port="2" to-layer="58" to-port="0" />
		<edge from-layer="53" from-port="1" to-layer="54" to-port="0" />
		<edge from-layer="54" from-port="1" to-layer="55" to-port="0" />
		<edge from-layer="55" from-port="1" to-layer="56" to-port="0" />
		<edge from-layer="56" from-port="1" to-layer="57" to-port="0" />
		<edge from-layer="57" from-port="1" to-layer="58" to-port="1" />
		<edge from-layer="58" from-port="2" to-layer="59" to-port="0" />
		<edge from-layer="59" from-port="1" to-layer="60" to-port="0" />
		<edge from-layer="60" from-port="1" to-layer="61" to-port="0" />
		<edge from-layer="61" from-port="1" to-layer="62" to-port="0" />
		<edge from-layer="62" from-port="1" to-layer="63" to-port="0" />
		<edge from-layer="63" from-port="1" to-layer="64" to-port="0" />
		<edge from-layer="63" from-port="1" to-layer="69" to-port="0" />
		<edge from-layer="64" from-port="1" to-layer="65" to-port="0" />
		<edge from-layer="65" from-port="1" to-layer="66" to-port="0" />
		<edge from-layer="66" from-port="1" to-layer="67" to-port="0" />
		<edge from-layer="67" from-port="1" to-layer="68" to-port="0" />
		<edge from-layer="68" from-port="1" to-layer="69" to-port="1" />
		<edge from-layer="69" from-port="2" to-layer="70" to-port="0" />
		<edge from-layer="69" from-port="2" to-layer="75" to-port="0" />
		<edge from-layer="70" from-port="1" to-layer="71" to-port="0" />
		<edge from-layer="71" from-port="1" to-layer="72" to-port="0" />
		<edge from-layer="72" from-port="1" to-layer="73" to-port="0" />
		<edge from-layer="73" from-port="1" to-layer="74" to-port="0" />
		<edge from-layer="74" from-port="1" to-layer="75" to-port="1" />
		<edge from-layer="75" from-port="2" to-layer="76" to-port="0" />
		<edge from-layer="76" from-port="1" to-layer="77" to-port="0" />
		<edge from-layer="77" from-port="1" to-layer="78" to-port="0" />
		<edge from-layer="78" from-port="1" to-layer="79" to-port="0" />
		<edge from-layer="79" from-port="1" to-layer="80" to-port="0" />
		<edge from-layer="80" from-port="1" to-layer="81" to-port="0" />
		<edge from-layer="80" from-port="1" to-layer="86" to-port="0" />
		<edge from-layer="81" from-port="1" to-layer="82" to-port="0" />
		<edge from-layer="82" from-port="1" to-layer="83" to-port="0" />
		<edge from-layer="83" from-port="1" to-layer="84" to-port="0" />
		<edge from-layer="84" from-port="1" to-layer="85" to-port="0" />
		<edge from-layer="85" from-port="1" to-layer="86" to-port="1" />
		<edge from-layer="86" from-port="2" to-layer="87" to-port="0" />
		<edge from-layer="86" from-port="2" to-layer="92" to-port="0" />
		<edge from-layer="87" from-port="1" to-layer="88" to-port="0" />
		<edge from-layer="88" from-port="1" to-layer="89" to-port="0" />
		<edge from-layer="89" from-port="1" to-layer="90" to-port="0" />
		<edge from-layer="90" from-port="1" to-layer="91" to-port="0" />
		<edge from-layer="91" from-port="1" to-layer="92" to-port="1" />
		<edge from-layer="92" from-port="2" to-layer="93" to-port="0" />
		<edge from-layer="93" from-port="1" to-layer="94" to-port="0" />
		<edge from-layer="94" from-port="1" to-layer="95" to-port="0" />
		<edge from-layer="95" from-port="1" to-layer="96" to-port="0" />
		<edge from-layer="96" from-port="1" to-layer="97" to-port="0" />
		<edge from-layer="97" from-port="1" to-layer="102" to-port="0" />
		<edge from-layer="97" from-port="1" to-layer="98" to-port="0" />
		<edge from-layer="97" from-port="1" to-layer="106" to-port="0" />
		<edge from-layer="98" from-port="1" to-layer="99" to-port="0" />
		<edge from-layer="99" from-port="1" to-layer="100" to-port="0" />
		<edge from-layer="100" from-port="1" to-layer="101" to-port="0" />
		<edge from-layer="101" from-port="1" to-layer="109" to-port="0" />
		<edge from-layer="102" from-port="1" to-layer="103" to-port="0" />
		<edge from-layer="103" from-port="1" to-layer="104" to-port="0" />
		<edge from-layer="104" from-port="1" to-layer="105" to-port="0" />
		<edge from-layer="105" from-port="1" to-layer="114" to-port="0" />
		<edge from-layer="106" from-port="2" to-layer="107" to-port="0" />
		<edge from-layer="107" from-port="1" to-layer="119" to-port="2" />
		<edge from-layer="108" from-port="0" to-layer="109" to-port="1" />
		<edge from-layer="109" from-port="2" to-layer="110" to-port="0" />
		<edge from-layer="110" from-port="1" to-layer="119" to-port="0" />
		<edge from-layer="111" from-port="0" to-layer="118" to-port="1" />
		<edge from-layer="112" from-port="0" to-layer="116" to-port="1" />
		<edge from-layer="113" from-port="0" to-layer="114" to-port="1" />
		<edge from-layer="114" from-port="2" to-layer="115" to-port="0" />
		<edge from-layer="115" from-port="1" to-layer="116" to-port="0" />
		<edge from-layer="116" from-port="2" to-layer="117" to-port="0" />
		<edge from-layer="117" from-port="1" to-layer="118" to-port="0" />
		<edge from-layer="118" from-port="2" to-layer="119" to-port="1" />
	</edges>
	<statistics>
		<layer>
			<name>332</name>
			<min>… -1.346460</min>
			<max>… 1.268444</max>
		</layer>
		<layer>
			<name>334</name>
			<min>… -0.000000</min>
			<max>… 1.268444</max>
		</layer>
		<layer>
			<name>335</name>
			<min>… -1.187403</min>
			<max>… 0.968426</max>
		</layer>
		<layer>
			<name>337</name>
			<min>… -0.000000</min>
			<max>… 0.968426</max>
		</layer>
		<layer>
			<name>338</name>
			<min>-6.782665, -6.511237, -4.370020, -2.040845, -2.759742, -3.271833, -3.119236, -4.028475, -3.921047, -1.252544, -4.350473, -2.416056</min>
			<max>2.870568, 3.223976, 1.643254, 3.161555, 3.387812, 2.821929, 1.922155, 2.913199, 2.890312, 3.549422, 1.898478, 3.295289</max>
		</layer>
		<layer>
			<name>340</name>
			<min>… -1.268956</min>
			<max>… 0.921188</max>
		</layer>
		<layer>
			<name>342</name>
			<min>… -0.000000</min>
			<max>… 0.921188</max>
		</layer>
		<layer>
			<name>343</name>
			<min>… -0.990668</min>
			<max>… 2.027244</max>
		</layer>
		<layer>
			<name>345</name>
			<min>… -0.000000</min>
			<max>… 2.027244</max>
		</layer>
		<layer>
			<name>346</name>
			<min>… -1.608371</min>
			<max>… 1.043248</max>
		</layer>
		<layer>
			<name>348</name>
			<min>… -0.215146</min>
			<max>… 0.531416</max>
		</layer>
		<layer>
			<name>350</name>
			<min>… -0.000000</min>
			<max>… 0.531416</max>
		</layer>
		<layer>
			<name>351</name>
			<min>… -0.835744</min>
			<max>… 0.953591</max>
		</layer>
		<layer>
			<name>353</name>
			<min>… -0.000000</min>
			<max>… 0.953591</max>
		</layer>
		<layer>
			<name>354</name>
			<min>… -1.413439</min>
			<max>… 2.551415</max>
		</layer>
		<layer>
			<name>356</name>
			<min>… -2.079589</min>
			<max>… 3.119244</max>
		</layer>
		<layer>
			<name>357</name>
			<min>… -0.099102</min>
			<max>… -0.033069</max>
		</layer>
		<layer>
			<name>359</name>
			<min>… -0.000000</min>
			<max>… -0.000000</max>
		</layer>
		<layer>
			<name>360</name>
			<min>… 0.023905</min>
			<max>… 0.023905</max>
		</layer>
		<layer>
			<name>362</name>
			<min>… 0.023905</min>
			<max>… 0.023905</max>
		</layer>
		<layer>
			<name>363</name>
			<min>… -1.238544</min>
			<max>… 1.021022</max>
		</layer>
		<layer>
			<name>365</name>
			<min>… -0.055504</min>
			<max>… 0.510921</max>
		</layer>
		<layer>
			<name>367</name>
			<min>… -0.000000</min>
			<max>… 0.510921</max>
		</layer>
		<layer>
			<name>368</name>
			<min>… -1.039701</min>
			<max>… 0.481230</max>
		</layer>
		<layer>
			<name>370</name>
			<min>… -0.000000</min>
			<max>… 0.481230</max>
		</layer>
		<layer>
			<name>371</name>
			<min>… -1.859859</min>
			<max>… 1.596825</max>
		</layer>
		<layer>
			<name>373</name>
			<min>… -2.408276</min>
			<max>… 2.111839</max>
		</layer>
		<layer>
			<name>374</name>
			<min>… -0.129677</min>
			<max>… -0.092906</max>
		</layer>
		<layer>
			<name>376</name>
			<min>… -0.000000</min>
			<max>… -0.000000</max>
		</layer>
		<layer>
			<name>377</name>
			<min>… -0.056651</min>
			<max>… -0.056651</max>
		</layer>
		<layer>
			<name>379</name>
			<min>… -0.000000</min>
			<max>… -0.000000</max>
		</layer>
		<layer>
			<name>380</name>
			<min>… -1.132007</min>
			<max>… 2.570641</max>
		</layer>
		<layer>
			<name>382</name>
			<min>… -2.956266</min>
			<max>… 3.942910</max>
		</layer>
		<layer>
			<name>383</name>
			<min>… -0.549080</min>
			<max>… 0.566201</max>
		</layer>
		<layer>
			<name>385</name>
			<min>… -0.000000</min>
			<max>… 0.566201</max>
		</layer>
		<layer>
			<name>386</name>
			<min>… -0.792183</min>
			<max>… 0.258412</max>
		</layer>
		<layer>
			<name>388</name>
			<min>… -0.000000</min>
			<max>… 0.258412</max>
		</layer>
		<layer>
			<name>389</name>
			<min>… -1.364649</min>
			<max>… 2.034478</max>
		</layer>
		<layer>
			<name>391</name>
			<min>… -0.644534</min>
			<max>… 0.462210</max>
		</layer>
		<layer>
			<name>393</name>
			<min>… -0.000000</min>
			<max>… 0.462210</max>
		</layer>
		<layer>
			<name>394</name>
			<min>… -0.724366</min>
			<max>… 0.580198</max>
		</layer>
		<layer>
			<name>396</name>
			<min>… -0.000000</min>
			<max>… 0.580198</max>
		</layer>
		<layer>
			<name>397</name>
			<min>… -0.877988</min>
			<max>… 0.833303</max>
		</layer>
		<layer>
			<name>399</name>
			<min>… -1.736752</min>
			<max>… 2.177865</max>
		</layer>
		<layer>
			<name>400</name>
			<min>… -0.403022</min>
			<max>… 0.277892</max>
		</layer>
		<layer>
			<name>402</name>
			<min>… -0.000000</min>
			<max>… 0.277892</max>
		</layer>
		<layer>
			<name>403</name>
			<min>… -0.291588</min>
			<max>… 0.740712</max>
		</layer>
		<layer>
			<name>405</name>
			<min>… -0.000000</min>
			<max>… 0.740712</max>
		</layer>
		<layer>
			<name>406</name>
			<min>… -0.757742</min>
			<max>… 0.757370</max>
		</layer>
		<layer>
			<name>408</name>
			<min>… -2.020981</min>
			<max>… 2.107366</max>
		</layer>
		<layer>
			<name>409</name>
			<min>… -0.192172</min>
			<max>… 0.756829</max>
		</layer>
		<layer>
			<name>411</name>
			<min>… -0.000000</min>
			<max>… 0.756829</max>
		</layer>
		<layer>
			<name>412</name>
			<min>… -0.588849</min>
			<max>… 0.860093</max>
		</layer>
		<layer>
			<name>414</name>
			<min>… -0.000000</min>
			<max>… 0.860093</max>
		</layer>
		<layer>
			<name>415</name>
			<min>… -0.696510</min>
			<max>… 0.684760</max>
		</layer>
		<layer>
			<name>417</name>
			<min>… -2.169626</min>
			<max>… 2.219842</max>
		</layer>
		<layer>
			<name>418</name>
			<min>… -0.573949</min>
			<max>… 0.448863</max>
		</layer>
		<layer>
			<name>420</name>
			<min>… -0.000000</min>
			<max>… 0.448863</max>
		</layer>
		<layer>
			<name>421</name>
			<min>… -0.310587</min>
			<max>… 1.165903</max>
		</layer>
		<layer>
			<name>423</name>
			<min>… -0.000000</min>
			<max>… 1.165903</max>
		</layer>
		<layer>
			<name>424</name>
			<min>… -1.637507</min>
			<max>… 0.826572</max>
		</layer>
		<layer>
			<name>426</name>
			<min>… -0.170277</min>
			<max>… 0.247449</max>
		</layer>
		<layer>
			<name>428</name>
			<min>… -0.000000</min>
			<max>… 0.247449</max>
		</layer>
		<layer>
			<name>429</name>
			<min>… -0.342012</min>
			<max>… 0.090734</max>
		</layer>
		<layer>
			<name>431</name>
			<min>… -0.000000</min>
			<max>… 0.090734</max>
		</layer>
		<layer>
			<name>432</name>
			<min>… -1.028012</min>
			<max>… 1.034292</max>
		</layer>
		<layer>
			<name>434</name>
			<min>… -2.097421</min>
			<max>… 1.077037</max>
		</layer>
		<layer>
			<name>435</name>
			<min>… -0.406704</min>
			<max>… 0.236693</max>
		</layer>
		<layer>
			<name>437</name>
			<min>… -0.000000</min>
			<max>… 0.236693</max>
		</layer>
		<layer>
			<name>438</name>
			<min>… -0.106363</min>
			<max>… 0.669447</max>
		</layer>
		<layer>
			<name>440</name>
			<min>… -0.000000</min>
			<max>… 0.669447</max>
		</layer>
		<layer>
			<name>441</name>
			<min>… -1.390482</min>
			<max>… 0.974144</max>
		</layer>
		<layer>
			<name>443</name>
			<min>… -2.831230</min>
			<max>… 1.413089</max>
		</layer>
		<layer>
			<name>444</name>
			<min>… -0.595243</min>
			<max>… 0.189945</max>
		</layer>
		<layer>
			<name>446</name>
			<min>… -0.000000</min>
			<max>… 0.189945</max>
		</layer>
		<layer>
			<name>447</name>
			<min>… -0.336773</min>
			<max>… 0.196690</max>
		</layer>
		<layer>
			<name>449</name>
			<min>… -0.000000</min>
			<max>… 0.196690</max>
		</layer>
		<layer>
			<name>450</name>
			<min>… -0.689049</min>
			<max>… 0.697284</max>
		</layer>
		<layer>
			<name>452</name>
			<min>… -0.098668</min>
			<max>… 0.242998</max>
		</layer>
		<layer>
			<name>454</name>
			<min>… -0.000000</min>
			<max>… 0.242998</max>
		</layer>
		<layer>
			<name>455</name>
			<min>… -0.139605</min>
			<max>… 0.017040</max>
		</layer>
		<layer>
			<name>457</name>
			<min>… -0.000000</min>
			<max>… 0.017040</max>
		</layer>
		<layer>
			<name>458</name>
			<min>… -0.335821</min>
			<max>… 0.439975</max>
		</layer>
		<layer>
			<name>460</name>
			<min>… -0.903861</min>
			<max>… 0.908846</max>
		</layer>
		<layer>
			<name>461</name>
			<min>… -0.381033</min>
			<max>… 0.324659</max>
		</layer>
		<layer>
			<name>463</name>
			<min>… -0.000000</min>
			<max>… 0.324659</max>
		</layer>
		<layer>
			<name>464</name>
			<min>… -0.550120</min>
			<max>… 0.348861</max>
		</layer>
		<layer>
			<name>466</name>
			<min>… -0.000000</min>
			<max>… 0.348861</max>
		</layer>
		<layer>
			<name>467</name>
			<min>… -0.484922</min>
			<max>… 0.579701</max>
		</layer>
		<layer>
			<name>469</name>
			<min>… -0.946319</min>
			<max>… 1.024031</max>
		</layer>
		<layer>
			<name>470</name>
			<min>… -0.385054</min>
			<max>… 0.252420</max>
		</layer>
		<layer>
			<name>472</name>
			<min>… -0.000000</min>
			<max>… 0.252420</max>
		</layer>
		<layer>
			<name>473</name>
			<min>… -0.198604</min>
			<max>… 0.592651</max>
		</layer>
		<layer>
			<name>475</name>
			<min>… -0.000000</min>
			<max>… 0.592651</max>
		</layer>
		<layer>
			<name>476</name>
			<min>… -0.482245</min>
			<max>… 0.619262</max>
		</layer>
		<layer>
			<name>478</name>
			<min>… -1.869962</min>
			<max>… 1.560739</max>
		</layer>
		<layer>
			<name>480</name>
			<min>… -0.000000</min>
			<max>… 1.560739</max>
		</layer>
		<layer>
			<name>481</name>
			<min>… -4.241526</min>
			<max>… 5.175962</max>
		</layer>
		<layer>
			<name>482</name>
			<min>… -1.576637</min>
			<max>… 1.827201</max>
		</layer>
		<layer>
			<name>484</name>
			<min>… -0.000000</min>
			<max>… 1.827201</max>
		</layer>
		<layer>
			<name>485</name>
			<min>… -2.559623</min>
			<max>… 3.459217</max>
		</layer>
		<layer>
			<name>486</name>
			<min>-0.352500</min>
			<max>1.365833</max>
		</layer>
		<layer>
			<name>487</name>
			<min>-0.352500</min>
			<max>1.365833</max>
		</layer>
		<layer>
			<name>488</name>
			<min>… -3.908761</min>
			<max>… 4.006649</max>
		</layer>
		<layer>
			<name>496</name>
			<min>… -3.241686</min>
			<max>… -2.044664</max>
		</layer>
		<layer>
			<name>497</name>
			<min>… -3.241686</min>
			<max>… -2.044664</max>
		</layer>
		<layer>
			<name>507</name>
			<min>-5.238664</min>
			<max>5.385836</max>
		</layer>
		<layer>
			<name>508</name>
			<min>0.000023</min>
			<max>0.999977</max>
		</layer>
		<layer>
			<name>516</name>
			<min>… 0.001425</min>
			<max>… 0.015835</max>
		</layer>
		<layer>
			<name>517</name>
			<min>… -5.420288</min>
			<max>… 4.463167</max>
		</layer>
		<layer>
			<name>525</name>
			<min>… -0.612442</min>
			<max>… 0.802633</max>
		</layer>
		<layer>
			<name>526</name>
			<min>… -0.612442</min>
			<max>… 0.802633</max>
		</layer>
		<layer>
			<name>527</name>
			<min>-1.000000</min>
			<max>1.105998</max>
		</layer>
		<layer>
			<name>Mul1_6931/Fused_Mul_/FusedScaleShift_</name>
			<min>-0.826255, -1.230956, -1.217803</min>
			<max>1.828062, 1.939340, 1.905195</max>
		</layer>
		<layer>
			<name>Mul_</name>
			<min>0.000000, 0.000000, 0.000000</min>
			<max>1.000000, 1.000000, 1.000000</max>
		</layer>
		<layer>
			<name>input.1</name>
			<min>0.000000, 0.000000, 0.000000</min>
			<max>255.000000, 255.000000, 255.000000</max>
		</layer>
	</statistics>
</net>
