<?xml version="1.0"?>
<net name="head-pose-estimation-adas-0001" version="6" batch="1">
	<layers>
		<layer name="data" type="Input" precision="FP32" id="0">
			<output>
				<port id="0">
					<dim>1</dim>
					<dim>3</dim>
					<dim>60</dim>
					<dim>60</dim>
				</port>
			</output>
		</layer>
		<layer name="Mul_/Fused_Mul_/FusedScaleShift_" type="ScaleShift" precision="FP32" id="1">
			<data broadcast="0" />
			<input>
				<port id="0">
					<dim>1</dim>
					<dim>3</dim>
					<dim>60</dim>
					<dim>60</dim>
				</port>
			</input>
			<output>
				<port id="1">
					<dim>1</dim>
					<dim>3</dim>
					<dim>60</dim>
					<dim>60</dim>
				</port>
			</output>
			<blobs>
				<biases offset="0" size="12" />
				<weights offset="12" size="12" />
			</blobs>
		</layer>
		<layer name="conv1" type="Convolution" precision="FP32" id="2">
			<data dilations="1,1" group="1" kernel="3,3" output="32" pads_begin="1,1" pads_end="1,1" quantization_level="I8" strides="1,1" />
			<input>
				<port id="0">
					<dim>1</dim>
					<dim>3</dim>
					<dim>60</dim>
					<dim>60</dim>
				</port>
			</input>
			<output>
				<port id="1">
					<dim>1</dim>
					<dim>32</dim>
					<dim>60</dim>
					<dim>60</dim>
				</port>
			</output>
			<blobs>
				<biases offset="24" size="128" />
				<weights offset="152" size="3456" />
			</blobs>
		</layer>
		<layer name="relu_conv1" type="ReLU" precision="FP32" id="3">
			<input>
				<port id="0">
					<dim>1</dim>
					<dim>32</dim>
					<dim>60</dim>
					<dim>60</dim>
				</port>
			</input>
			<output>
				<port id="1">
					<dim>1</dim>
					<dim>32</dim>
					<dim>60</dim>
					<dim>60</dim>
				</port>
			</output>
		</layer>
		<layer name="Mul_999/FusedScaleShift_" type="ScaleShift" precision="FP32" id="4">
			<data broadcast="0" />
			<input>
				<port id="0">
					<dim>1</dim>
					<dim>32</dim>
					<dim>60</dim>
					<dim>60</dim>
				</port>
			</input>
			<output>
				<port id="1">
					<dim>1</dim>
					<dim>32</dim>
					<dim>60</dim>
					<dim>60</dim>
				</port>
			</output>
			<blobs>
				<biases offset="3608" size="128" />
				<weights offset="3736" size="128" />
			</blobs>
		</layer>
		<layer name="pool1" type="Convolution" precision="FP32" id="5">
			<data dilations="1,1" group="1" kernel="3,3" output="16" pads_begin="1,1" pads_end="1,1" quantization_level="I8" strides="2,2" />
			<input>
				<port id="0">
					<dim>1</dim>
					<dim>32</dim>
					<dim>60</dim>
					<dim>60</dim>
				</port>
			</input>
			<output>
				<port id="1">
					<dim>1</dim>
					<dim>16</dim>
					<dim>30</dim>
					<dim>30</dim>
				</port>
			</output>
			<blobs>
				<biases offset="3864" size="64" />
				<weights offset="3928" size="18432" />
			</blobs>
		</layer>
		<layer name="conv2" type="Convolution" precision="FP32" id="6">
			<data dilations="1,1" group="1" kernel="3,3" output="64" pads_begin="1,1" pads_end="1,1" quantization_level="I8" strides="1,1" />
			<input>
				<port id="0">
					<dim>1</dim>
					<dim>16</dim>
					<dim>30</dim>
					<dim>30</dim>
				</port>
			</input>
			<output>
				<port id="1">
					<dim>1</dim>
					<dim>64</dim>
					<dim>30</dim>
					<dim>30</dim>
				</port>
			</output>
			<blobs>
				<biases offset="22360" size="256" />
				<weights offset="22616" size="36864" />
			</blobs>
		</layer>
		<layer name="relu_conv2" type="ReLU" precision="FP32" id="7">
			<input>
				<port id="0">
					<dim>1</dim>
					<dim>64</dim>
					<dim>30</dim>
					<dim>30</dim>
				</port>
			</input>
			<output>
				<port id="1">
					<dim>1</dim>
					<dim>64</dim>
					<dim>30</dim>
					<dim>30</dim>
				</port>
			</output>
		</layer>
		<layer name="Mul_990/FusedScaleShift_" type="ScaleShift" precision="FP32" id="8">
			<data broadcast="0" />
			<input>
				<port id="0">
					<dim>1</dim>
					<dim>64</dim>
					<dim>30</dim>
					<dim>30</dim>
				</port>
			</input>
			<output>
				<port id="1">
					<dim>1</dim>
					<dim>64</dim>
					<dim>30</dim>
					<dim>30</dim>
				</port>
			</output>
			<blobs>
				<biases offset="59480" size="256" />
				<weights offset="59736" size="256" />
			</blobs>
		</layer>
		<layer name="pool2" type="Pooling" precision="FP32" id="9">
			<data exclude-pad="true" kernel="3,3" pads_begin="0,0" pads_end="0,0" pool-method="max" rounding_type="ceil" strides="2,2" />
			<input>
				<port id="0">
					<dim>1</dim>
					<dim>64</dim>
					<dim>30</dim>
					<dim>30</dim>
				</port>
			</input>
			<output>
				<port id="1">
					<dim>1</dim>
					<dim>64</dim>
					<dim>15</dim>
					<dim>15</dim>
				</port>
			</output>
		</layer>
		<layer name="conv3" type="Convolution" precision="FP32" id="10">
			<data dilations="1,1" group="1" kernel="3,3" output="128" pads_begin="1,1" pads_end="1,1" quantization_level="I8" strides="1,1" />
			<input>
				<port id="0">
					<dim>1</dim>
					<dim>64</dim>
					<dim>15</dim>
					<dim>15</dim>
				</port>
			</input>
			<output>
				<port id="1">
					<dim>1</dim>
					<dim>128</dim>
					<dim>15</dim>
					<dim>15</dim>
				</port>
			</output>
			<blobs>
				<biases offset="59992" size="512" />
				<weights offset="60504" size="294912" />
			</blobs>
		</layer>
		<layer name="relu_conv3" type="ReLU" precision="FP32" id="11">
			<input>
				<port id="0">
					<dim>1</dim>
					<dim>128</dim>
					<dim>15</dim>
					<dim>15</dim>
				</port>
			</input>
			<output>
				<port id="1">
					<dim>1</dim>
					<dim>128</dim>
					<dim>15</dim>
					<dim>15</dim>
				</port>
			</output>
		</layer>
		<layer name="Mul_1011/FusedScaleShift_" type="ScaleShift" precision="FP32" id="12">
			<data broadcast="0" />
			<input>
				<port id="0">
					<dim>1</dim>
					<dim>128</dim>
					<dim>15</dim>
					<dim>15</dim>
				</port>
			</input>
			<output>
				<port id="1">
					<dim>1</dim>
					<dim>128</dim>
					<dim>15</dim>
					<dim>15</dim>
				</port>
			</output>
			<blobs>
				<biases offset="355416" size="512" />
				<weights offset="355928" size="512" />
			</blobs>
		</layer>
		<layer name="pool3" type="Convolution" precision="FP32" id="13">
			<data dilations="1,1" group="1" kernel="3,3" output="64" pads_begin="1,1" pads_end="1,1" quantization_level="I8" strides="2,2" />
			<input>
				<port id="0">
					<dim>1</dim>
					<dim>128</dim>
					<dim>15</dim>
					<dim>15</dim>
				</port>
			</input>
			<output>
				<port id="1">
					<dim>1</dim>
					<dim>64</dim>
					<dim>8</dim>
					<dim>8</dim>
				</port>
			</output>
			<blobs>
				<biases offset="356440" size="256" />
				<weights offset="356696" size="294912" />
			</blobs>
		</layer>
		<layer name="conv4" type="Convolution" precision="FP32" id="14">
			<data dilations="1,1" group="1" kernel="3,3" output="128" pads_begin="1,1" pads_end="1,1" quantization_level="I8" strides="1,1" />
			<input>
				<port id="0">
					<dim>1</dim>
					<dim>64</dim>
					<dim>8</dim>
					<dim>8</dim>
				</port>
			</input>
			<output>
				<port id="1">
					<dim>1</dim>
					<dim>128</dim>
					<dim>8</dim>
					<dim>8</dim>
				</port>
			</output>
			<blobs>
				<biases offset="651608" size="512" />
				<weights offset="652120" size="294912" />
			</blobs>
		</layer>
		<layer name="relu_conv4" type="ReLU" precision="FP32" id="15">
			<input>
				<port id="0">
					<dim>1</dim>
					<dim>128</dim>
					<dim>8</dim>
					<dim>8</dim>
				</port>
			</input>
			<output>
				<port id="1">
					<dim>1</dim>
					<dim>128</dim>
					<dim>8</dim>
					<dim>8</dim>
				</port>
			</output>
		</layer>
		<layer name="Mul_1014/FusedScaleShift_" type="ScaleShift" precision="FP32" id="16">
			<data broadcast="0" />
			<input>
				<port id="0">
					<dim>1</dim>
					<dim>128</dim>
					<dim>8</dim>
					<dim>8</dim>
				</port>
			</input>
			<output>
				<port id="1">
					<dim>1</dim>
					<dim>128</dim>
					<dim>8</dim>
					<dim>8</dim>
				</port>
			</output>
			<blobs>
				<biases offset="947032" size="512" />
				<weights offset="947544" size="512" />
			</blobs>
		</layer>
		<layer name="pool4" type="Pooling" precision="FP32" id="17">
			<data exclude-pad="true" kernel="3,3" pads_begin="0,0" pads_end="0,0" pool-method="max" rounding_type="ceil" strides="2,2" />
			<input>
				<port id="0">
					<dim>1</dim>
					<dim>128</dim>
					<dim>8</dim>
					<dim>8</dim>
				</port>
			</input>
			<output>
				<port id="1">
					<dim>1</dim>
					<dim>128</dim>
					<dim>4</dim>
					<dim>4</dim>
				</port>
			</output>
		</layer>
		<layer name="conv5" type="Convolution" precision="FP32" id="18">
			<data dilations="1,1" group="1" kernel="3,3" output="256" pads_begin="1,1" pads_end="1,1" quantization_level="I8" strides="1,1" />
			<input>
				<port id="0">
					<dim>1</dim>
					<dim>128</dim>
					<dim>4</dim>
					<dim>4</dim>
				</port>
			</input>
			<output>
				<port id="1">
					<dim>1</dim>
					<dim>256</dim>
					<dim>4</dim>
					<dim>4</dim>
				</port>
			</output>
			<blobs>
				<biases offset="948056" size="1024" />
				<weights offset="949080" size="1179648" />
			</blobs>
		</layer>
		<layer name="relu_conv5" type="ReLU" precision="FP32" id="19">
			<input>
				<port id="0">
					<dim>1</dim>
					<dim>256</dim>
					<dim>4</dim>
					<dim>4</dim>
				</port>
			</input>
			<output>
				<port id="1">
					<dim>1</dim>
					<dim>256</dim>
					<dim>4</dim>
					<dim>4</dim>
				</port>
			</output>
		</layer>
		<layer name="Mul_1005/FusedScaleShift_" type="ScaleShift" precision="FP32" id="20">
			<data broadcast="0" />
			<input>
				<port id="0">
					<dim>1</dim>
					<dim>256</dim>
					<dim>4</dim>
					<dim>4</dim>
				</port>
			</input>
			<output>
				<port id="1">
					<dim>1</dim>
					<dim>256</dim>
					<dim>4</dim>
					<dim>4</dim>
				</port>
			</output>
			<blobs>
				<biases offset="2128728" size="1024" />
				<weights offset="2129752" size="1024" />
			</blobs>
		</layer>
		<layer name="conv_fm" type="Convolution" precision="FP32" id="21">
			<data dilations="1,1" group="1" kernel="3,3" output="512" pads_begin="0,0" pads_end="0,0" quantization_level="I8" strides="1,1" />
			<input>
				<port id="0">
					<dim>1</dim>
					<dim>256</dim>
					<dim>4</dim>
					<dim>4</dim>
				</port>
			</input>
			<output>
				<port id="1">
					<dim>1</dim>
					<dim>512</dim>
					<dim>2</dim>
					<dim>2</dim>
				</port>
			</output>
			<blobs>
				<biases offset="2130776" size="2048" />
				<weights offset="2132824" size="4718592" />
			</blobs>
		</layer>
		<layer name="angle_y" type="Convolution" precision="FP32" id="22">
			<data dilations="1,1" group="1" kernel="1,1" output="128" pads_begin="0,0" pads_end="0,0" quantization_level="I8" strides="1,1" />
			<input>
				<port id="0">
					<dim>1</dim>
					<dim>512</dim>
					<dim>2</dim>
					<dim>2</dim>
				</port>
			</input>
			<output>
				<port id="1">
					<dim>1</dim>
					<dim>128</dim>
					<dim>2</dim>
					<dim>2</dim>
				</port>
			</output>
			<blobs>
				<biases offset="6851416" size="512" />
				<weights offset="6851928" size="262144" />
			</blobs>
		</layer>
		<layer name="relu_y_1" type="ReLU" precision="FP32" id="23">
			<input>
				<port id="0">
					<dim>1</dim>
					<dim>128</dim>
					<dim>2</dim>
					<dim>2</dim>
				</port>
			</input>
			<output>
				<port id="1">
					<dim>1</dim>
					<dim>128</dim>
					<dim>2</dim>
					<dim>2</dim>
				</port>
			</output>
		</layer>
		<layer name="angle_y_fc" type="FullyConnected" precision="FP32" id="24">
			<data out-size="1" quantization_level="FP32" />
			<input>
				<port id="0">
					<dim>1</dim>
					<dim>128</dim>
					<dim>2</dim>
					<dim>2</dim>
				</port>
			</input>
			<output>
				<port id="1">
					<dim>1</dim>
					<dim>1</dim>
				</port>
			</output>
			<blobs>
				<biases offset="7114072" size="4" />
				<weights offset="7114076" size="2048" />
			</blobs>
		</layer>
		<layer name="angle_r" type="Convolution" precision="FP32" id="25">
			<data dilations="1,1" group="1" kernel="1,1" output="128" pads_begin="0,0" pads_end="0,0" quantization_level="I8" strides="1,1" />
			<input>
				<port id="0">
					<dim>1</dim>
					<dim>512</dim>
					<dim>2</dim>
					<dim>2</dim>
				</port>
			</input>
			<output>
				<port id="1">
					<dim>1</dim>
					<dim>128</dim>
					<dim>2</dim>
					<dim>2</dim>
				</port>
			</output>
			<blobs>
				<biases offset="7116124" size="512" />
				<weights offset="7116636" size="262144" />
			</blobs>
		</layer>
		<layer name="relu_r_1" type="ReLU" precision="FP32" id="26">
			<input>
				<port id="0">
					<dim>1</dim>
					<dim>128</dim>
					<dim>2</dim>
					<dim>2</dim>
				</port>
			</input>
			<output>
				<port id="1">
					<dim>1</dim>
					<dim>128</dim>
					<dim>2</dim>
					<dim>2</dim>
				</port>
			</output>
		</layer>
		<layer name="angle_r_fc" type="FullyConnected" precision="FP32" id="27">
			<data out-size="1" quantization_level="FP32" />
			<input>
				<port id="0">
					<dim>1</dim>
					<dim>128</dim>
					<dim>2</dim>
					<dim>2</dim>
				</port>
			</input>
			<output>
				<port id="1">
					<dim>1</dim>
					<dim>1</dim>
				</port>
			</output>
			<blobs>
				<biases offset="7378780" size="4" />
				<weights offset="7378784" size="2048" />
			</blobs>
		</layer>
		<layer name="angle_p" type="Convolution" precision="FP32" id="28">
			<data dilations="1,1" group="1" kernel="1,1" output="128" pads_begin="0,0" pads_end="0,0" quantization_level="I8" strides="1,1" />
			<input>
				<port id="0">
					<dim>1</dim>
					<dim>512</dim>
					<dim>2</dim>
					<dim>2</dim>
				</port>
			</input>
			<output>
				<port id="1">
					<dim>1</dim>
					<dim>128</dim>
					<dim>2</dim>
					<dim>2</dim>
				</port>
			</output>
			<blobs>
				<biases offset="7380832" size="512" />
				<weights offset="7381344" size="262144" />
			</blobs>
		</layer>
		<layer name="relu_p_1" type="ReLU" precision="FP32" id="29">
			<input>
				<port id="0">
					<dim>1</dim>
					<dim>128</dim>
					<dim>2</dim>
					<dim>2</dim>
				</port>
			</input>
			<output>
				<port id="1">
					<dim>1</dim>
					<dim>128</dim>
					<dim>2</dim>
					<dim>2</dim>
				</port>
			</output>
		</layer>
		<layer name="angle_p_fc" type="FullyConnected" precision="FP32" id="30">
			<data out-size="1" quantization_level="FP32" />
			<input>
				<port id="0">
					<dim>1</dim>
					<dim>128</dim>
					<dim>2</dim>
					<dim>2</dim>
				</port>
			</input>
			<output>
				<port id="1">
					<dim>1</dim>
					<dim>1</dim>
				</port>
			</output>
			<blobs>
				<biases offset="7643488" size="4" />
				<weights offset="7643492" size="2048" />
			</blobs>
		</layer>
	</layers>
	<edges>
		<edge from-layer="0" from-port="0" to-layer="1" to-port="0" />
		<edge from-layer="1" from-port="1" to-layer="2" to-port="0" />
		<edge from-layer="2" from-port="1" to-layer="3" to-port="0" />
		<edge from-layer="3" from-port="1" to-layer="4" to-port="0" />
		<edge from-layer="4" from-port="1" to-layer="5" to-port="0" />
		<edge from-layer="5" from-port="1" to-layer="6" to-port="0" />
		<edge from-layer="6" from-port="1" to-layer="7" to-port="0" />
		<edge from-layer="7" from-port="1" to-layer="8" to-port="0" />
		<edge from-layer="8" from-port="1" to-layer="9" to-port="0" />
		<edge from-layer="9" from-port="1" to-layer="10" to-port="0" />
		<edge from-layer="10" from-port="1" to-layer="11" to-port="0" />
		<edge from-layer="11" from-port="1" to-layer="12" to-port="0" />
		<edge from-layer="12" from-port="1" to-layer="13" to-port="0" />
		<edge from-layer="13" from-port="1" to-layer="14" to-port="0" />
		<edge from-layer="14" from-port="1" to-layer="15" to-port="0" />
		<edge from-layer="15" from-port="1" to-layer="16" to-port="0" />
		<edge from-layer="16" from-port="1" to-layer="17" to-port="0" />
		<edge from-layer="17" from-port="1" to-layer="18" to-port="0" />
		<edge from-layer="18" from-port="1" to-layer="19" to-port="0" />
		<edge from-layer="19" from-port="1" to-layer="20" to-port="0" />
		<edge from-layer="20" from-port="1" to-layer="21" to-port="0" />
		<edge from-layer="21" from-port="1" to-layer="28" to-port="0" />
		<edge from-layer="21" from-port="1" to-layer="25" to-port="0" />
		<edge from-layer="21" from-port="1" to-layer="22" to-port="0" />
		<edge from-layer="22" from-port="1" to-layer="23" to-port="0" />
		<edge from-layer="23" from-port="1" to-layer="24" to-port="0" />
		<edge from-layer="25" from-port="1" to-layer="26" to-port="0" />
		<edge from-layer="26" from-port="1" to-layer="27" to-port="0" />
		<edge from-layer="28" from-port="1" to-layer="29" to-port="0" />
		<edge from-layer="29" from-port="1" to-layer="30" to-port="0" />
	</edges>
	<statistics>
		<layer>
			<name>Mul_/Fused_Mul_/FusedScaleShift_</name>
			<min>-2.279965, -1.767808, -0.981326</min>
			<max>10.328615, 13.664273, 14.849474</max>
		</layer>
		<layer>
			<name>Mul_1005/FusedScaleShift_</name>
			<min>… -0.196768</min>
			<max>… 4.275369</max>
		</layer>
		<layer>
			<name>Mul_1011/FusedScaleShift_</name>
			<min>… -0.336987</min>
			<max>… 4.933304</max>
		</layer>
		<layer>
			<name>Mul_1014/FusedScaleShift_</name>
			<min>… -0.410561</min>
			<max>… 5.345335</max>
		</layer>
		<layer>
			<name>Mul_990/FusedScaleShift_</name>
			<min>… -0.503290</min>
			<max>… 5.564388</max>
		</layer>
		<layer>
			<name>Mul_999/FusedScaleShift_</name>
			<min>… -0.289044</min>
			<max>… 13.251246</max>
		</layer>
		<layer>
			<name>angle_p</name>
			<min>… -3.382800</min>
			<max>… 3.700354</max>
		</layer>
		<layer>
			<name>angle_r</name>
			<min>… -2.124023</min>
			<max>… 0.824019</max>
		</layer>
		<layer>
			<name>angle_y</name>
			<min>… -3.929082</min>
			<max>… 2.426277</max>
		</layer>
		<layer>
			<name>conv1</name>
			<min>… -54.070999</min>
			<max>… 72.653099</max>
		</layer>
		<layer>
			<name>conv2</name>
			<min>… -176.221603</min>
			<max>… 31.248329</max>
		</layer>
		<layer>
			<name>conv3</name>
			<min>… -31.467976</min>
			<max>… 7.175532</max>
		</layer>
		<layer>
			<name>conv4</name>
			<min>… -52.855324</min>
			<max>… 34.184925</max>
		</layer>
		<layer>
			<name>conv5</name>
			<min>… -12.821352</min>
			<max>… 3.720380</max>
		</layer>
		<layer>
			<name>conv_fm</name>
			<min>… -4.364171</min>
			<max>… 6.171799</max>
		</layer>
		<layer>
			<name>data</name>
			<min>1.000000, 1.000000, 1.000000</min>
			<max>254.000000, 253.000000, 252.000000</max>
		</layer>
		<layer>
			<name>pool1</name>
			<min>-21.551014, -28.391706, -31.043118, -35.067551, -52.096664, -29.542034, -41.645889, -24.668020, -18.077272, -19.955431, -39.577396, -13.690339, -17.820671, -30.059689, -18.945482, -19.643139</min>
			<max>24.034302, 18.132624, 13.639606, 10.543467, 6.567787, 9.140472, 18.548880, 27.703905, 21.510477, 11.690809, 19.102783, 27.846199, 26.660957, 20.402040, 25.945507, 30.156288</max>
		</layer>
		<layer>
			<name>pool2</name>
			<min>… -0.503290</min>
			<max>… 5.564388</max>
		</layer>
		<layer>
			<name>pool3</name>
			<min>… -17.389690</min>
			<max>… 10.487923</max>
		</layer>
		<layer>
			<name>pool4</name>
			<min>… -0.410561</min>
			<max>… 5.345335</max>
		</layer>
		<layer>
			<name>relu_conv1</name>
			<min>… -0.000000</min>
			<max>… 72.653099</max>
		</layer>
		<layer>
			<name>relu_conv2</name>
			<min>… -0.000000</min>
			<max>… 31.248329</max>
		</layer>
		<layer>
			<name>relu_conv3</name>
			<min>… -0.000000</min>
			<max>… 7.175532</max>
		</layer>
		<layer>
			<name>relu_conv4</name>
			<min>… -0.000000</min>
			<max>… 34.184925</max>
		</layer>
		<layer>
			<name>relu_conv5</name>
			<min>… -0.000000</min>
			<max>… 3.720380</max>
		</layer>
		<layer>
			<name>relu_p_1</name>
			<min>… -0.000000</min>
			<max>… 3.700354</max>
		</layer>
		<layer>
			<name>relu_r_1</name>
			<min>… -0.000000</min>
			<max>… 0.824019</max>
		</layer>
		<layer>
			<name>relu_y_1</name>
			<min>… -0.000000</min>
			<max>… 2.426277</max>
		</layer>
	</statistics>
</net>
