<?xml version="1.0"?>
<net name="ICV-RMNet-PD-ReID-Heavy" version="6" batch="1">
	<layers>
		<layer name="data" type="Input" precision="FP32" id="0">
			<output>
				<port id="0">
					<dim>1</dim>
					<dim>3</dim>
					<dim>384</dim>
					<dim>128</dim>
				</port>
			</output>
		</layer>
		<layer name="Mul_12493/Fused_Mul_/FusedScaleShift_" type="ScaleShift" precision="FP32" id="1">
			<data broadcast="0" />
			<input>
				<port id="0">
					<dim>1</dim>
					<dim>3</dim>
					<dim>384</dim>
					<dim>128</dim>
				</port>
			</input>
			<output>
				<port id="1">
					<dim>1</dim>
					<dim>3</dim>
					<dim>384</dim>
					<dim>128</dim>
				</port>
			</output>
			<blobs>
				<biases offset="0" size="12" />
				<weights offset="12" size="12" />
			</blobs>
		</layer>
		<layer name="init_block1/dim_inc/conv" type="Convolution" precision="FP32" id="2">
			<data dilations="1,1" group="1" kernel="3,3" output="32" pads_begin="1,1" pads_end="1,1" quantization_level="I8" strides="2,2" />
			<input>
				<port id="0">
					<dim>1</dim>
					<dim>3</dim>
					<dim>384</dim>
					<dim>128</dim>
				</port>
			</input>
			<output>
				<port id="1">
					<dim>1</dim>
					<dim>32</dim>
					<dim>192</dim>
					<dim>64</dim>
				</port>
			</output>
			<blobs>
				<biases offset="24" size="128" />
				<weights offset="152" size="3456" />
			</blobs>
		</layer>
		<layer name="init_block1/dim_inc/fn" type="ReLU" precision="FP32" id="3">
			<input>
				<port id="0">
					<dim>1</dim>
					<dim>32</dim>
					<dim>192</dim>
					<dim>64</dim>
				</port>
			</input>
			<output>
				<port id="1">
					<dim>1</dim>
					<dim>32</dim>
					<dim>192</dim>
					<dim>64</dim>
				</port>
			</output>
		</layer>
		<layer name="bottleneck1_1/dim_red/conv" type="Convolution" precision="FP32" id="4">
			<data dilations="1,1" group="1" kernel="1,1" output="8" pads_begin="0,0" pads_end="0,0" quantization_level="I8" strides="1,1" />
			<input>
				<port id="0">
					<dim>1</dim>
					<dim>32</dim>
					<dim>192</dim>
					<dim>64</dim>
				</port>
			</input>
			<output>
				<port id="1">
					<dim>1</dim>
					<dim>8</dim>
					<dim>192</dim>
					<dim>64</dim>
				</port>
			</output>
			<blobs>
				<biases offset="3608" size="32" />
				<weights offset="3640" size="1024" />
			</blobs>
		</layer>
		<layer name="bottleneck1_1/dim_red/fn" type="elu" precision="FP32" id="5">
			<data alpha="1.0" />
			<input>
				<port id="0">
					<dim>1</dim>
					<dim>8</dim>
					<dim>192</dim>
					<dim>64</dim>
				</port>
			</input>
			<output>
				<port id="1">
					<dim>1</dim>
					<dim>8</dim>
					<dim>192</dim>
					<dim>64</dim>
				</port>
			</output>
		</layer>
		<layer name="bottleneck1_1/inner/dw1/conv" type="Convolution" precision="FP32" id="6">
			<data dilations="1,1" group="8" kernel="3,3" output="8" pads_begin="1,1" pads_end="1,1" quantization_level="I8" strides="1,1" />
			<input>
				<port id="0">
					<dim>1</dim>
					<dim>8</dim>
					<dim>192</dim>
					<dim>64</dim>
				</port>
			</input>
			<output>
				<port id="1">
					<dim>1</dim>
					<dim>8</dim>
					<dim>192</dim>
					<dim>64</dim>
				</port>
			</output>
			<blobs>
				<biases offset="4664" size="32" />
				<weights offset="4696" size="288" />
			</blobs>
		</layer>
		<layer name="bottleneck1_1/inner/dw1/fn" type="elu" precision="FP32" id="7">
			<data alpha="1.0" />
			<input>
				<port id="0">
					<dim>1</dim>
					<dim>8</dim>
					<dim>192</dim>
					<dim>64</dim>
				</port>
			</input>
			<output>
				<port id="1">
					<dim>1</dim>
					<dim>8</dim>
					<dim>192</dim>
					<dim>64</dim>
				</port>
			</output>
		</layer>
		<layer name="bottleneck1_1/dim_inc/conv" type="Convolution" precision="FP32" id="8">
			<data dilations="1,1" group="1" kernel="1,1" output="32" pads_begin="0,0" pads_end="0,0" quantization_level="I8" strides="1,1" />
			<input>
				<port id="0">
					<dim>1</dim>
					<dim>8</dim>
					<dim>192</dim>
					<dim>64</dim>
				</port>
			</input>
			<output>
				<port id="1">
					<dim>1</dim>
					<dim>32</dim>
					<dim>192</dim>
					<dim>64</dim>
				</port>
			</output>
			<blobs>
				<biases offset="4984" size="128" />
				<weights offset="5112" size="1024" />
			</blobs>
		</layer>
		<layer name="bottleneck1_1/add" type="Eltwise" precision="FP32" id="9">
			<data operation="sum" />
			<input>
				<port id="0">
					<dim>1</dim>
					<dim>32</dim>
					<dim>192</dim>
					<dim>64</dim>
				</port>
				<port id="1">
					<dim>1</dim>
					<dim>32</dim>
					<dim>192</dim>
					<dim>64</dim>
				</port>
			</input>
			<output>
				<port id="2">
					<dim>1</dim>
					<dim>32</dim>
					<dim>192</dim>
					<dim>64</dim>
				</port>
			</output>
		</layer>
		<layer name="bottleneck1_1/fn" type="elu" precision="FP32" id="10">
			<data alpha="1.0" />
			<input>
				<port id="0">
					<dim>1</dim>
					<dim>32</dim>
					<dim>192</dim>
					<dim>64</dim>
				</port>
			</input>
			<output>
				<port id="1">
					<dim>1</dim>
					<dim>32</dim>
					<dim>192</dim>
					<dim>64</dim>
				</port>
			</output>
		</layer>
		<layer name="bottleneck1_2/dim_red/conv" type="Convolution" precision="FP32" id="11">
			<data dilations="1,1" group="1" kernel="1,1" output="8" pads_begin="0,0" pads_end="0,0" quantization_level="I8" strides="1,1" />
			<input>
				<port id="0">
					<dim>1</dim>
					<dim>32</dim>
					<dim>192</dim>
					<dim>64</dim>
				</port>
			</input>
			<output>
				<port id="1">
					<dim>1</dim>
					<dim>8</dim>
					<dim>192</dim>
					<dim>64</dim>
				</port>
			</output>
			<blobs>
				<biases offset="6136" size="32" />
				<weights offset="6168" size="1024" />
			</blobs>
		</layer>
		<layer name="bottleneck1_2/dim_red/fn" type="elu" precision="FP32" id="12">
			<data alpha="1.0" />
			<input>
				<port id="0">
					<dim>1</dim>
					<dim>8</dim>
					<dim>192</dim>
					<dim>64</dim>
				</port>
			</input>
			<output>
				<port id="1">
					<dim>1</dim>
					<dim>8</dim>
					<dim>192</dim>
					<dim>64</dim>
				</port>
			</output>
		</layer>
		<layer name="bottleneck1_2/inner/dw1/conv" type="Convolution" precision="FP32" id="13">
			<data dilations="1,1" group="8" kernel="3,3" output="8" pads_begin="1,1" pads_end="1,1" quantization_level="I8" strides="1,1" />
			<input>
				<port id="0">
					<dim>1</dim>
					<dim>8</dim>
					<dim>192</dim>
					<dim>64</dim>
				</port>
			</input>
			<output>
				<port id="1">
					<dim>1</dim>
					<dim>8</dim>
					<dim>192</dim>
					<dim>64</dim>
				</port>
			</output>
			<blobs>
				<biases offset="7192" size="32" />
				<weights offset="7224" size="288" />
			</blobs>
		</layer>
		<layer name="bottleneck1_2/inner/dw1/fn" type="elu" precision="FP32" id="14">
			<data alpha="1.0" />
			<input>
				<port id="0">
					<dim>1</dim>
					<dim>8</dim>
					<dim>192</dim>
					<dim>64</dim>
				</port>
			</input>
			<output>
				<port id="1">
					<dim>1</dim>
					<dim>8</dim>
					<dim>192</dim>
					<dim>64</dim>
				</port>
			</output>
		</layer>
		<layer name="bottleneck1_2/dim_inc/conv" type="Convolution" precision="FP32" id="15">
			<data dilations="1,1" group="1" kernel="1,1" output="32" pads_begin="0,0" pads_end="0,0" quantization_level="I8" strides="1,1" />
			<input>
				<port id="0">
					<dim>1</dim>
					<dim>8</dim>
					<dim>192</dim>
					<dim>64</dim>
				</port>
			</input>
			<output>
				<port id="1">
					<dim>1</dim>
					<dim>32</dim>
					<dim>192</dim>
					<dim>64</dim>
				</port>
			</output>
			<blobs>
				<biases offset="7512" size="128" />
				<weights offset="7640" size="1024" />
			</blobs>
		</layer>
		<layer name="bottleneck1_2/add" type="Eltwise" precision="FP32" id="16">
			<data operation="sum" />
			<input>
				<port id="0">
					<dim>1</dim>
					<dim>32</dim>
					<dim>192</dim>
					<dim>64</dim>
				</port>
				<port id="1">
					<dim>1</dim>
					<dim>32</dim>
					<dim>192</dim>
					<dim>64</dim>
				</port>
			</input>
			<output>
				<port id="2">
					<dim>1</dim>
					<dim>32</dim>
					<dim>192</dim>
					<dim>64</dim>
				</port>
			</output>
		</layer>
		<layer name="bottleneck1_2/fn" type="elu" precision="FP32" id="17">
			<data alpha="1.0" />
			<input>
				<port id="0">
					<dim>1</dim>
					<dim>32</dim>
					<dim>192</dim>
					<dim>64</dim>
				</port>
			</input>
			<output>
				<port id="1">
					<dim>1</dim>
					<dim>32</dim>
					<dim>192</dim>
					<dim>64</dim>
				</port>
			</output>
		</layer>
		<layer name="bottleneck1_3/dim_red/conv" type="Convolution" precision="FP32" id="18">
			<data dilations="1,1" group="1" kernel="1,1" output="8" pads_begin="0,0" pads_end="0,0" quantization_level="I8" strides="1,1" />
			<input>
				<port id="0">
					<dim>1</dim>
					<dim>32</dim>
					<dim>192</dim>
					<dim>64</dim>
				</port>
			</input>
			<output>
				<port id="1">
					<dim>1</dim>
					<dim>8</dim>
					<dim>192</dim>
					<dim>64</dim>
				</port>
			</output>
			<blobs>
				<biases offset="8664" size="32" />
				<weights offset="8696" size="1024" />
			</blobs>
		</layer>
		<layer name="bottleneck1_3/dim_red/fn" type="elu" precision="FP32" id="19">
			<data alpha="1.0" />
			<input>
				<port id="0">
					<dim>1</dim>
					<dim>8</dim>
					<dim>192</dim>
					<dim>64</dim>
				</port>
			</input>
			<output>
				<port id="1">
					<dim>1</dim>
					<dim>8</dim>
					<dim>192</dim>
					<dim>64</dim>
				</port>
			</output>
		</layer>
		<layer name="bottleneck1_3/inner/dw1/conv" type="Convolution" precision="FP32" id="20">
			<data dilations="1,1" group="8" kernel="3,3" output="8" pads_begin="1,1" pads_end="1,1" quantization_level="I8" strides="1,1" />
			<input>
				<port id="0">
					<dim>1</dim>
					<dim>8</dim>
					<dim>192</dim>
					<dim>64</dim>
				</port>
			</input>
			<output>
				<port id="1">
					<dim>1</dim>
					<dim>8</dim>
					<dim>192</dim>
					<dim>64</dim>
				</port>
			</output>
			<blobs>
				<biases offset="9720" size="32" />
				<weights offset="9752" size="288" />
			</blobs>
		</layer>
		<layer name="bottleneck1_3/inner/dw1/fn" type="elu" precision="FP32" id="21">
			<data alpha="1.0" />
			<input>
				<port id="0">
					<dim>1</dim>
					<dim>8</dim>
					<dim>192</dim>
					<dim>64</dim>
				</port>
			</input>
			<output>
				<port id="1">
					<dim>1</dim>
					<dim>8</dim>
					<dim>192</dim>
					<dim>64</dim>
				</port>
			</output>
		</layer>
		<layer name="bottleneck1_3/dim_inc/conv" type="Convolution" precision="FP32" id="22">
			<data dilations="1,1" group="1" kernel="1,1" output="32" pads_begin="0,0" pads_end="0,0" quantization_level="I8" strides="1,1" />
			<input>
				<port id="0">
					<dim>1</dim>
					<dim>8</dim>
					<dim>192</dim>
					<dim>64</dim>
				</port>
			</input>
			<output>
				<port id="1">
					<dim>1</dim>
					<dim>32</dim>
					<dim>192</dim>
					<dim>64</dim>
				</port>
			</output>
			<blobs>
				<biases offset="10040" size="128" />
				<weights offset="10168" size="1024" />
			</blobs>
		</layer>
		<layer name="bottleneck1_3/add" type="Eltwise" precision="FP32" id="23">
			<data operation="sum" />
			<input>
				<port id="0">
					<dim>1</dim>
					<dim>32</dim>
					<dim>192</dim>
					<dim>64</dim>
				</port>
				<port id="1">
					<dim>1</dim>
					<dim>32</dim>
					<dim>192</dim>
					<dim>64</dim>
				</port>
			</input>
			<output>
				<port id="2">
					<dim>1</dim>
					<dim>32</dim>
					<dim>192</dim>
					<dim>64</dim>
				</port>
			</output>
		</layer>
		<layer name="bottleneck1_3/fn" type="elu" precision="FP32" id="24">
			<data alpha="1.0" />
			<input>
				<port id="0">
					<dim>1</dim>
					<dim>32</dim>
					<dim>192</dim>
					<dim>64</dim>
				</port>
			</input>
			<output>
				<port id="1">
					<dim>1</dim>
					<dim>32</dim>
					<dim>192</dim>
					<dim>64</dim>
				</port>
			</output>
		</layer>
		<layer name="bottleneck1_4/dim_red/conv" type="Convolution" precision="FP32" id="25">
			<data dilations="1,1" group="1" kernel="1,1" output="8" pads_begin="0,0" pads_end="0,0" quantization_level="I8" strides="1,1" />
			<input>
				<port id="0">
					<dim>1</dim>
					<dim>32</dim>
					<dim>192</dim>
					<dim>64</dim>
				</port>
			</input>
			<output>
				<port id="1">
					<dim>1</dim>
					<dim>8</dim>
					<dim>192</dim>
					<dim>64</dim>
				</port>
			</output>
			<blobs>
				<biases offset="11192" size="32" />
				<weights offset="11224" size="1024" />
			</blobs>
		</layer>
		<layer name="bottleneck1_4/dim_red/fn" type="elu" precision="FP32" id="26">
			<data alpha="1.0" />
			<input>
				<port id="0">
					<dim>1</dim>
					<dim>8</dim>
					<dim>192</dim>
					<dim>64</dim>
				</port>
			</input>
			<output>
				<port id="1">
					<dim>1</dim>
					<dim>8</dim>
					<dim>192</dim>
					<dim>64</dim>
				</port>
			</output>
		</layer>
		<layer name="bottleneck1_4/inner/dw1/conv" type="Convolution" precision="FP32" id="27">
			<data dilations="1,1" group="8" kernel="3,3" output="8" pads_begin="1,1" pads_end="1,1" quantization_level="I8" strides="1,1" />
			<input>
				<port id="0">
					<dim>1</dim>
					<dim>8</dim>
					<dim>192</dim>
					<dim>64</dim>
				</port>
			</input>
			<output>
				<port id="1">
					<dim>1</dim>
					<dim>8</dim>
					<dim>192</dim>
					<dim>64</dim>
				</port>
			</output>
			<blobs>
				<biases offset="12248" size="32" />
				<weights offset="12280" size="288" />
			</blobs>
		</layer>
		<layer name="bottleneck1_4/inner/dw1/fn" type="elu" precision="FP32" id="28">
			<data alpha="1.0" />
			<input>
				<port id="0">
					<dim>1</dim>
					<dim>8</dim>
					<dim>192</dim>
					<dim>64</dim>
				</port>
			</input>
			<output>
				<port id="1">
					<dim>1</dim>
					<dim>8</dim>
					<dim>192</dim>
					<dim>64</dim>
				</port>
			</output>
		</layer>
		<layer name="bottleneck1_4/dim_inc/conv" type="Convolution" precision="FP32" id="29">
			<data dilations="1,1" group="1" kernel="1,1" output="32" pads_begin="0,0" pads_end="0,0" quantization_level="I8" strides="1,1" />
			<input>
				<port id="0">
					<dim>1</dim>
					<dim>8</dim>
					<dim>192</dim>
					<dim>64</dim>
				</port>
			</input>
			<output>
				<port id="1">
					<dim>1</dim>
					<dim>32</dim>
					<dim>192</dim>
					<dim>64</dim>
				</port>
			</output>
			<blobs>
				<biases offset="12568" size="128" />
				<weights offset="12696" size="1024" />
			</blobs>
		</layer>
		<layer name="bottleneck1_4/add" type="Eltwise" precision="FP32" id="30">
			<data operation="sum" />
			<input>
				<port id="0">
					<dim>1</dim>
					<dim>32</dim>
					<dim>192</dim>
					<dim>64</dim>
				</port>
				<port id="1">
					<dim>1</dim>
					<dim>32</dim>
					<dim>192</dim>
					<dim>64</dim>
				</port>
			</input>
			<output>
				<port id="2">
					<dim>1</dim>
					<dim>32</dim>
					<dim>192</dim>
					<dim>64</dim>
				</port>
			</output>
		</layer>
		<layer name="bottleneck1_4/fn" type="elu" precision="FP32" id="31">
			<data alpha="1.0" />
			<input>
				<port id="0">
					<dim>1</dim>
					<dim>32</dim>
					<dim>192</dim>
					<dim>64</dim>
				</port>
			</input>
			<output>
				<port id="1">
					<dim>1</dim>
					<dim>32</dim>
					<dim>192</dim>
					<dim>64</dim>
				</port>
			</output>
		</layer>
		<layer name="bottleneck2_0/skip/pooling" type="Pooling" precision="FP32" id="32">
			<data exclude-pad="true" kernel="2,2" pads_begin="0,0" pads_end="0,0" pool-method="max" rounding_type="ceil" strides="2,2" />
			<input>
				<port id="0">
					<dim>1</dim>
					<dim>32</dim>
					<dim>192</dim>
					<dim>64</dim>
				</port>
			</input>
			<output>
				<port id="1">
					<dim>1</dim>
					<dim>32</dim>
					<dim>96</dim>
					<dim>32</dim>
				</port>
			</output>
		</layer>
		<layer name="bottleneck2_0/skip/conv" type="Convolution" precision="FP32" id="33">
			<data dilations="1,1" group="1" kernel="1,1" output="64" pads_begin="0,0" pads_end="0,0" quantization_level="I8" strides="1,1" />
			<input>
				<port id="0">
					<dim>1</dim>
					<dim>32</dim>
					<dim>96</dim>
					<dim>32</dim>
				</port>
			</input>
			<output>
				<port id="1">
					<dim>1</dim>
					<dim>64</dim>
					<dim>96</dim>
					<dim>32</dim>
				</port>
			</output>
			<blobs>
				<biases offset="13720" size="256" />
				<weights offset="13976" size="8192" />
			</blobs>
		</layer>
		<layer name="bottleneck2_0/dim_red/conv" type="Convolution" precision="FP32" id="34">
			<data dilations="1,1" group="1" kernel="1,1" output="16" pads_begin="0,0" pads_end="0,0" quantization_level="I8" strides="1,1" />
			<input>
				<port id="0">
					<dim>1</dim>
					<dim>32</dim>
					<dim>192</dim>
					<dim>64</dim>
				</port>
			</input>
			<output>
				<port id="1">
					<dim>1</dim>
					<dim>16</dim>
					<dim>192</dim>
					<dim>64</dim>
				</port>
			</output>
			<blobs>
				<biases offset="22168" size="64" />
				<weights offset="22232" size="2048" />
			</blobs>
		</layer>
		<layer name="bottleneck2_0/dim_red/fn" type="elu" precision="FP32" id="35">
			<data alpha="1.0" />
			<input>
				<port id="0">
					<dim>1</dim>
					<dim>16</dim>
					<dim>192</dim>
					<dim>64</dim>
				</port>
			</input>
			<output>
				<port id="1">
					<dim>1</dim>
					<dim>16</dim>
					<dim>192</dim>
					<dim>64</dim>
				</port>
			</output>
		</layer>
		<layer name="bottleneck2_0/inner/dw1/conv" type="Convolution" precision="FP32" id="36">
			<data dilations="1,1" group="16" kernel="3,3" output="16" pads_begin="1,1" pads_end="1,1" quantization_level="I8" strides="2,2" />
			<input>
				<port id="0">
					<dim>1</dim>
					<dim>16</dim>
					<dim>192</dim>
					<dim>64</dim>
				</port>
			</input>
			<output>
				<port id="1">
					<dim>1</dim>
					<dim>16</dim>
					<dim>96</dim>
					<dim>32</dim>
				</port>
			</output>
			<blobs>
				<biases offset="24280" size="64" />
				<weights offset="24344" size="576" />
			</blobs>
		</layer>
		<layer name="bottleneck2_0/inner/dw1/fn" type="elu" precision="FP32" id="37">
			<data alpha="1.0" />
			<input>
				<port id="0">
					<dim>1</dim>
					<dim>16</dim>
					<dim>96</dim>
					<dim>32</dim>
				</port>
			</input>
			<output>
				<port id="1">
					<dim>1</dim>
					<dim>16</dim>
					<dim>96</dim>
					<dim>32</dim>
				</port>
			</output>
		</layer>
		<layer name="bottleneck2_0/dim_inc/conv" type="Convolution" precision="FP32" id="38">
			<data dilations="1,1" group="1" kernel="1,1" output="64" pads_begin="0,0" pads_end="0,0" quantization_level="I8" strides="1,1" />
			<input>
				<port id="0">
					<dim>1</dim>
					<dim>16</dim>
					<dim>96</dim>
					<dim>32</dim>
				</port>
			</input>
			<output>
				<port id="1">
					<dim>1</dim>
					<dim>64</dim>
					<dim>96</dim>
					<dim>32</dim>
				</port>
			</output>
			<blobs>
				<biases offset="24920" size="256" />
				<weights offset="25176" size="4096" />
			</blobs>
		</layer>
		<layer name="bottleneck2_0/add" type="Eltwise" precision="FP32" id="39">
			<data operation="sum" />
			<input>
				<port id="0">
					<dim>1</dim>
					<dim>64</dim>
					<dim>96</dim>
					<dim>32</dim>
				</port>
				<port id="1">
					<dim>1</dim>
					<dim>64</dim>
					<dim>96</dim>
					<dim>32</dim>
				</port>
			</input>
			<output>
				<port id="2">
					<dim>1</dim>
					<dim>64</dim>
					<dim>96</dim>
					<dim>32</dim>
				</port>
			</output>
		</layer>
		<layer name="bottleneck2_0/fn" type="elu" precision="FP32" id="40">
			<data alpha="1.0" />
			<input>
				<port id="0">
					<dim>1</dim>
					<dim>64</dim>
					<dim>96</dim>
					<dim>32</dim>
				</port>
			</input>
			<output>
				<port id="1">
					<dim>1</dim>
					<dim>64</dim>
					<dim>96</dim>
					<dim>32</dim>
				</port>
			</output>
		</layer>
		<layer name="bottleneck2_1/dim_red/conv" type="Convolution" precision="FP32" id="41">
			<data dilations="1,1" group="1" kernel="1,1" output="16" pads_begin="0,0" pads_end="0,0" quantization_level="I8" strides="1,1" />
			<input>
				<port id="0">
					<dim>1</dim>
					<dim>64</dim>
					<dim>96</dim>
					<dim>32</dim>
				</port>
			</input>
			<output>
				<port id="1">
					<dim>1</dim>
					<dim>16</dim>
					<dim>96</dim>
					<dim>32</dim>
				</port>
			</output>
			<blobs>
				<biases offset="29272" size="64" />
				<weights offset="29336" size="4096" />
			</blobs>
		</layer>
		<layer name="bottleneck2_1/dim_red/fn" type="elu" precision="FP32" id="42">
			<data alpha="1.0" />
			<input>
				<port id="0">
					<dim>1</dim>
					<dim>16</dim>
					<dim>96</dim>
					<dim>32</dim>
				</port>
			</input>
			<output>
				<port id="1">
					<dim>1</dim>
					<dim>16</dim>
					<dim>96</dim>
					<dim>32</dim>
				</port>
			</output>
		</layer>
		<layer name="bottleneck2_1/inner/dw1/conv" type="Convolution" precision="FP32" id="43">
			<data dilations="1,1" group="16" kernel="3,3" output="16" pads_begin="1,1" pads_end="1,1" quantization_level="I8" strides="1,1" />
			<input>
				<port id="0">
					<dim>1</dim>
					<dim>16</dim>
					<dim>96</dim>
					<dim>32</dim>
				</port>
			</input>
			<output>
				<port id="1">
					<dim>1</dim>
					<dim>16</dim>
					<dim>96</dim>
					<dim>32</dim>
				</port>
			</output>
			<blobs>
				<biases offset="33432" size="64" />
				<weights offset="33496" size="576" />
			</blobs>
		</layer>
		<layer name="bottleneck2_1/inner/dw1/fn" type="elu" precision="FP32" id="44">
			<data alpha="1.0" />
			<input>
				<port id="0">
					<dim>1</dim>
					<dim>16</dim>
					<dim>96</dim>
					<dim>32</dim>
				</port>
			</input>
			<output>
				<port id="1">
					<dim>1</dim>
					<dim>16</dim>
					<dim>96</dim>
					<dim>32</dim>
				</port>
			</output>
		</layer>
		<layer name="bottleneck2_1/dim_inc/conv" type="Convolution" precision="FP32" id="45">
			<data dilations="1,1" group="1" kernel="1,1" output="64" pads_begin="0,0" pads_end="0,0" quantization_level="I8" strides="1,1" />
			<input>
				<port id="0">
					<dim>1</dim>
					<dim>16</dim>
					<dim>96</dim>
					<dim>32</dim>
				</port>
			</input>
			<output>
				<port id="1">
					<dim>1</dim>
					<dim>64</dim>
					<dim>96</dim>
					<dim>32</dim>
				</port>
			</output>
			<blobs>
				<biases offset="34072" size="256" />
				<weights offset="34328" size="4096" />
			</blobs>
		</layer>
		<layer name="bottleneck2_1/add" type="Eltwise" precision="FP32" id="46">
			<data operation="sum" />
			<input>
				<port id="0">
					<dim>1</dim>
					<dim>64</dim>
					<dim>96</dim>
					<dim>32</dim>
				</port>
				<port id="1">
					<dim>1</dim>
					<dim>64</dim>
					<dim>96</dim>
					<dim>32</dim>
				</port>
			</input>
			<output>
				<port id="2">
					<dim>1</dim>
					<dim>64</dim>
					<dim>96</dim>
					<dim>32</dim>
				</port>
			</output>
		</layer>
		<layer name="bottleneck2_1/fn" type="elu" precision="FP32" id="47">
			<data alpha="1.0" />
			<input>
				<port id="0">
					<dim>1</dim>
					<dim>64</dim>
					<dim>96</dim>
					<dim>32</dim>
				</port>
			</input>
			<output>
				<port id="1">
					<dim>1</dim>
					<dim>64</dim>
					<dim>96</dim>
					<dim>32</dim>
				</port>
			</output>
		</layer>
		<layer name="bottleneck2_2/dim_red/conv" type="Convolution" precision="FP32" id="48">
			<data dilations="1,1" group="1" kernel="1,1" output="16" pads_begin="0,0" pads_end="0,0" quantization_level="I8" strides="1,1" />
			<input>
				<port id="0">
					<dim>1</dim>
					<dim>64</dim>
					<dim>96</dim>
					<dim>32</dim>
				</port>
			</input>
			<output>
				<port id="1">
					<dim>1</dim>
					<dim>16</dim>
					<dim>96</dim>
					<dim>32</dim>
				</port>
			</output>
			<blobs>
				<biases offset="38424" size="64" />
				<weights offset="38488" size="4096" />
			</blobs>
		</layer>
		<layer name="bottleneck2_2/dim_red/fn" type="elu" precision="FP32" id="49">
			<data alpha="1.0" />
			<input>
				<port id="0">
					<dim>1</dim>
					<dim>16</dim>
					<dim>96</dim>
					<dim>32</dim>
				</port>
			</input>
			<output>
				<port id="1">
					<dim>1</dim>
					<dim>16</dim>
					<dim>96</dim>
					<dim>32</dim>
				</port>
			</output>
		</layer>
		<layer name="bottleneck2_2/inner/dw1/conv" type="Convolution" precision="FP32" id="50">
			<data dilations="1,1" group="16" kernel="3,3" output="16" pads_begin="1,1" pads_end="1,1" quantization_level="I8" strides="1,1" />
			<input>
				<port id="0">
					<dim>1</dim>
					<dim>16</dim>
					<dim>96</dim>
					<dim>32</dim>
				</port>
			</input>
			<output>
				<port id="1">
					<dim>1</dim>
					<dim>16</dim>
					<dim>96</dim>
					<dim>32</dim>
				</port>
			</output>
			<blobs>
				<biases offset="42584" size="64" />
				<weights offset="42648" size="576" />
			</blobs>
		</layer>
		<layer name="bottleneck2_2/inner/dw1/fn" type="elu" precision="FP32" id="51">
			<data alpha="1.0" />
			<input>
				<port id="0">
					<dim>1</dim>
					<dim>16</dim>
					<dim>96</dim>
					<dim>32</dim>
				</port>
			</input>
			<output>
				<port id="1">
					<dim>1</dim>
					<dim>16</dim>
					<dim>96</dim>
					<dim>32</dim>
				</port>
			</output>
		</layer>
		<layer name="bottleneck2_2/dim_inc/conv" type="Convolution" precision="FP32" id="52">
			<data dilations="1,1" group="1" kernel="1,1" output="64" pads_begin="0,0" pads_end="0,0" quantization_level="I8" strides="1,1" />
			<input>
				<port id="0">
					<dim>1</dim>
					<dim>16</dim>
					<dim>96</dim>
					<dim>32</dim>
				</port>
			</input>
			<output>
				<port id="1">
					<dim>1</dim>
					<dim>64</dim>
					<dim>96</dim>
					<dim>32</dim>
				</port>
			</output>
			<blobs>
				<biases offset="43224" size="256" />
				<weights offset="43480" size="4096" />
			</blobs>
		</layer>
		<layer name="bottleneck2_2/add" type="Eltwise" precision="FP32" id="53">
			<data operation="sum" />
			<input>
				<port id="0">
					<dim>1</dim>
					<dim>64</dim>
					<dim>96</dim>
					<dim>32</dim>
				</port>
				<port id="1">
					<dim>1</dim>
					<dim>64</dim>
					<dim>96</dim>
					<dim>32</dim>
				</port>
			</input>
			<output>
				<port id="2">
					<dim>1</dim>
					<dim>64</dim>
					<dim>96</dim>
					<dim>32</dim>
				</port>
			</output>
		</layer>
		<layer name="bottleneck2_2/fn" type="elu" precision="FP32" id="54">
			<data alpha="1.0" />
			<input>
				<port id="0">
					<dim>1</dim>
					<dim>64</dim>
					<dim>96</dim>
					<dim>32</dim>
				</port>
			</input>
			<output>
				<port id="1">
					<dim>1</dim>
					<dim>64</dim>
					<dim>96</dim>
					<dim>32</dim>
				</port>
			</output>
		</layer>
		<layer name="bottleneck2_3/dim_red/conv" type="Convolution" precision="FP32" id="55">
			<data dilations="1,1" group="1" kernel="1,1" output="16" pads_begin="0,0" pads_end="0,0" quantization_level="I8" strides="1,1" />
			<input>
				<port id="0">
					<dim>1</dim>
					<dim>64</dim>
					<dim>96</dim>
					<dim>32</dim>
				</port>
			</input>
			<output>
				<port id="1">
					<dim>1</dim>
					<dim>16</dim>
					<dim>96</dim>
					<dim>32</dim>
				</port>
			</output>
			<blobs>
				<biases offset="47576" size="64" />
				<weights offset="47640" size="4096" />
			</blobs>
		</layer>
		<layer name="bottleneck2_3/dim_red/fn" type="elu" precision="FP32" id="56">
			<data alpha="1.0" />
			<input>
				<port id="0">
					<dim>1</dim>
					<dim>16</dim>
					<dim>96</dim>
					<dim>32</dim>
				</port>
			</input>
			<output>
				<port id="1">
					<dim>1</dim>
					<dim>16</dim>
					<dim>96</dim>
					<dim>32</dim>
				</port>
			</output>
		</layer>
		<layer name="bottleneck2_3/inner/dw1/conv" type="Convolution" precision="FP32" id="57">
			<data dilations="1,1" group="16" kernel="3,3" output="16" pads_begin="1,1" pads_end="1,1" quantization_level="I8" strides="1,1" />
			<input>
				<port id="0">
					<dim>1</dim>
					<dim>16</dim>
					<dim>96</dim>
					<dim>32</dim>
				</port>
			</input>
			<output>
				<port id="1">
					<dim>1</dim>
					<dim>16</dim>
					<dim>96</dim>
					<dim>32</dim>
				</port>
			</output>
			<blobs>
				<biases offset="51736" size="64" />
				<weights offset="51800" size="576" />
			</blobs>
		</layer>
		<layer name="bottleneck2_3/inner/dw1/fn" type="elu" precision="FP32" id="58">
			<data alpha="1.0" />
			<input>
				<port id="0">
					<dim>1</dim>
					<dim>16</dim>
					<dim>96</dim>
					<dim>32</dim>
				</port>
			</input>
			<output>
				<port id="1">
					<dim>1</dim>
					<dim>16</dim>
					<dim>96</dim>
					<dim>32</dim>
				</port>
			</output>
		</layer>
		<layer name="bottleneck2_3/dim_inc/conv" type="Convolution" precision="FP32" id="59">
			<data dilations="1,1" group="1" kernel="1,1" output="64" pads_begin="0,0" pads_end="0,0" quantization_level="I8" strides="1,1" />
			<input>
				<port id="0">
					<dim>1</dim>
					<dim>16</dim>
					<dim>96</dim>
					<dim>32</dim>
				</port>
			</input>
			<output>
				<port id="1">
					<dim>1</dim>
					<dim>64</dim>
					<dim>96</dim>
					<dim>32</dim>
				</port>
			</output>
			<blobs>
				<biases offset="52376" size="256" />
				<weights offset="52632" size="4096" />
			</blobs>
		</layer>
		<layer name="bottleneck2_3/add" type="Eltwise" precision="FP32" id="60">
			<data operation="sum" />
			<input>
				<port id="0">
					<dim>1</dim>
					<dim>64</dim>
					<dim>96</dim>
					<dim>32</dim>
				</port>
				<port id="1">
					<dim>1</dim>
					<dim>64</dim>
					<dim>96</dim>
					<dim>32</dim>
				</port>
			</input>
			<output>
				<port id="2">
					<dim>1</dim>
					<dim>64</dim>
					<dim>96</dim>
					<dim>32</dim>
				</port>
			</output>
		</layer>
		<layer name="bottleneck2_3/fn" type="elu" precision="FP32" id="61">
			<data alpha="1.0" />
			<input>
				<port id="0">
					<dim>1</dim>
					<dim>64</dim>
					<dim>96</dim>
					<dim>32</dim>
				</port>
			</input>
			<output>
				<port id="1">
					<dim>1</dim>
					<dim>64</dim>
					<dim>96</dim>
					<dim>32</dim>
				</port>
			</output>
		</layer>
		<layer name="bottleneck2_4/dim_red/conv" type="Convolution" precision="FP32" id="62">
			<data dilations="1,1" group="1" kernel="1,1" output="16" pads_begin="0,0" pads_end="0,0" quantization_level="I8" strides="1,1" />
			<input>
				<port id="0">
					<dim>1</dim>
					<dim>64</dim>
					<dim>96</dim>
					<dim>32</dim>
				</port>
			</input>
			<output>
				<port id="1">
					<dim>1</dim>
					<dim>16</dim>
					<dim>96</dim>
					<dim>32</dim>
				</port>
			</output>
			<blobs>
				<biases offset="56728" size="64" />
				<weights offset="56792" size="4096" />
			</blobs>
		</layer>
		<layer name="bottleneck2_4/dim_red/fn" type="elu" precision="FP32" id="63">
			<data alpha="1.0" />
			<input>
				<port id="0">
					<dim>1</dim>
					<dim>16</dim>
					<dim>96</dim>
					<dim>32</dim>
				</port>
			</input>
			<output>
				<port id="1">
					<dim>1</dim>
					<dim>16</dim>
					<dim>96</dim>
					<dim>32</dim>
				</port>
			</output>
		</layer>
		<layer name="bottleneck2_4/inner/dw1/conv" type="Convolution" precision="FP32" id="64">
			<data dilations="1,1" group="16" kernel="3,3" output="16" pads_begin="1,1" pads_end="1,1" quantization_level="I8" strides="1,1" />
			<input>
				<port id="0">
					<dim>1</dim>
					<dim>16</dim>
					<dim>96</dim>
					<dim>32</dim>
				</port>
			</input>
			<output>
				<port id="1">
					<dim>1</dim>
					<dim>16</dim>
					<dim>96</dim>
					<dim>32</dim>
				</port>
			</output>
			<blobs>
				<biases offset="60888" size="64" />
				<weights offset="60952" size="576" />
			</blobs>
		</layer>
		<layer name="bottleneck2_4/inner/dw1/fn" type="elu" precision="FP32" id="65">
			<data alpha="1.0" />
			<input>
				<port id="0">
					<dim>1</dim>
					<dim>16</dim>
					<dim>96</dim>
					<dim>32</dim>
				</port>
			</input>
			<output>
				<port id="1">
					<dim>1</dim>
					<dim>16</dim>
					<dim>96</dim>
					<dim>32</dim>
				</port>
			</output>
		</layer>
		<layer name="bottleneck2_4/dim_inc/conv" type="Convolution" precision="FP32" id="66">
			<data dilations="1,1" group="1" kernel="1,1" output="64" pads_begin="0,0" pads_end="0,0" quantization_level="I8" strides="1,1" />
			<input>
				<port id="0">
					<dim>1</dim>
					<dim>16</dim>
					<dim>96</dim>
					<dim>32</dim>
				</port>
			</input>
			<output>
				<port id="1">
					<dim>1</dim>
					<dim>64</dim>
					<dim>96</dim>
					<dim>32</dim>
				</port>
			</output>
			<blobs>
				<biases offset="61528" size="256" />
				<weights offset="61784" size="4096" />
			</blobs>
		</layer>
		<layer name="bottleneck2_4/add" type="Eltwise" precision="FP32" id="67">
			<data operation="sum" />
			<input>
				<port id="0">
					<dim>1</dim>
					<dim>64</dim>
					<dim>96</dim>
					<dim>32</dim>
				</port>
				<port id="1">
					<dim>1</dim>
					<dim>64</dim>
					<dim>96</dim>
					<dim>32</dim>
				</port>
			</input>
			<output>
				<port id="2">
					<dim>1</dim>
					<dim>64</dim>
					<dim>96</dim>
					<dim>32</dim>
				</port>
			</output>
		</layer>
		<layer name="bottleneck2_4/fn" type="elu" precision="FP32" id="68">
			<data alpha="1.0" />
			<input>
				<port id="0">
					<dim>1</dim>
					<dim>64</dim>
					<dim>96</dim>
					<dim>32</dim>
				</port>
			</input>
			<output>
				<port id="1">
					<dim>1</dim>
					<dim>64</dim>
					<dim>96</dim>
					<dim>32</dim>
				</port>
			</output>
		</layer>
		<layer name="bottleneck2_5/dim_red/conv" type="Convolution" precision="FP32" id="69">
			<data dilations="1,1" group="1" kernel="1,1" output="16" pads_begin="0,0" pads_end="0,0" quantization_level="I8" strides="1,1" />
			<input>
				<port id="0">
					<dim>1</dim>
					<dim>64</dim>
					<dim>96</dim>
					<dim>32</dim>
				</port>
			</input>
			<output>
				<port id="1">
					<dim>1</dim>
					<dim>16</dim>
					<dim>96</dim>
					<dim>32</dim>
				</port>
			</output>
			<blobs>
				<biases offset="65880" size="64" />
				<weights offset="65944" size="4096" />
			</blobs>
		</layer>
		<layer name="bottleneck2_5/dim_red/fn" type="elu" precision="FP32" id="70">
			<data alpha="1.0" />
			<input>
				<port id="0">
					<dim>1</dim>
					<dim>16</dim>
					<dim>96</dim>
					<dim>32</dim>
				</port>
			</input>
			<output>
				<port id="1">
					<dim>1</dim>
					<dim>16</dim>
					<dim>96</dim>
					<dim>32</dim>
				</port>
			</output>
		</layer>
		<layer name="bottleneck2_5/inner/dw1/conv" type="Convolution" precision="FP32" id="71">
			<data dilations="1,1" group="16" kernel="3,3" output="16" pads_begin="1,1" pads_end="1,1" quantization_level="I8" strides="1,1" />
			<input>
				<port id="0">
					<dim>1</dim>
					<dim>16</dim>
					<dim>96</dim>
					<dim>32</dim>
				</port>
			</input>
			<output>
				<port id="1">
					<dim>1</dim>
					<dim>16</dim>
					<dim>96</dim>
					<dim>32</dim>
				</port>
			</output>
			<blobs>
				<biases offset="70040" size="64" />
				<weights offset="70104" size="576" />
			</blobs>
		</layer>
		<layer name="bottleneck2_5/inner/dw1/fn" type="elu" precision="FP32" id="72">
			<data alpha="1.0" />
			<input>
				<port id="0">
					<dim>1</dim>
					<dim>16</dim>
					<dim>96</dim>
					<dim>32</dim>
				</port>
			</input>
			<output>
				<port id="1">
					<dim>1</dim>
					<dim>16</dim>
					<dim>96</dim>
					<dim>32</dim>
				</port>
			</output>
		</layer>
		<layer name="bottleneck2_5/dim_inc/conv" type="Convolution" precision="FP32" id="73">
			<data dilations="1,1" group="1" kernel="1,1" output="64" pads_begin="0,0" pads_end="0,0" quantization_level="I8" strides="1,1" />
			<input>
				<port id="0">
					<dim>1</dim>
					<dim>16</dim>
					<dim>96</dim>
					<dim>32</dim>
				</port>
			</input>
			<output>
				<port id="1">
					<dim>1</dim>
					<dim>64</dim>
					<dim>96</dim>
					<dim>32</dim>
				</port>
			</output>
			<blobs>
				<biases offset="70680" size="256" />
				<weights offset="70936" size="4096" />
			</blobs>
		</layer>
		<layer name="bottleneck2_5/add" type="Eltwise" precision="FP32" id="74">
			<data operation="sum" />
			<input>
				<port id="0">
					<dim>1</dim>
					<dim>64</dim>
					<dim>96</dim>
					<dim>32</dim>
				</port>
				<port id="1">
					<dim>1</dim>
					<dim>64</dim>
					<dim>96</dim>
					<dim>32</dim>
				</port>
			</input>
			<output>
				<port id="2">
					<dim>1</dim>
					<dim>64</dim>
					<dim>96</dim>
					<dim>32</dim>
				</port>
			</output>
		</layer>
		<layer name="bottleneck2_5/fn" type="elu" precision="FP32" id="75">
			<data alpha="1.0" />
			<input>
				<port id="0">
					<dim>1</dim>
					<dim>64</dim>
					<dim>96</dim>
					<dim>32</dim>
				</port>
			</input>
			<output>
				<port id="1">
					<dim>1</dim>
					<dim>64</dim>
					<dim>96</dim>
					<dim>32</dim>
				</port>
			</output>
		</layer>
		<layer name="bottleneck2_6/dim_red/conv" type="Convolution" precision="FP32" id="76">
			<data dilations="1,1" group="1" kernel="1,1" output="16" pads_begin="0,0" pads_end="0,0" quantization_level="I8" strides="1,1" />
			<input>
				<port id="0">
					<dim>1</dim>
					<dim>64</dim>
					<dim>96</dim>
					<dim>32</dim>
				</port>
			</input>
			<output>
				<port id="1">
					<dim>1</dim>
					<dim>16</dim>
					<dim>96</dim>
					<dim>32</dim>
				</port>
			</output>
			<blobs>
				<biases offset="75032" size="64" />
				<weights offset="75096" size="4096" />
			</blobs>
		</layer>
		<layer name="bottleneck2_6/dim_red/fn" type="elu" precision="FP32" id="77">
			<data alpha="1.0" />
			<input>
				<port id="0">
					<dim>1</dim>
					<dim>16</dim>
					<dim>96</dim>
					<dim>32</dim>
				</port>
			</input>
			<output>
				<port id="1">
					<dim>1</dim>
					<dim>16</dim>
					<dim>96</dim>
					<dim>32</dim>
				</port>
			</output>
		</layer>
		<layer name="bottleneck2_6/inner/dw1/conv" type="Convolution" precision="FP32" id="78">
			<data dilations="1,1" group="16" kernel="3,3" output="16" pads_begin="1,1" pads_end="1,1" quantization_level="I8" strides="1,1" />
			<input>
				<port id="0">
					<dim>1</dim>
					<dim>16</dim>
					<dim>96</dim>
					<dim>32</dim>
				</port>
			</input>
			<output>
				<port id="1">
					<dim>1</dim>
					<dim>16</dim>
					<dim>96</dim>
					<dim>32</dim>
				</port>
			</output>
			<blobs>
				<biases offset="79192" size="64" />
				<weights offset="79256" size="576" />
			</blobs>
		</layer>
		<layer name="bottleneck2_6/inner/dw1/fn" type="elu" precision="FP32" id="79">
			<data alpha="1.0" />
			<input>
				<port id="0">
					<dim>1</dim>
					<dim>16</dim>
					<dim>96</dim>
					<dim>32</dim>
				</port>
			</input>
			<output>
				<port id="1">
					<dim>1</dim>
					<dim>16</dim>
					<dim>96</dim>
					<dim>32</dim>
				</port>
			</output>
		</layer>
		<layer name="bottleneck2_6/dim_inc/conv" type="Convolution" precision="FP32" id="80">
			<data dilations="1,1" group="1" kernel="1,1" output="64" pads_begin="0,0" pads_end="0,0" quantization_level="I8" strides="1,1" />
			<input>
				<port id="0">
					<dim>1</dim>
					<dim>16</dim>
					<dim>96</dim>
					<dim>32</dim>
				</port>
			</input>
			<output>
				<port id="1">
					<dim>1</dim>
					<dim>64</dim>
					<dim>96</dim>
					<dim>32</dim>
				</port>
			</output>
			<blobs>
				<biases offset="79832" size="256" />
				<weights offset="80088" size="4096" />
			</blobs>
		</layer>
		<layer name="bottleneck2_6/add" type="Eltwise" precision="FP32" id="81">
			<data operation="sum" />
			<input>
				<port id="0">
					<dim>1</dim>
					<dim>64</dim>
					<dim>96</dim>
					<dim>32</dim>
				</port>
				<port id="1">
					<dim>1</dim>
					<dim>64</dim>
					<dim>96</dim>
					<dim>32</dim>
				</port>
			</input>
			<output>
				<port id="2">
					<dim>1</dim>
					<dim>64</dim>
					<dim>96</dim>
					<dim>32</dim>
				</port>
			</output>
		</layer>
		<layer name="bottleneck2_6/fn" type="elu" precision="FP32" id="82">
			<data alpha="1.0" />
			<input>
				<port id="0">
					<dim>1</dim>
					<dim>64</dim>
					<dim>96</dim>
					<dim>32</dim>
				</port>
			</input>
			<output>
				<port id="1">
					<dim>1</dim>
					<dim>64</dim>
					<dim>96</dim>
					<dim>32</dim>
				</port>
			</output>
		</layer>
		<layer name="bottleneck2_7/dim_red/conv" type="Convolution" precision="FP32" id="83">
			<data dilations="1,1" group="1" kernel="1,1" output="16" pads_begin="0,0" pads_end="0,0" quantization_level="I8" strides="1,1" />
			<input>
				<port id="0">
					<dim>1</dim>
					<dim>64</dim>
					<dim>96</dim>
					<dim>32</dim>
				</port>
			</input>
			<output>
				<port id="1">
					<dim>1</dim>
					<dim>16</dim>
					<dim>96</dim>
					<dim>32</dim>
				</port>
			</output>
			<blobs>
				<biases offset="84184" size="64" />
				<weights offset="84248" size="4096" />
			</blobs>
		</layer>
		<layer name="bottleneck2_7/dim_red/fn" type="elu" precision="FP32" id="84">
			<data alpha="1.0" />
			<input>
				<port id="0">
					<dim>1</dim>
					<dim>16</dim>
					<dim>96</dim>
					<dim>32</dim>
				</port>
			</input>
			<output>
				<port id="1">
					<dim>1</dim>
					<dim>16</dim>
					<dim>96</dim>
					<dim>32</dim>
				</port>
			</output>
		</layer>
		<layer name="bottleneck2_7/inner/dw1/conv" type="Convolution" precision="FP32" id="85">
			<data dilations="1,1" group="16" kernel="3,3" output="16" pads_begin="1,1" pads_end="1,1" quantization_level="I8" strides="1,1" />
			<input>
				<port id="0">
					<dim>1</dim>
					<dim>16</dim>
					<dim>96</dim>
					<dim>32</dim>
				</port>
			</input>
			<output>
				<port id="1">
					<dim>1</dim>
					<dim>16</dim>
					<dim>96</dim>
					<dim>32</dim>
				</port>
			</output>
			<blobs>
				<biases offset="88344" size="64" />
				<weights offset="88408" size="576" />
			</blobs>
		</layer>
		<layer name="bottleneck2_7/inner/dw1/fn" type="elu" precision="FP32" id="86">
			<data alpha="1.0" />
			<input>
				<port id="0">
					<dim>1</dim>
					<dim>16</dim>
					<dim>96</dim>
					<dim>32</dim>
				</port>
			</input>
			<output>
				<port id="1">
					<dim>1</dim>
					<dim>16</dim>
					<dim>96</dim>
					<dim>32</dim>
				</port>
			</output>
		</layer>
		<layer name="bottleneck2_7/dim_inc/conv" type="Convolution" precision="FP32" id="87">
			<data dilations="1,1" group="1" kernel="1,1" output="64" pads_begin="0,0" pads_end="0,0" quantization_level="I8" strides="1,1" />
			<input>
				<port id="0">
					<dim>1</dim>
					<dim>16</dim>
					<dim>96</dim>
					<dim>32</dim>
				</port>
			</input>
			<output>
				<port id="1">
					<dim>1</dim>
					<dim>64</dim>
					<dim>96</dim>
					<dim>32</dim>
				</port>
			</output>
			<blobs>
				<biases offset="88984" size="256" />
				<weights offset="89240" size="4096" />
			</blobs>
		</layer>
		<layer name="bottleneck2_7/add" type="Eltwise" precision="FP32" id="88">
			<data operation="sum" />
			<input>
				<port id="0">
					<dim>1</dim>
					<dim>64</dim>
					<dim>96</dim>
					<dim>32</dim>
				</port>
				<port id="1">
					<dim>1</dim>
					<dim>64</dim>
					<dim>96</dim>
					<dim>32</dim>
				</port>
			</input>
			<output>
				<port id="2">
					<dim>1</dim>
					<dim>64</dim>
					<dim>96</dim>
					<dim>32</dim>
				</port>
			</output>
		</layer>
		<layer name="bottleneck2_7/fn" type="elu" precision="FP32" id="89">
			<data alpha="1.0" />
			<input>
				<port id="0">
					<dim>1</dim>
					<dim>64</dim>
					<dim>96</dim>
					<dim>32</dim>
				</port>
			</input>
			<output>
				<port id="1">
					<dim>1</dim>
					<dim>64</dim>
					<dim>96</dim>
					<dim>32</dim>
				</port>
			</output>
		</layer>
		<layer name="bottleneck2_8/dim_red/conv" type="Convolution" precision="FP32" id="90">
			<data dilations="1,1" group="1" kernel="1,1" output="16" pads_begin="0,0" pads_end="0,0" quantization_level="I8" strides="1,1" />
			<input>
				<port id="0">
					<dim>1</dim>
					<dim>64</dim>
					<dim>96</dim>
					<dim>32</dim>
				</port>
			</input>
			<output>
				<port id="1">
					<dim>1</dim>
					<dim>16</dim>
					<dim>96</dim>
					<dim>32</dim>
				</port>
			</output>
			<blobs>
				<biases offset="93336" size="64" />
				<weights offset="93400" size="4096" />
			</blobs>
		</layer>
		<layer name="bottleneck2_8/dim_red/fn" type="elu" precision="FP32" id="91">
			<data alpha="1.0" />
			<input>
				<port id="0">
					<dim>1</dim>
					<dim>16</dim>
					<dim>96</dim>
					<dim>32</dim>
				</port>
			</input>
			<output>
				<port id="1">
					<dim>1</dim>
					<dim>16</dim>
					<dim>96</dim>
					<dim>32</dim>
				</port>
			</output>
		</layer>
		<layer name="bottleneck2_8/inner/dw1/conv" type="Convolution" precision="FP32" id="92">
			<data dilations="1,1" group="16" kernel="3,3" output="16" pads_begin="1,1" pads_end="1,1" quantization_level="I8" strides="1,1" />
			<input>
				<port id="0">
					<dim>1</dim>
					<dim>16</dim>
					<dim>96</dim>
					<dim>32</dim>
				</port>
			</input>
			<output>
				<port id="1">
					<dim>1</dim>
					<dim>16</dim>
					<dim>96</dim>
					<dim>32</dim>
				</port>
			</output>
			<blobs>
				<biases offset="97496" size="64" />
				<weights offset="97560" size="576" />
			</blobs>
		</layer>
		<layer name="bottleneck2_8/inner/dw1/fn" type="elu" precision="FP32" id="93">
			<data alpha="1.0" />
			<input>
				<port id="0">
					<dim>1</dim>
					<dim>16</dim>
					<dim>96</dim>
					<dim>32</dim>
				</port>
			</input>
			<output>
				<port id="1">
					<dim>1</dim>
					<dim>16</dim>
					<dim>96</dim>
					<dim>32</dim>
				</port>
			</output>
		</layer>
		<layer name="bottleneck2_8/dim_inc/conv" type="Convolution" precision="FP32" id="94">
			<data dilations="1,1" group="1" kernel="1,1" output="64" pads_begin="0,0" pads_end="0,0" quantization_level="I8" strides="1,1" />
			<input>
				<port id="0">
					<dim>1</dim>
					<dim>16</dim>
					<dim>96</dim>
					<dim>32</dim>
				</port>
			</input>
			<output>
				<port id="1">
					<dim>1</dim>
					<dim>64</dim>
					<dim>96</dim>
					<dim>32</dim>
				</port>
			</output>
			<blobs>
				<biases offset="98136" size="256" />
				<weights offset="98392" size="4096" />
			</blobs>
		</layer>
		<layer name="bottleneck2_8/add" type="Eltwise" precision="FP32" id="95">
			<data operation="sum" />
			<input>
				<port id="0">
					<dim>1</dim>
					<dim>64</dim>
					<dim>96</dim>
					<dim>32</dim>
				</port>
				<port id="1">
					<dim>1</dim>
					<dim>64</dim>
					<dim>96</dim>
					<dim>32</dim>
				</port>
			</input>
			<output>
				<port id="2">
					<dim>1</dim>
					<dim>64</dim>
					<dim>96</dim>
					<dim>32</dim>
				</port>
			</output>
		</layer>
		<layer name="bottleneck2_8/fn" type="elu" precision="FP32" id="96">
			<data alpha="1.0" />
			<input>
				<port id="0">
					<dim>1</dim>
					<dim>64</dim>
					<dim>96</dim>
					<dim>32</dim>
				</port>
			</input>
			<output>
				<port id="1">
					<dim>1</dim>
					<dim>64</dim>
					<dim>96</dim>
					<dim>32</dim>
				</port>
			</output>
		</layer>
		<layer name="bottleneck3_0/skip/pooling" type="Pooling" precision="FP32" id="97">
			<data exclude-pad="true" kernel="2,2" pads_begin="0,0" pads_end="0,0" pool-method="max" rounding_type="ceil" strides="2,2" />
			<input>
				<port id="0">
					<dim>1</dim>
					<dim>64</dim>
					<dim>96</dim>
					<dim>32</dim>
				</port>
			</input>
			<output>
				<port id="1">
					<dim>1</dim>
					<dim>64</dim>
					<dim>48</dim>
					<dim>16</dim>
				</port>
			</output>
		</layer>
		<layer name="bottleneck3_0/skip/conv" type="Convolution" precision="FP32" id="98">
			<data dilations="1,1" group="1" kernel="1,1" output="128" pads_begin="0,0" pads_end="0,0" quantization_level="I8" strides="1,1" />
			<input>
				<port id="0">
					<dim>1</dim>
					<dim>64</dim>
					<dim>48</dim>
					<dim>16</dim>
				</port>
			</input>
			<output>
				<port id="1">
					<dim>1</dim>
					<dim>128</dim>
					<dim>48</dim>
					<dim>16</dim>
				</port>
			</output>
			<blobs>
				<biases offset="102488" size="512" />
				<weights offset="103000" size="32768" />
			</blobs>
		</layer>
		<layer name="bottleneck3_0/dim_red/conv" type="Convolution" precision="FP32" id="99">
			<data dilations="1,1" group="1" kernel="1,1" output="32" pads_begin="0,0" pads_end="0,0" quantization_level="I8" strides="1,1" />
			<input>
				<port id="0">
					<dim>1</dim>
					<dim>64</dim>
					<dim>96</dim>
					<dim>32</dim>
				</port>
			</input>
			<output>
				<port id="1">
					<dim>1</dim>
					<dim>32</dim>
					<dim>96</dim>
					<dim>32</dim>
				</port>
			</output>
			<blobs>
				<biases offset="135768" size="128" />
				<weights offset="135896" size="8192" />
			</blobs>
		</layer>
		<layer name="bottleneck3_0/dim_red/fn" type="elu" precision="FP32" id="100">
			<data alpha="1.0" />
			<input>
				<port id="0">
					<dim>1</dim>
					<dim>32</dim>
					<dim>96</dim>
					<dim>32</dim>
				</port>
			</input>
			<output>
				<port id="1">
					<dim>1</dim>
					<dim>32</dim>
					<dim>96</dim>
					<dim>32</dim>
				</port>
			</output>
		</layer>
		<layer name="bottleneck3_0/inner/dw1/conv" type="Convolution" precision="FP32" id="101">
			<data dilations="1,1" group="32" kernel="3,3" output="32" pads_begin="1,1" pads_end="1,1" quantization_level="I8" strides="2,2" />
			<input>
				<port id="0">
					<dim>1</dim>
					<dim>32</dim>
					<dim>96</dim>
					<dim>32</dim>
				</port>
			</input>
			<output>
				<port id="1">
					<dim>1</dim>
					<dim>32</dim>
					<dim>48</dim>
					<dim>16</dim>
				</port>
			</output>
			<blobs>
				<biases offset="144088" size="128" />
				<weights offset="144216" size="1152" />
			</blobs>
		</layer>
		<layer name="bottleneck3_0/inner/dw1/fn" type="elu" precision="FP32" id="102">
			<data alpha="1.0" />
			<input>
				<port id="0">
					<dim>1</dim>
					<dim>32</dim>
					<dim>48</dim>
					<dim>16</dim>
				</port>
			</input>
			<output>
				<port id="1">
					<dim>1</dim>
					<dim>32</dim>
					<dim>48</dim>
					<dim>16</dim>
				</port>
			</output>
		</layer>
		<layer name="bottleneck3_0/dim_inc/conv" type="Convolution" precision="FP32" id="103">
			<data dilations="1,1" group="1" kernel="1,1" output="128" pads_begin="0,0" pads_end="0,0" quantization_level="I8" strides="1,1" />
			<input>
				<port id="0">
					<dim>1</dim>
					<dim>32</dim>
					<dim>48</dim>
					<dim>16</dim>
				</port>
			</input>
			<output>
				<port id="1">
					<dim>1</dim>
					<dim>128</dim>
					<dim>48</dim>
					<dim>16</dim>
				</port>
			</output>
			<blobs>
				<biases offset="145368" size="512" />
				<weights offset="145880" size="16384" />
			</blobs>
		</layer>
		<layer name="bottleneck3_0/add" type="Eltwise" precision="FP32" id="104">
			<data operation="sum" />
			<input>
				<port id="0">
					<dim>1</dim>
					<dim>128</dim>
					<dim>48</dim>
					<dim>16</dim>
				</port>
				<port id="1">
					<dim>1</dim>
					<dim>128</dim>
					<dim>48</dim>
					<dim>16</dim>
				</port>
			</input>
			<output>
				<port id="2">
					<dim>1</dim>
					<dim>128</dim>
					<dim>48</dim>
					<dim>16</dim>
				</port>
			</output>
		</layer>
		<layer name="bottleneck3_0/fn" type="elu" precision="FP32" id="105">
			<data alpha="1.0" />
			<input>
				<port id="0">
					<dim>1</dim>
					<dim>128</dim>
					<dim>48</dim>
					<dim>16</dim>
				</port>
			</input>
			<output>
				<port id="1">
					<dim>1</dim>
					<dim>128</dim>
					<dim>48</dim>
					<dim>16</dim>
				</port>
			</output>
		</layer>
		<layer name="bottleneck3_1/dim_red/conv" type="Convolution" precision="FP32" id="106">
			<data dilations="1,1" group="1" kernel="1,1" output="32" pads_begin="0,0" pads_end="0,0" quantization_level="I8" strides="1,1" />
			<input>
				<port id="0">
					<dim>1</dim>
					<dim>128</dim>
					<dim>48</dim>
					<dim>16</dim>
				</port>
			</input>
			<output>
				<port id="1">
					<dim>1</dim>
					<dim>32</dim>
					<dim>48</dim>
					<dim>16</dim>
				</port>
			</output>
			<blobs>
				<biases offset="162264" size="128" />
				<weights offset="162392" size="16384" />
			</blobs>
		</layer>
		<layer name="bottleneck3_1/dim_red/fn" type="elu" precision="FP32" id="107">
			<data alpha="1.0" />
			<input>
				<port id="0">
					<dim>1</dim>
					<dim>32</dim>
					<dim>48</dim>
					<dim>16</dim>
				</port>
			</input>
			<output>
				<port id="1">
					<dim>1</dim>
					<dim>32</dim>
					<dim>48</dim>
					<dim>16</dim>
				</port>
			</output>
		</layer>
		<layer name="bottleneck3_1/inner/dw1/conv" type="Convolution" precision="FP32" id="108">
			<data dilations="1,1" group="32" kernel="3,3" output="32" pads_begin="1,1" pads_end="1,1" quantization_level="I8" strides="1,1" />
			<input>
				<port id="0">
					<dim>1</dim>
					<dim>32</dim>
					<dim>48</dim>
					<dim>16</dim>
				</port>
			</input>
			<output>
				<port id="1">
					<dim>1</dim>
					<dim>32</dim>
					<dim>48</dim>
					<dim>16</dim>
				</port>
			</output>
			<blobs>
				<biases offset="178776" size="128" />
				<weights offset="178904" size="1152" />
			</blobs>
		</layer>
		<layer name="bottleneck3_1/inner/dw1/fn" type="elu" precision="FP32" id="109">
			<data alpha="1.0" />
			<input>
				<port id="0">
					<dim>1</dim>
					<dim>32</dim>
					<dim>48</dim>
					<dim>16</dim>
				</port>
			</input>
			<output>
				<port id="1">
					<dim>1</dim>
					<dim>32</dim>
					<dim>48</dim>
					<dim>16</dim>
				</port>
			</output>
		</layer>
		<layer name="bottleneck3_1/dim_inc/conv" type="Convolution" precision="FP32" id="110">
			<data dilations="1,1" group="1" kernel="1,1" output="128" pads_begin="0,0" pads_end="0,0" quantization_level="I8" strides="1,1" />
			<input>
				<port id="0">
					<dim>1</dim>
					<dim>32</dim>
					<dim>48</dim>
					<dim>16</dim>
				</port>
			</input>
			<output>
				<port id="1">
					<dim>1</dim>
					<dim>128</dim>
					<dim>48</dim>
					<dim>16</dim>
				</port>
			</output>
			<blobs>
				<biases offset="180056" size="512" />
				<weights offset="180568" size="16384" />
			</blobs>
		</layer>
		<layer name="bottleneck3_1/add" type="Eltwise" precision="FP32" id="111">
			<data operation="sum" />
			<input>
				<port id="0">
					<dim>1</dim>
					<dim>128</dim>
					<dim>48</dim>
					<dim>16</dim>
				</port>
				<port id="1">
					<dim>1</dim>
					<dim>128</dim>
					<dim>48</dim>
					<dim>16</dim>
				</port>
			</input>
			<output>
				<port id="2">
					<dim>1</dim>
					<dim>128</dim>
					<dim>48</dim>
					<dim>16</dim>
				</port>
			</output>
		</layer>
		<layer name="bottleneck3_1/fn" type="elu" precision="FP32" id="112">
			<data alpha="1.0" />
			<input>
				<port id="0">
					<dim>1</dim>
					<dim>128</dim>
					<dim>48</dim>
					<dim>16</dim>
				</port>
			</input>
			<output>
				<port id="1">
					<dim>1</dim>
					<dim>128</dim>
					<dim>48</dim>
					<dim>16</dim>
				</port>
			</output>
		</layer>
		<layer name="bottleneck3_2/dim_red/conv" type="Convolution" precision="FP32" id="113">
			<data dilations="1,1" group="1" kernel="1,1" output="32" pads_begin="0,0" pads_end="0,0" quantization_level="I8" strides="1,1" />
			<input>
				<port id="0">
					<dim>1</dim>
					<dim>128</dim>
					<dim>48</dim>
					<dim>16</dim>
				</port>
			</input>
			<output>
				<port id="1">
					<dim>1</dim>
					<dim>32</dim>
					<dim>48</dim>
					<dim>16</dim>
				</port>
			</output>
			<blobs>
				<biases offset="196952" size="128" />
				<weights offset="197080" size="16384" />
			</blobs>
		</layer>
		<layer name="bottleneck3_2/dim_red/fn" type="elu" precision="FP32" id="114">
			<data alpha="1.0" />
			<input>
				<port id="0">
					<dim>1</dim>
					<dim>32</dim>
					<dim>48</dim>
					<dim>16</dim>
				</port>
			</input>
			<output>
				<port id="1">
					<dim>1</dim>
					<dim>32</dim>
					<dim>48</dim>
					<dim>16</dim>
				</port>
			</output>
		</layer>
		<layer name="bottleneck3_2/inner/dw1/conv" type="Convolution" precision="FP32" id="115">
			<data dilations="1,1" group="32" kernel="3,3" output="32" pads_begin="1,1" pads_end="1,1" quantization_level="I8" strides="1,1" />
			<input>
				<port id="0">
					<dim>1</dim>
					<dim>32</dim>
					<dim>48</dim>
					<dim>16</dim>
				</port>
			</input>
			<output>
				<port id="1">
					<dim>1</dim>
					<dim>32</dim>
					<dim>48</dim>
					<dim>16</dim>
				</port>
			</output>
			<blobs>
				<biases offset="213464" size="128" />
				<weights offset="213592" size="1152" />
			</blobs>
		</layer>
		<layer name="bottleneck3_2/inner/dw1/fn" type="elu" precision="FP32" id="116">
			<data alpha="1.0" />
			<input>
				<port id="0">
					<dim>1</dim>
					<dim>32</dim>
					<dim>48</dim>
					<dim>16</dim>
				</port>
			</input>
			<output>
				<port id="1">
					<dim>1</dim>
					<dim>32</dim>
					<dim>48</dim>
					<dim>16</dim>
				</port>
			</output>
		</layer>
		<layer name="bottleneck3_2/dim_inc/conv" type="Convolution" precision="FP32" id="117">
			<data dilations="1,1" group="1" kernel="1,1" output="128" pads_begin="0,0" pads_end="0,0" quantization_level="I8" strides="1,1" />
			<input>
				<port id="0">
					<dim>1</dim>
					<dim>32</dim>
					<dim>48</dim>
					<dim>16</dim>
				</port>
			</input>
			<output>
				<port id="1">
					<dim>1</dim>
					<dim>128</dim>
					<dim>48</dim>
					<dim>16</dim>
				</port>
			</output>
			<blobs>
				<biases offset="214744" size="512" />
				<weights offset="215256" size="16384" />
			</blobs>
		</layer>
		<layer name="bottleneck3_2/add" type="Eltwise" precision="FP32" id="118">
			<data operation="sum" />
			<input>
				<port id="0">
					<dim>1</dim>
					<dim>128</dim>
					<dim>48</dim>
					<dim>16</dim>
				</port>
				<port id="1">
					<dim>1</dim>
					<dim>128</dim>
					<dim>48</dim>
					<dim>16</dim>
				</port>
			</input>
			<output>
				<port id="2">
					<dim>1</dim>
					<dim>128</dim>
					<dim>48</dim>
					<dim>16</dim>
				</port>
			</output>
		</layer>
		<layer name="bottleneck3_2/fn" type="elu" precision="FP32" id="119">
			<data alpha="1.0" />
			<input>
				<port id="0">
					<dim>1</dim>
					<dim>128</dim>
					<dim>48</dim>
					<dim>16</dim>
				</port>
			</input>
			<output>
				<port id="1">
					<dim>1</dim>
					<dim>128</dim>
					<dim>48</dim>
					<dim>16</dim>
				</port>
			</output>
		</layer>
		<layer name="bottleneck3_3/dim_red/conv" type="Convolution" precision="FP32" id="120">
			<data dilations="1,1" group="1" kernel="1,1" output="32" pads_begin="0,0" pads_end="0,0" quantization_level="I8" strides="1,1" />
			<input>
				<port id="0">
					<dim>1</dim>
					<dim>128</dim>
					<dim>48</dim>
					<dim>16</dim>
				</port>
			</input>
			<output>
				<port id="1">
					<dim>1</dim>
					<dim>32</dim>
					<dim>48</dim>
					<dim>16</dim>
				</port>
			</output>
			<blobs>
				<biases offset="231640" size="128" />
				<weights offset="231768" size="16384" />
			</blobs>
		</layer>
		<layer name="bottleneck3_3/dim_red/fn" type="elu" precision="FP32" id="121">
			<data alpha="1.0" />
			<input>
				<port id="0">
					<dim>1</dim>
					<dim>32</dim>
					<dim>48</dim>
					<dim>16</dim>
				</port>
			</input>
			<output>
				<port id="1">
					<dim>1</dim>
					<dim>32</dim>
					<dim>48</dim>
					<dim>16</dim>
				</port>
			</output>
		</layer>
		<layer name="bottleneck3_3/inner/dw1/conv" type="Convolution" precision="FP32" id="122">
			<data dilations="1,1" group="32" kernel="3,3" output="32" pads_begin="1,1" pads_end="1,1" quantization_level="I8" strides="1,1" />
			<input>
				<port id="0">
					<dim>1</dim>
					<dim>32</dim>
					<dim>48</dim>
					<dim>16</dim>
				</port>
			</input>
			<output>
				<port id="1">
					<dim>1</dim>
					<dim>32</dim>
					<dim>48</dim>
					<dim>16</dim>
				</port>
			</output>
			<blobs>
				<biases offset="248152" size="128" />
				<weights offset="248280" size="1152" />
			</blobs>
		</layer>
		<layer name="bottleneck3_3/inner/dw1/fn" type="elu" precision="FP32" id="123">
			<data alpha="1.0" />
			<input>
				<port id="0">
					<dim>1</dim>
					<dim>32</dim>
					<dim>48</dim>
					<dim>16</dim>
				</port>
			</input>
			<output>
				<port id="1">
					<dim>1</dim>
					<dim>32</dim>
					<dim>48</dim>
					<dim>16</dim>
				</port>
			</output>
		</layer>
		<layer name="bottleneck3_3/dim_inc/conv" type="Convolution" precision="FP32" id="124">
			<data dilations="1,1" group="1" kernel="1,1" output="128" pads_begin="0,0" pads_end="0,0" quantization_level="I8" strides="1,1" />
			<input>
				<port id="0">
					<dim>1</dim>
					<dim>32</dim>
					<dim>48</dim>
					<dim>16</dim>
				</port>
			</input>
			<output>
				<port id="1">
					<dim>1</dim>
					<dim>128</dim>
					<dim>48</dim>
					<dim>16</dim>
				</port>
			</output>
			<blobs>
				<biases offset="249432" size="512" />
				<weights offset="249944" size="16384" />
			</blobs>
		</layer>
		<layer name="bottleneck3_3/add" type="Eltwise" precision="FP32" id="125">
			<data operation="sum" />
			<input>
				<port id="0">
					<dim>1</dim>
					<dim>128</dim>
					<dim>48</dim>
					<dim>16</dim>
				</port>
				<port id="1">
					<dim>1</dim>
					<dim>128</dim>
					<dim>48</dim>
					<dim>16</dim>
				</port>
			</input>
			<output>
				<port id="2">
					<dim>1</dim>
					<dim>128</dim>
					<dim>48</dim>
					<dim>16</dim>
				</port>
			</output>
		</layer>
		<layer name="bottleneck3_3/fn" type="elu" precision="FP32" id="126">
			<data alpha="1.0" />
			<input>
				<port id="0">
					<dim>1</dim>
					<dim>128</dim>
					<dim>48</dim>
					<dim>16</dim>
				</port>
			</input>
			<output>
				<port id="1">
					<dim>1</dim>
					<dim>128</dim>
					<dim>48</dim>
					<dim>16</dim>
				</port>
			</output>
		</layer>
		<layer name="bottleneck3_4/dim_red/conv" type="Convolution" precision="FP32" id="127">
			<data dilations="1,1" group="1" kernel="1,1" output="32" pads_begin="0,0" pads_end="0,0" quantization_level="I8" strides="1,1" />
			<input>
				<port id="0">
					<dim>1</dim>
					<dim>128</dim>
					<dim>48</dim>
					<dim>16</dim>
				</port>
			</input>
			<output>
				<port id="1">
					<dim>1</dim>
					<dim>32</dim>
					<dim>48</dim>
					<dim>16</dim>
				</port>
			</output>
			<blobs>
				<biases offset="266328" size="128" />
				<weights offset="266456" size="16384" />
			</blobs>
		</layer>
		<layer name="bottleneck3_4/dim_red/fn" type="elu" precision="FP32" id="128">
			<data alpha="1.0" />
			<input>
				<port id="0">
					<dim>1</dim>
					<dim>32</dim>
					<dim>48</dim>
					<dim>16</dim>
				</port>
			</input>
			<output>
				<port id="1">
					<dim>1</dim>
					<dim>32</dim>
					<dim>48</dim>
					<dim>16</dim>
				</port>
			</output>
		</layer>
		<layer name="bottleneck3_4/inner/dw1/conv" type="Convolution" precision="FP32" id="129">
			<data dilations="1,1" group="32" kernel="3,3" output="32" pads_begin="1,1" pads_end="1,1" quantization_level="I8" strides="1,1" />
			<input>
				<port id="0">
					<dim>1</dim>
					<dim>32</dim>
					<dim>48</dim>
					<dim>16</dim>
				</port>
			</input>
			<output>
				<port id="1">
					<dim>1</dim>
					<dim>32</dim>
					<dim>48</dim>
					<dim>16</dim>
				</port>
			</output>
			<blobs>
				<biases offset="282840" size="128" />
				<weights offset="282968" size="1152" />
			</blobs>
		</layer>
		<layer name="bottleneck3_4/inner/dw1/fn" type="elu" precision="FP32" id="130">
			<data alpha="1.0" />
			<input>
				<port id="0">
					<dim>1</dim>
					<dim>32</dim>
					<dim>48</dim>
					<dim>16</dim>
				</port>
			</input>
			<output>
				<port id="1">
					<dim>1</dim>
					<dim>32</dim>
					<dim>48</dim>
					<dim>16</dim>
				</port>
			</output>
		</layer>
		<layer name="bottleneck3_4/dim_inc/conv" type="Convolution" precision="FP32" id="131">
			<data dilations="1,1" group="1" kernel="1,1" output="128" pads_begin="0,0" pads_end="0,0" quantization_level="I8" strides="1,1" />
			<input>
				<port id="0">
					<dim>1</dim>
					<dim>32</dim>
					<dim>48</dim>
					<dim>16</dim>
				</port>
			</input>
			<output>
				<port id="1">
					<dim>1</dim>
					<dim>128</dim>
					<dim>48</dim>
					<dim>16</dim>
				</port>
			</output>
			<blobs>
				<biases offset="284120" size="512" />
				<weights offset="284632" size="16384" />
			</blobs>
		</layer>
		<layer name="bottleneck3_4/add" type="Eltwise" precision="FP32" id="132">
			<data operation="sum" />
			<input>
				<port id="0">
					<dim>1</dim>
					<dim>128</dim>
					<dim>48</dim>
					<dim>16</dim>
				</port>
				<port id="1">
					<dim>1</dim>
					<dim>128</dim>
					<dim>48</dim>
					<dim>16</dim>
				</port>
			</input>
			<output>
				<port id="2">
					<dim>1</dim>
					<dim>128</dim>
					<dim>48</dim>
					<dim>16</dim>
				</port>
			</output>
		</layer>
		<layer name="bottleneck3_4/fn" type="elu" precision="FP32" id="133">
			<data alpha="1.0" />
			<input>
				<port id="0">
					<dim>1</dim>
					<dim>128</dim>
					<dim>48</dim>
					<dim>16</dim>
				</port>
			</input>
			<output>
				<port id="1">
					<dim>1</dim>
					<dim>128</dim>
					<dim>48</dim>
					<dim>16</dim>
				</port>
			</output>
		</layer>
		<layer name="bottleneck3_5/dim_red/conv" type="Convolution" precision="FP32" id="134">
			<data dilations="1,1" group="1" kernel="1,1" output="32" pads_begin="0,0" pads_end="0,0" quantization_level="I8" strides="1,1" />
			<input>
				<port id="0">
					<dim>1</dim>
					<dim>128</dim>
					<dim>48</dim>
					<dim>16</dim>
				</port>
			</input>
			<output>
				<port id="1">
					<dim>1</dim>
					<dim>32</dim>
					<dim>48</dim>
					<dim>16</dim>
				</port>
			</output>
			<blobs>
				<biases offset="301016" size="128" />
				<weights offset="301144" size="16384" />
			</blobs>
		</layer>
		<layer name="bottleneck3_5/dim_red/fn" type="elu" precision="FP32" id="135">
			<data alpha="1.0" />
			<input>
				<port id="0">
					<dim>1</dim>
					<dim>32</dim>
					<dim>48</dim>
					<dim>16</dim>
				</port>
			</input>
			<output>
				<port id="1">
					<dim>1</dim>
					<dim>32</dim>
					<dim>48</dim>
					<dim>16</dim>
				</port>
			</output>
		</layer>
		<layer name="bottleneck3_5/inner/dw1/conv" type="Convolution" precision="FP32" id="136">
			<data dilations="1,1" group="32" kernel="3,3" output="32" pads_begin="1,1" pads_end="1,1" quantization_level="I8" strides="1,1" />
			<input>
				<port id="0">
					<dim>1</dim>
					<dim>32</dim>
					<dim>48</dim>
					<dim>16</dim>
				</port>
			</input>
			<output>
				<port id="1">
					<dim>1</dim>
					<dim>32</dim>
					<dim>48</dim>
					<dim>16</dim>
				</port>
			</output>
			<blobs>
				<biases offset="317528" size="128" />
				<weights offset="317656" size="1152" />
			</blobs>
		</layer>
		<layer name="bottleneck3_5/inner/dw1/fn" type="elu" precision="FP32" id="137">
			<data alpha="1.0" />
			<input>
				<port id="0">
					<dim>1</dim>
					<dim>32</dim>
					<dim>48</dim>
					<dim>16</dim>
				</port>
			</input>
			<output>
				<port id="1">
					<dim>1</dim>
					<dim>32</dim>
					<dim>48</dim>
					<dim>16</dim>
				</port>
			</output>
		</layer>
		<layer name="bottleneck3_5/dim_inc/conv" type="Convolution" precision="FP32" id="138">
			<data dilations="1,1" group="1" kernel="1,1" output="128" pads_begin="0,0" pads_end="0,0" quantization_level="I8" strides="1,1" />
			<input>
				<port id="0">
					<dim>1</dim>
					<dim>32</dim>
					<dim>48</dim>
					<dim>16</dim>
				</port>
			</input>
			<output>
				<port id="1">
					<dim>1</dim>
					<dim>128</dim>
					<dim>48</dim>
					<dim>16</dim>
				</port>
			</output>
			<blobs>
				<biases offset="318808" size="512" />
				<weights offset="319320" size="16384" />
			</blobs>
		</layer>
		<layer name="bottleneck3_5/add" type="Eltwise" precision="FP32" id="139">
			<data operation="sum" />
			<input>
				<port id="0">
					<dim>1</dim>
					<dim>128</dim>
					<dim>48</dim>
					<dim>16</dim>
				</port>
				<port id="1">
					<dim>1</dim>
					<dim>128</dim>
					<dim>48</dim>
					<dim>16</dim>
				</port>
			</input>
			<output>
				<port id="2">
					<dim>1</dim>
					<dim>128</dim>
					<dim>48</dim>
					<dim>16</dim>
				</port>
			</output>
		</layer>
		<layer name="bottleneck3_5/fn" type="elu" precision="FP32" id="140">
			<data alpha="1.0" />
			<input>
				<port id="0">
					<dim>1</dim>
					<dim>128</dim>
					<dim>48</dim>
					<dim>16</dim>
				</port>
			</input>
			<output>
				<port id="1">
					<dim>1</dim>
					<dim>128</dim>
					<dim>48</dim>
					<dim>16</dim>
				</port>
			</output>
		</layer>
		<layer name="bottleneck3_6/dim_red/conv" type="Convolution" precision="FP32" id="141">
			<data dilations="1,1" group="1" kernel="1,1" output="32" pads_begin="0,0" pads_end="0,0" quantization_level="I8" strides="1,1" />
			<input>
				<port id="0">
					<dim>1</dim>
					<dim>128</dim>
					<dim>48</dim>
					<dim>16</dim>
				</port>
			</input>
			<output>
				<port id="1">
					<dim>1</dim>
					<dim>32</dim>
					<dim>48</dim>
					<dim>16</dim>
				</port>
			</output>
			<blobs>
				<biases offset="335704" size="128" />
				<weights offset="335832" size="16384" />
			</blobs>
		</layer>
		<layer name="bottleneck3_6/dim_red/fn" type="elu" precision="FP32" id="142">
			<data alpha="1.0" />
			<input>
				<port id="0">
					<dim>1</dim>
					<dim>32</dim>
					<dim>48</dim>
					<dim>16</dim>
				</port>
			</input>
			<output>
				<port id="1">
					<dim>1</dim>
					<dim>32</dim>
					<dim>48</dim>
					<dim>16</dim>
				</port>
			</output>
		</layer>
		<layer name="bottleneck3_6/inner/dw1/conv" type="Convolution" precision="FP32" id="143">
			<data dilations="1,1" group="32" kernel="3,3" output="32" pads_begin="1,1" pads_end="1,1" quantization_level="I8" strides="1,1" />
			<input>
				<port id="0">
					<dim>1</dim>
					<dim>32</dim>
					<dim>48</dim>
					<dim>16</dim>
				</port>
			</input>
			<output>
				<port id="1">
					<dim>1</dim>
					<dim>32</dim>
					<dim>48</dim>
					<dim>16</dim>
				</port>
			</output>
			<blobs>
				<biases offset="352216" size="128" />
				<weights offset="352344" size="1152" />
			</blobs>
		</layer>
		<layer name="bottleneck3_6/inner/dw1/fn" type="elu" precision="FP32" id="144">
			<data alpha="1.0" />
			<input>
				<port id="0">
					<dim>1</dim>
					<dim>32</dim>
					<dim>48</dim>
					<dim>16</dim>
				</port>
			</input>
			<output>
				<port id="1">
					<dim>1</dim>
					<dim>32</dim>
					<dim>48</dim>
					<dim>16</dim>
				</port>
			</output>
		</layer>
		<layer name="bottleneck3_6/dim_inc/conv" type="Convolution" precision="FP32" id="145">
			<data dilations="1,1" group="1" kernel="1,1" output="128" pads_begin="0,0" pads_end="0,0" quantization_level="I8" strides="1,1" />
			<input>
				<port id="0">
					<dim>1</dim>
					<dim>32</dim>
					<dim>48</dim>
					<dim>16</dim>
				</port>
			</input>
			<output>
				<port id="1">
					<dim>1</dim>
					<dim>128</dim>
					<dim>48</dim>
					<dim>16</dim>
				</port>
			</output>
			<blobs>
				<biases offset="353496" size="512" />
				<weights offset="354008" size="16384" />
			</blobs>
		</layer>
		<layer name="bottleneck3_6/add" type="Eltwise" precision="FP32" id="146">
			<data operation="sum" />
			<input>
				<port id="0">
					<dim>1</dim>
					<dim>128</dim>
					<dim>48</dim>
					<dim>16</dim>
				</port>
				<port id="1">
					<dim>1</dim>
					<dim>128</dim>
					<dim>48</dim>
					<dim>16</dim>
				</port>
			</input>
			<output>
				<port id="2">
					<dim>1</dim>
					<dim>128</dim>
					<dim>48</dim>
					<dim>16</dim>
				</port>
			</output>
		</layer>
		<layer name="bottleneck3_6/fn" type="elu" precision="FP32" id="147">
			<data alpha="1.0" />
			<input>
				<port id="0">
					<dim>1</dim>
					<dim>128</dim>
					<dim>48</dim>
					<dim>16</dim>
				</port>
			</input>
			<output>
				<port id="1">
					<dim>1</dim>
					<dim>128</dim>
					<dim>48</dim>
					<dim>16</dim>
				</port>
			</output>
		</layer>
		<layer name="bottleneck3_7/dim_red/conv" type="Convolution" precision="FP32" id="148">
			<data dilations="1,1" group="1" kernel="1,1" output="32" pads_begin="0,0" pads_end="0,0" quantization_level="I8" strides="1,1" />
			<input>
				<port id="0">
					<dim>1</dim>
					<dim>128</dim>
					<dim>48</dim>
					<dim>16</dim>
				</port>
			</input>
			<output>
				<port id="1">
					<dim>1</dim>
					<dim>32</dim>
					<dim>48</dim>
					<dim>16</dim>
				</port>
			</output>
			<blobs>
				<biases offset="370392" size="128" />
				<weights offset="370520" size="16384" />
			</blobs>
		</layer>
		<layer name="bottleneck3_7/dim_red/fn" type="elu" precision="FP32" id="149">
			<data alpha="1.0" />
			<input>
				<port id="0">
					<dim>1</dim>
					<dim>32</dim>
					<dim>48</dim>
					<dim>16</dim>
				</port>
			</input>
			<output>
				<port id="1">
					<dim>1</dim>
					<dim>32</dim>
					<dim>48</dim>
					<dim>16</dim>
				</port>
			</output>
		</layer>
		<layer name="bottleneck3_7/inner/dw1/conv" type="Convolution" precision="FP32" id="150">
			<data dilations="1,1" group="32" kernel="3,3" output="32" pads_begin="1,1" pads_end="1,1" quantization_level="I8" strides="1,1" />
			<input>
				<port id="0">
					<dim>1</dim>
					<dim>32</dim>
					<dim>48</dim>
					<dim>16</dim>
				</port>
			</input>
			<output>
				<port id="1">
					<dim>1</dim>
					<dim>32</dim>
					<dim>48</dim>
					<dim>16</dim>
				</port>
			</output>
			<blobs>
				<biases offset="386904" size="128" />
				<weights offset="387032" size="1152" />
			</blobs>
		</layer>
		<layer name="bottleneck3_7/inner/dw1/fn" type="elu" precision="FP32" id="151">
			<data alpha="1.0" />
			<input>
				<port id="0">
					<dim>1</dim>
					<dim>32</dim>
					<dim>48</dim>
					<dim>16</dim>
				</port>
			</input>
			<output>
				<port id="1">
					<dim>1</dim>
					<dim>32</dim>
					<dim>48</dim>
					<dim>16</dim>
				</port>
			</output>
		</layer>
		<layer name="bottleneck3_7/dim_inc/conv" type="Convolution" precision="FP32" id="152">
			<data dilations="1,1" group="1" kernel="1,1" output="128" pads_begin="0,0" pads_end="0,0" quantization_level="I8" strides="1,1" />
			<input>
				<port id="0">
					<dim>1</dim>
					<dim>32</dim>
					<dim>48</dim>
					<dim>16</dim>
				</port>
			</input>
			<output>
				<port id="1">
					<dim>1</dim>
					<dim>128</dim>
					<dim>48</dim>
					<dim>16</dim>
				</port>
			</output>
			<blobs>
				<biases offset="388184" size="512" />
				<weights offset="388696" size="16384" />
			</blobs>
		</layer>
		<layer name="bottleneck3_7/add" type="Eltwise" precision="FP32" id="153">
			<data operation="sum" />
			<input>
				<port id="0">
					<dim>1</dim>
					<dim>128</dim>
					<dim>48</dim>
					<dim>16</dim>
				</port>
				<port id="1">
					<dim>1</dim>
					<dim>128</dim>
					<dim>48</dim>
					<dim>16</dim>
				</port>
			</input>
			<output>
				<port id="2">
					<dim>1</dim>
					<dim>128</dim>
					<dim>48</dim>
					<dim>16</dim>
				</port>
			</output>
		</layer>
		<layer name="bottleneck3_7/fn" type="elu" precision="FP32" id="154">
			<data alpha="1.0" />
			<input>
				<port id="0">
					<dim>1</dim>
					<dim>128</dim>
					<dim>48</dim>
					<dim>16</dim>
				</port>
			</input>
			<output>
				<port id="1">
					<dim>1</dim>
					<dim>128</dim>
					<dim>48</dim>
					<dim>16</dim>
				</port>
			</output>
		</layer>
		<layer name="bottleneck3_8/dim_red/conv" type="Convolution" precision="FP32" id="155">
			<data dilations="1,1" group="1" kernel="1,1" output="32" pads_begin="0,0" pads_end="0,0" quantization_level="I8" strides="1,1" />
			<input>
				<port id="0">
					<dim>1</dim>
					<dim>128</dim>
					<dim>48</dim>
					<dim>16</dim>
				</port>
			</input>
			<output>
				<port id="1">
					<dim>1</dim>
					<dim>32</dim>
					<dim>48</dim>
					<dim>16</dim>
				</port>
			</output>
			<blobs>
				<biases offset="405080" size="128" />
				<weights offset="405208" size="16384" />
			</blobs>
		</layer>
		<layer name="bottleneck3_8/dim_red/fn" type="elu" precision="FP32" id="156">
			<data alpha="1.0" />
			<input>
				<port id="0">
					<dim>1</dim>
					<dim>32</dim>
					<dim>48</dim>
					<dim>16</dim>
				</port>
			</input>
			<output>
				<port id="1">
					<dim>1</dim>
					<dim>32</dim>
					<dim>48</dim>
					<dim>16</dim>
				</port>
			</output>
		</layer>
		<layer name="bottleneck3_8/inner/dw1/conv" type="Convolution" precision="FP32" id="157">
			<data dilations="1,1" group="32" kernel="3,3" output="32" pads_begin="1,1" pads_end="1,1" quantization_level="I8" strides="1,1" />
			<input>
				<port id="0">
					<dim>1</dim>
					<dim>32</dim>
					<dim>48</dim>
					<dim>16</dim>
				</port>
			</input>
			<output>
				<port id="1">
					<dim>1</dim>
					<dim>32</dim>
					<dim>48</dim>
					<dim>16</dim>
				</port>
			</output>
			<blobs>
				<biases offset="421592" size="128" />
				<weights offset="421720" size="1152" />
			</blobs>
		</layer>
		<layer name="bottleneck3_8/inner/dw1/fn" type="elu" precision="FP32" id="158">
			<data alpha="1.0" />
			<input>
				<port id="0">
					<dim>1</dim>
					<dim>32</dim>
					<dim>48</dim>
					<dim>16</dim>
				</port>
			</input>
			<output>
				<port id="1">
					<dim>1</dim>
					<dim>32</dim>
					<dim>48</dim>
					<dim>16</dim>
				</port>
			</output>
		</layer>
		<layer name="bottleneck3_8/dim_inc/conv" type="Convolution" precision="FP32" id="159">
			<data dilations="1,1" group="1" kernel="1,1" output="128" pads_begin="0,0" pads_end="0,0" quantization_level="I8" strides="1,1" />
			<input>
				<port id="0">
					<dim>1</dim>
					<dim>32</dim>
					<dim>48</dim>
					<dim>16</dim>
				</port>
			</input>
			<output>
				<port id="1">
					<dim>1</dim>
					<dim>128</dim>
					<dim>48</dim>
					<dim>16</dim>
				</port>
			</output>
			<blobs>
				<biases offset="422872" size="512" />
				<weights offset="423384" size="16384" />
			</blobs>
		</layer>
		<layer name="bottleneck3_8/add" type="Eltwise" precision="FP32" id="160">
			<data operation="sum" />
			<input>
				<port id="0">
					<dim>1</dim>
					<dim>128</dim>
					<dim>48</dim>
					<dim>16</dim>
				</port>
				<port id="1">
					<dim>1</dim>
					<dim>128</dim>
					<dim>48</dim>
					<dim>16</dim>
				</port>
			</input>
			<output>
				<port id="2">
					<dim>1</dim>
					<dim>128</dim>
					<dim>48</dim>
					<dim>16</dim>
				</port>
			</output>
		</layer>
		<layer name="bottleneck3_8/fn" type="elu" precision="FP32" id="161">
			<data alpha="1.0" />
			<input>
				<port id="0">
					<dim>1</dim>
					<dim>128</dim>
					<dim>48</dim>
					<dim>16</dim>
				</port>
			</input>
			<output>
				<port id="1">
					<dim>1</dim>
					<dim>128</dim>
					<dim>48</dim>
					<dim>16</dim>
				</port>
			</output>
		</layer>
		<layer name="bottleneck3_9/dim_red/conv" type="Convolution" precision="FP32" id="162">
			<data dilations="1,1" group="1" kernel="1,1" output="32" pads_begin="0,0" pads_end="0,0" quantization_level="I8" strides="1,1" />
			<input>
				<port id="0">
					<dim>1</dim>
					<dim>128</dim>
					<dim>48</dim>
					<dim>16</dim>
				</port>
			</input>
			<output>
				<port id="1">
					<dim>1</dim>
					<dim>32</dim>
					<dim>48</dim>
					<dim>16</dim>
				</port>
			</output>
			<blobs>
				<biases offset="439768" size="128" />
				<weights offset="439896" size="16384" />
			</blobs>
		</layer>
		<layer name="bottleneck3_9/dim_red/fn" type="elu" precision="FP32" id="163">
			<data alpha="1.0" />
			<input>
				<port id="0">
					<dim>1</dim>
					<dim>32</dim>
					<dim>48</dim>
					<dim>16</dim>
				</port>
			</input>
			<output>
				<port id="1">
					<dim>1</dim>
					<dim>32</dim>
					<dim>48</dim>
					<dim>16</dim>
				</port>
			</output>
		</layer>
		<layer name="bottleneck3_9/inner/dw1/conv" type="Convolution" precision="FP32" id="164">
			<data dilations="1,1" group="32" kernel="3,3" output="32" pads_begin="1,1" pads_end="1,1" quantization_level="I8" strides="1,1" />
			<input>
				<port id="0">
					<dim>1</dim>
					<dim>32</dim>
					<dim>48</dim>
					<dim>16</dim>
				</port>
			</input>
			<output>
				<port id="1">
					<dim>1</dim>
					<dim>32</dim>
					<dim>48</dim>
					<dim>16</dim>
				</port>
			</output>
			<blobs>
				<biases offset="456280" size="128" />
				<weights offset="456408" size="1152" />
			</blobs>
		</layer>
		<layer name="bottleneck3_9/inner/dw1/fn" type="elu" precision="FP32" id="165">
			<data alpha="1.0" />
			<input>
				<port id="0">
					<dim>1</dim>
					<dim>32</dim>
					<dim>48</dim>
					<dim>16</dim>
				</port>
			</input>
			<output>
				<port id="1">
					<dim>1</dim>
					<dim>32</dim>
					<dim>48</dim>
					<dim>16</dim>
				</port>
			</output>
		</layer>
		<layer name="bottleneck3_9/dim_inc/conv" type="Convolution" precision="FP32" id="166">
			<data dilations="1,1" group="1" kernel="1,1" output="128" pads_begin="0,0" pads_end="0,0" quantization_level="I8" strides="1,1" />
			<input>
				<port id="0">
					<dim>1</dim>
					<dim>32</dim>
					<dim>48</dim>
					<dim>16</dim>
				</port>
			</input>
			<output>
				<port id="1">
					<dim>1</dim>
					<dim>128</dim>
					<dim>48</dim>
					<dim>16</dim>
				</port>
			</output>
			<blobs>
				<biases offset="457560" size="512" />
				<weights offset="458072" size="16384" />
			</blobs>
		</layer>
		<layer name="bottleneck3_9/add" type="Eltwise" precision="FP32" id="167">
			<data operation="sum" />
			<input>
				<port id="0">
					<dim>1</dim>
					<dim>128</dim>
					<dim>48</dim>
					<dim>16</dim>
				</port>
				<port id="1">
					<dim>1</dim>
					<dim>128</dim>
					<dim>48</dim>
					<dim>16</dim>
				</port>
			</input>
			<output>
				<port id="2">
					<dim>1</dim>
					<dim>128</dim>
					<dim>48</dim>
					<dim>16</dim>
				</port>
			</output>
		</layer>
		<layer name="bottleneck3_9/fn" type="elu" precision="FP32" id="168">
			<data alpha="1.0" />
			<input>
				<port id="0">
					<dim>1</dim>
					<dim>128</dim>
					<dim>48</dim>
					<dim>16</dim>
				</port>
			</input>
			<output>
				<port id="1">
					<dim>1</dim>
					<dim>128</dim>
					<dim>48</dim>
					<dim>16</dim>
				</port>
			</output>
		</layer>
		<layer name="bottleneck3_10/dim_red/conv" type="Convolution" precision="FP32" id="169">
			<data dilations="1,1" group="1" kernel="1,1" output="32" pads_begin="0,0" pads_end="0,0" quantization_level="I8" strides="1,1" />
			<input>
				<port id="0">
					<dim>1</dim>
					<dim>128</dim>
					<dim>48</dim>
					<dim>16</dim>
				</port>
			</input>
			<output>
				<port id="1">
					<dim>1</dim>
					<dim>32</dim>
					<dim>48</dim>
					<dim>16</dim>
				</port>
			</output>
			<blobs>
				<biases offset="474456" size="128" />
				<weights offset="474584" size="16384" />
			</blobs>
		</layer>
		<layer name="bottleneck3_10/dim_red/fn" type="elu" precision="FP32" id="170">
			<data alpha="1.0" />
			<input>
				<port id="0">
					<dim>1</dim>
					<dim>32</dim>
					<dim>48</dim>
					<dim>16</dim>
				</port>
			</input>
			<output>
				<port id="1">
					<dim>1</dim>
					<dim>32</dim>
					<dim>48</dim>
					<dim>16</dim>
				</port>
			</output>
		</layer>
		<layer name="bottleneck3_10/inner/dw1/conv" type="Convolution" precision="FP32" id="171">
			<data dilations="1,1" group="32" kernel="3,3" output="32" pads_begin="1,1" pads_end="1,1" quantization_level="I8" strides="1,1" />
			<input>
				<port id="0">
					<dim>1</dim>
					<dim>32</dim>
					<dim>48</dim>
					<dim>16</dim>
				</port>
			</input>
			<output>
				<port id="1">
					<dim>1</dim>
					<dim>32</dim>
					<dim>48</dim>
					<dim>16</dim>
				</port>
			</output>
			<blobs>
				<biases offset="490968" size="128" />
				<weights offset="491096" size="1152" />
			</blobs>
		</layer>
		<layer name="bottleneck3_10/inner/dw1/fn" type="elu" precision="FP32" id="172">
			<data alpha="1.0" />
			<input>
				<port id="0">
					<dim>1</dim>
					<dim>32</dim>
					<dim>48</dim>
					<dim>16</dim>
				</port>
			</input>
			<output>
				<port id="1">
					<dim>1</dim>
					<dim>32</dim>
					<dim>48</dim>
					<dim>16</dim>
				</port>
			</output>
		</layer>
		<layer name="bottleneck3_10/dim_inc/conv" type="Convolution" precision="FP32" id="173">
			<data dilations="1,1" group="1" kernel="1,1" output="128" pads_begin="0,0" pads_end="0,0" quantization_level="I8" strides="1,1" />
			<input>
				<port id="0">
					<dim>1</dim>
					<dim>32</dim>
					<dim>48</dim>
					<dim>16</dim>
				</port>
			</input>
			<output>
				<port id="1">
					<dim>1</dim>
					<dim>128</dim>
					<dim>48</dim>
					<dim>16</dim>
				</port>
			</output>
			<blobs>
				<biases offset="492248" size="512" />
				<weights offset="492760" size="16384" />
			</blobs>
		</layer>
		<layer name="bottleneck3_10/add" type="Eltwise" precision="FP32" id="174">
			<data operation="sum" />
			<input>
				<port id="0">
					<dim>1</dim>
					<dim>128</dim>
					<dim>48</dim>
					<dim>16</dim>
				</port>
				<port id="1">
					<dim>1</dim>
					<dim>128</dim>
					<dim>48</dim>
					<dim>16</dim>
				</port>
			</input>
			<output>
				<port id="2">
					<dim>1</dim>
					<dim>128</dim>
					<dim>48</dim>
					<dim>16</dim>
				</port>
			</output>
		</layer>
		<layer name="bottleneck3_10/fn" type="elu" precision="FP32" id="175">
			<data alpha="1.0" />
			<input>
				<port id="0">
					<dim>1</dim>
					<dim>128</dim>
					<dim>48</dim>
					<dim>16</dim>
				</port>
			</input>
			<output>
				<port id="1">
					<dim>1</dim>
					<dim>128</dim>
					<dim>48</dim>
					<dim>16</dim>
				</port>
			</output>
		</layer>
		<layer name="bottleneck4_0/skip/pooling" type="Pooling" precision="FP32" id="176">
			<data exclude-pad="true" kernel="2,2" pads_begin="0,0" pads_end="0,0" pool-method="max" rounding_type="ceil" strides="2,2" />
			<input>
				<port id="0">
					<dim>1</dim>
					<dim>128</dim>
					<dim>48</dim>
					<dim>16</dim>
				</port>
			</input>
			<output>
				<port id="1">
					<dim>1</dim>
					<dim>128</dim>
					<dim>24</dim>
					<dim>8</dim>
				</port>
			</output>
		</layer>
		<layer name="bottleneck4_0/skip/conv" type="Convolution" precision="FP32" id="177">
			<data dilations="1,1" group="1" kernel="1,1" output="256" pads_begin="0,0" pads_end="0,0" quantization_level="I8" strides="1,1" />
			<input>
				<port id="0">
					<dim>1</dim>
					<dim>128</dim>
					<dim>24</dim>
					<dim>8</dim>
				</port>
			</input>
			<output>
				<port id="1">
					<dim>1</dim>
					<dim>256</dim>
					<dim>24</dim>
					<dim>8</dim>
				</port>
			</output>
			<blobs>
				<biases offset="509144" size="1024" />
				<weights offset="510168" size="131072" />
			</blobs>
		</layer>
		<layer name="bottleneck4_0/dim_red/conv" type="Convolution" precision="FP32" id="178">
			<data dilations="1,1" group="1" kernel="1,1" output="64" pads_begin="0,0" pads_end="0,0" quantization_level="I8" strides="1,1" />
			<input>
				<port id="0">
					<dim>1</dim>
					<dim>128</dim>
					<dim>48</dim>
					<dim>16</dim>
				</port>
			</input>
			<output>
				<port id="1">
					<dim>1</dim>
					<dim>64</dim>
					<dim>48</dim>
					<dim>16</dim>
				</port>
			</output>
			<blobs>
				<biases offset="641240" size="256" />
				<weights offset="641496" size="32768" />
			</blobs>
		</layer>
		<layer name="bottleneck4_0/dim_red/fn" type="elu" precision="FP32" id="179">
			<data alpha="1.0" />
			<input>
				<port id="0">
					<dim>1</dim>
					<dim>64</dim>
					<dim>48</dim>
					<dim>16</dim>
				</port>
			</input>
			<output>
				<port id="1">
					<dim>1</dim>
					<dim>64</dim>
					<dim>48</dim>
					<dim>16</dim>
				</port>
			</output>
		</layer>
		<layer name="bottleneck4_0/inner/dw1/conv" type="Convolution" precision="FP32" id="180">
			<data dilations="1,1" group="64" kernel="3,3" output="64" pads_begin="1,1" pads_end="1,1" quantization_level="I8" strides="2,2" />
			<input>
				<port id="0">
					<dim>1</dim>
					<dim>64</dim>
					<dim>48</dim>
					<dim>16</dim>
				</port>
			</input>
			<output>
				<port id="1">
					<dim>1</dim>
					<dim>64</dim>
					<dim>24</dim>
					<dim>8</dim>
				</port>
			</output>
			<blobs>
				<biases offset="674264" size="256" />
				<weights offset="674520" size="2304" />
			</blobs>
		</layer>
		<layer name="bottleneck4_0/inner/dw1/fn" type="elu" precision="FP32" id="181">
			<data alpha="1.0" />
			<input>
				<port id="0">
					<dim>1</dim>
					<dim>64</dim>
					<dim>24</dim>
					<dim>8</dim>
				</port>
			</input>
			<output>
				<port id="1">
					<dim>1</dim>
					<dim>64</dim>
					<dim>24</dim>
					<dim>8</dim>
				</port>
			</output>
		</layer>
		<layer name="bottleneck4_0/dim_inc/conv" type="Convolution" precision="FP32" id="182">
			<data dilations="1,1" group="1" kernel="1,1" output="256" pads_begin="0,0" pads_end="0,0" quantization_level="I8" strides="1,1" />
			<input>
				<port id="0">
					<dim>1</dim>
					<dim>64</dim>
					<dim>24</dim>
					<dim>8</dim>
				</port>
			</input>
			<output>
				<port id="1">
					<dim>1</dim>
					<dim>256</dim>
					<dim>24</dim>
					<dim>8</dim>
				</port>
			</output>
			<blobs>
				<biases offset="676824" size="1024" />
				<weights offset="677848" size="65536" />
			</blobs>
		</layer>
		<layer name="bottleneck4_0/add" type="Eltwise" precision="FP32" id="183">
			<data operation="sum" />
			<input>
				<port id="0">
					<dim>1</dim>
					<dim>256</dim>
					<dim>24</dim>
					<dim>8</dim>
				</port>
				<port id="1">
					<dim>1</dim>
					<dim>256</dim>
					<dim>24</dim>
					<dim>8</dim>
				</port>
			</input>
			<output>
				<port id="2">
					<dim>1</dim>
					<dim>256</dim>
					<dim>24</dim>
					<dim>8</dim>
				</port>
			</output>
		</layer>
		<layer name="bottleneck4_0/fn" type="elu" precision="FP32" id="184">
			<data alpha="1.0" />
			<input>
				<port id="0">
					<dim>1</dim>
					<dim>256</dim>
					<dim>24</dim>
					<dim>8</dim>
				</port>
			</input>
			<output>
				<port id="1">
					<dim>1</dim>
					<dim>256</dim>
					<dim>24</dim>
					<dim>8</dim>
				</port>
			</output>
		</layer>
		<layer name="bottleneck4_1/dim_red/conv" type="Convolution" precision="FP32" id="185">
			<data dilations="1,1" group="1" kernel="1,1" output="64" pads_begin="0,0" pads_end="0,0" quantization_level="I8" strides="1,1" />
			<input>
				<port id="0">
					<dim>1</dim>
					<dim>256</dim>
					<dim>24</dim>
					<dim>8</dim>
				</port>
			</input>
			<output>
				<port id="1">
					<dim>1</dim>
					<dim>64</dim>
					<dim>24</dim>
					<dim>8</dim>
				</port>
			</output>
			<blobs>
				<biases offset="743384" size="256" />
				<weights offset="743640" size="65536" />
			</blobs>
		</layer>
		<layer name="bottleneck4_1/dim_red/fn" type="elu" precision="FP32" id="186">
			<data alpha="1.0" />
			<input>
				<port id="0">
					<dim>1</dim>
					<dim>64</dim>
					<dim>24</dim>
					<dim>8</dim>
				</port>
			</input>
			<output>
				<port id="1">
					<dim>1</dim>
					<dim>64</dim>
					<dim>24</dim>
					<dim>8</dim>
				</port>
			</output>
		</layer>
		<layer name="bottleneck4_1/inner/dw1/conv" type="Convolution" precision="FP32" id="187">
			<data dilations="1,1" group="64" kernel="3,3" output="64" pads_begin="1,1" pads_end="1,1" quantization_level="I8" strides="1,1" />
			<input>
				<port id="0">
					<dim>1</dim>
					<dim>64</dim>
					<dim>24</dim>
					<dim>8</dim>
				</port>
			</input>
			<output>
				<port id="1">
					<dim>1</dim>
					<dim>64</dim>
					<dim>24</dim>
					<dim>8</dim>
				</port>
			</output>
			<blobs>
				<biases offset="809176" size="256" />
				<weights offset="809432" size="2304" />
			</blobs>
		</layer>
		<layer name="bottleneck4_1/inner/dw1/fn" type="elu" precision="FP32" id="188">
			<data alpha="1.0" />
			<input>
				<port id="0">
					<dim>1</dim>
					<dim>64</dim>
					<dim>24</dim>
					<dim>8</dim>
				</port>
			</input>
			<output>
				<port id="1">
					<dim>1</dim>
					<dim>64</dim>
					<dim>24</dim>
					<dim>8</dim>
				</port>
			</output>
		</layer>
		<layer name="bottleneck4_1/dim_inc/conv" type="Convolution" precision="FP32" id="189">
			<data dilations="1,1" group="1" kernel="1,1" output="256" pads_begin="0,0" pads_end="0,0" quantization_level="I8" strides="1,1" />
			<input>
				<port id="0">
					<dim>1</dim>
					<dim>64</dim>
					<dim>24</dim>
					<dim>8</dim>
				</port>
			</input>
			<output>
				<port id="1">
					<dim>1</dim>
					<dim>256</dim>
					<dim>24</dim>
					<dim>8</dim>
				</port>
			</output>
			<blobs>
				<biases offset="811736" size="1024" />
				<weights offset="812760" size="65536" />
			</blobs>
		</layer>
		<layer name="bottleneck4_1/add" type="Eltwise" precision="FP32" id="190">
			<data operation="sum" />
			<input>
				<port id="0">
					<dim>1</dim>
					<dim>256</dim>
					<dim>24</dim>
					<dim>8</dim>
				</port>
				<port id="1">
					<dim>1</dim>
					<dim>256</dim>
					<dim>24</dim>
					<dim>8</dim>
				</port>
			</input>
			<output>
				<port id="2">
					<dim>1</dim>
					<dim>256</dim>
					<dim>24</dim>
					<dim>8</dim>
				</port>
			</output>
		</layer>
		<layer name="bottleneck4_1/fn" type="elu" precision="FP32" id="191">
			<data alpha="1.0" />
			<input>
				<port id="0">
					<dim>1</dim>
					<dim>256</dim>
					<dim>24</dim>
					<dim>8</dim>
				</port>
			</input>
			<output>
				<port id="1">
					<dim>1</dim>
					<dim>256</dim>
					<dim>24</dim>
					<dim>8</dim>
				</port>
			</output>
		</layer>
		<layer name="bottleneck4_2/dim_red/conv" type="Convolution" precision="FP32" id="192">
			<data dilations="1,1" group="1" kernel="1,1" output="64" pads_begin="0,0" pads_end="0,0" quantization_level="I8" strides="1,1" />
			<input>
				<port id="0">
					<dim>1</dim>
					<dim>256</dim>
					<dim>24</dim>
					<dim>8</dim>
				</port>
			</input>
			<output>
				<port id="1">
					<dim>1</dim>
					<dim>64</dim>
					<dim>24</dim>
					<dim>8</dim>
				</port>
			</output>
			<blobs>
				<biases offset="878296" size="256" />
				<weights offset="878552" size="65536" />
			</blobs>
		</layer>
		<layer name="bottleneck4_2/dim_red/fn" type="elu" precision="FP32" id="193">
			<data alpha="1.0" />
			<input>
				<port id="0">
					<dim>1</dim>
					<dim>64</dim>
					<dim>24</dim>
					<dim>8</dim>
				</port>
			</input>
			<output>
				<port id="1">
					<dim>1</dim>
					<dim>64</dim>
					<dim>24</dim>
					<dim>8</dim>
				</port>
			</output>
		</layer>
		<layer name="bottleneck4_2/inner/dw1/conv" type="Convolution" precision="FP32" id="194">
			<data dilations="1,1" group="64" kernel="3,3" output="64" pads_begin="1,1" pads_end="1,1" quantization_level="I8" strides="1,1" />
			<input>
				<port id="0">
					<dim>1</dim>
					<dim>64</dim>
					<dim>24</dim>
					<dim>8</dim>
				</port>
			</input>
			<output>
				<port id="1">
					<dim>1</dim>
					<dim>64</dim>
					<dim>24</dim>
					<dim>8</dim>
				</port>
			</output>
			<blobs>
				<biases offset="944088" size="256" />
				<weights offset="944344" size="2304" />
			</blobs>
		</layer>
		<layer name="bottleneck4_2/inner/dw1/fn" type="elu" precision="FP32" id="195">
			<data alpha="1.0" />
			<input>
				<port id="0">
					<dim>1</dim>
					<dim>64</dim>
					<dim>24</dim>
					<dim>8</dim>
				</port>
			</input>
			<output>
				<port id="1">
					<dim>1</dim>
					<dim>64</dim>
					<dim>24</dim>
					<dim>8</dim>
				</port>
			</output>
		</layer>
		<layer name="bottleneck4_2/dim_inc/conv" type="Convolution" precision="FP32" id="196">
			<data dilations="1,1" group="1" kernel="1,1" output="256" pads_begin="0,0" pads_end="0,0" quantization_level="I8" strides="1,1" />
			<input>
				<port id="0">
					<dim>1</dim>
					<dim>64</dim>
					<dim>24</dim>
					<dim>8</dim>
				</port>
			</input>
			<output>
				<port id="1">
					<dim>1</dim>
					<dim>256</dim>
					<dim>24</dim>
					<dim>8</dim>
				</port>
			</output>
			<blobs>
				<biases offset="946648" size="1024" />
				<weights offset="947672" size="65536" />
			</blobs>
		</layer>
		<layer name="bottleneck4_2/add" type="Eltwise" precision="FP32" id="197">
			<data operation="sum" />
			<input>
				<port id="0">
					<dim>1</dim>
					<dim>256</dim>
					<dim>24</dim>
					<dim>8</dim>
				</port>
				<port id="1">
					<dim>1</dim>
					<dim>256</dim>
					<dim>24</dim>
					<dim>8</dim>
				</port>
			</input>
			<output>
				<port id="2">
					<dim>1</dim>
					<dim>256</dim>
					<dim>24</dim>
					<dim>8</dim>
				</port>
			</output>
		</layer>
		<layer name="bottleneck4_2/fn" type="elu" precision="FP32" id="198">
			<data alpha="1.0" />
			<input>
				<port id="0">
					<dim>1</dim>
					<dim>256</dim>
					<dim>24</dim>
					<dim>8</dim>
				</port>
			</input>
			<output>
				<port id="1">
					<dim>1</dim>
					<dim>256</dim>
					<dim>24</dim>
					<dim>8</dim>
				</port>
			</output>
		</layer>
		<layer name="bottleneck4_3/dim_red/conv" type="Convolution" precision="FP32" id="199">
			<data dilations="1,1" group="1" kernel="1,1" output="64" pads_begin="0,0" pads_end="0,0" quantization_level="I8" strides="1,1" />
			<input>
				<port id="0">
					<dim>1</dim>
					<dim>256</dim>
					<dim>24</dim>
					<dim>8</dim>
				</port>
			</input>
			<output>
				<port id="1">
					<dim>1</dim>
					<dim>64</dim>
					<dim>24</dim>
					<dim>8</dim>
				</port>
			</output>
			<blobs>
				<biases offset="1013208" size="256" />
				<weights offset="1013464" size="65536" />
			</blobs>
		</layer>
		<layer name="bottleneck4_3/dim_red/fn" type="elu" precision="FP32" id="200">
			<data alpha="1.0" />
			<input>
				<port id="0">
					<dim>1</dim>
					<dim>64</dim>
					<dim>24</dim>
					<dim>8</dim>
				</port>
			</input>
			<output>
				<port id="1">
					<dim>1</dim>
					<dim>64</dim>
					<dim>24</dim>
					<dim>8</dim>
				</port>
			</output>
		</layer>
		<layer name="bottleneck4_3/inner/dw1/conv" type="Convolution" precision="FP32" id="201">
			<data dilations="1,1" group="64" kernel="3,3" output="64" pads_begin="1,1" pads_end="1,1" quantization_level="I8" strides="1,1" />
			<input>
				<port id="0">
					<dim>1</dim>
					<dim>64</dim>
					<dim>24</dim>
					<dim>8</dim>
				</port>
			</input>
			<output>
				<port id="1">
					<dim>1</dim>
					<dim>64</dim>
					<dim>24</dim>
					<dim>8</dim>
				</port>
			</output>
			<blobs>
				<biases offset="1079000" size="256" />
				<weights offset="1079256" size="2304" />
			</blobs>
		</layer>
		<layer name="bottleneck4_3/inner/dw1/fn" type="elu" precision="FP32" id="202">
			<data alpha="1.0" />
			<input>
				<port id="0">
					<dim>1</dim>
					<dim>64</dim>
					<dim>24</dim>
					<dim>8</dim>
				</port>
			</input>
			<output>
				<port id="1">
					<dim>1</dim>
					<dim>64</dim>
					<dim>24</dim>
					<dim>8</dim>
				</port>
			</output>
		</layer>
		<layer name="bottleneck4_3/dim_inc/conv" type="Convolution" precision="FP32" id="203">
			<data dilations="1,1" group="1" kernel="1,1" output="256" pads_begin="0,0" pads_end="0,0" quantization_level="I8" strides="1,1" />
			<input>
				<port id="0">
					<dim>1</dim>
					<dim>64</dim>
					<dim>24</dim>
					<dim>8</dim>
				</port>
			</input>
			<output>
				<port id="1">
					<dim>1</dim>
					<dim>256</dim>
					<dim>24</dim>
					<dim>8</dim>
				</port>
			</output>
			<blobs>
				<biases offset="1081560" size="1024" />
				<weights offset="1082584" size="65536" />
			</blobs>
		</layer>
		<layer name="bottleneck4_3/add" type="Eltwise" precision="FP32" id="204">
			<data operation="sum" />
			<input>
				<port id="0">
					<dim>1</dim>
					<dim>256</dim>
					<dim>24</dim>
					<dim>8</dim>
				</port>
				<port id="1">
					<dim>1</dim>
					<dim>256</dim>
					<dim>24</dim>
					<dim>8</dim>
				</port>
			</input>
			<output>
				<port id="2">
					<dim>1</dim>
					<dim>256</dim>
					<dim>24</dim>
					<dim>8</dim>
				</port>
			</output>
		</layer>
		<layer name="bottleneck4_3/fn" type="elu" precision="FP32" id="205">
			<data alpha="1.0" />
			<input>
				<port id="0">
					<dim>1</dim>
					<dim>256</dim>
					<dim>24</dim>
					<dim>8</dim>
				</port>
			</input>
			<output>
				<port id="1">
					<dim>1</dim>
					<dim>256</dim>
					<dim>24</dim>
					<dim>8</dim>
				</port>
			</output>
		</layer>
		<layer name="bottleneck4_4/dim_red/conv" type="Convolution" precision="FP32" id="206">
			<data dilations="1,1" group="1" kernel="1,1" output="64" pads_begin="0,0" pads_end="0,0" quantization_level="I8" strides="1,1" />
			<input>
				<port id="0">
					<dim>1</dim>
					<dim>256</dim>
					<dim>24</dim>
					<dim>8</dim>
				</port>
			</input>
			<output>
				<port id="1">
					<dim>1</dim>
					<dim>64</dim>
					<dim>24</dim>
					<dim>8</dim>
				</port>
			</output>
			<blobs>
				<biases offset="1148120" size="256" />
				<weights offset="1148376" size="65536" />
			</blobs>
		</layer>
		<layer name="bottleneck4_4/dim_red/fn" type="elu" precision="FP32" id="207">
			<data alpha="1.0" />
			<input>
				<port id="0">
					<dim>1</dim>
					<dim>64</dim>
					<dim>24</dim>
					<dim>8</dim>
				</port>
			</input>
			<output>
				<port id="1">
					<dim>1</dim>
					<dim>64</dim>
					<dim>24</dim>
					<dim>8</dim>
				</port>
			</output>
		</layer>
		<layer name="bottleneck4_4/inner/dw1/conv" type="Convolution" precision="FP32" id="208">
			<data dilations="1,1" group="64" kernel="3,3" output="64" pads_begin="1,1" pads_end="1,1" quantization_level="I8" strides="1,1" />
			<input>
				<port id="0">
					<dim>1</dim>
					<dim>64</dim>
					<dim>24</dim>
					<dim>8</dim>
				</port>
			</input>
			<output>
				<port id="1">
					<dim>1</dim>
					<dim>64</dim>
					<dim>24</dim>
					<dim>8</dim>
				</port>
			</output>
			<blobs>
				<biases offset="1213912" size="256" />
				<weights offset="1214168" size="2304" />
			</blobs>
		</layer>
		<layer name="bottleneck4_4/inner/dw1/fn" type="elu" precision="FP32" id="209">
			<data alpha="1.0" />
			<input>
				<port id="0">
					<dim>1</dim>
					<dim>64</dim>
					<dim>24</dim>
					<dim>8</dim>
				</port>
			</input>
			<output>
				<port id="1">
					<dim>1</dim>
					<dim>64</dim>
					<dim>24</dim>
					<dim>8</dim>
				</port>
			</output>
		</layer>
		<layer name="bottleneck4_4/dim_inc/conv" type="Convolution" precision="FP32" id="210">
			<data dilations="1,1" group="1" kernel="1,1" output="256" pads_begin="0,0" pads_end="0,0" quantization_level="I8" strides="1,1" />
			<input>
				<port id="0">
					<dim>1</dim>
					<dim>64</dim>
					<dim>24</dim>
					<dim>8</dim>
				</port>
			</input>
			<output>
				<port id="1">
					<dim>1</dim>
					<dim>256</dim>
					<dim>24</dim>
					<dim>8</dim>
				</port>
			</output>
			<blobs>
				<biases offset="1216472" size="1024" />
				<weights offset="1217496" size="65536" />
			</blobs>
		</layer>
		<layer name="bottleneck4_4/add" type="Eltwise" precision="FP32" id="211">
			<data operation="sum" />
			<input>
				<port id="0">
					<dim>1</dim>
					<dim>256</dim>
					<dim>24</dim>
					<dim>8</dim>
				</port>
				<port id="1">
					<dim>1</dim>
					<dim>256</dim>
					<dim>24</dim>
					<dim>8</dim>
				</port>
			</input>
			<output>
				<port id="2">
					<dim>1</dim>
					<dim>256</dim>
					<dim>24</dim>
					<dim>8</dim>
				</port>
			</output>
		</layer>
		<layer name="bottleneck4_4/fn" type="elu" precision="FP32" id="212">
			<data alpha="1.0" />
			<input>
				<port id="0">
					<dim>1</dim>
					<dim>256</dim>
					<dim>24</dim>
					<dim>8</dim>
				</port>
			</input>
			<output>
				<port id="1">
					<dim>1</dim>
					<dim>256</dim>
					<dim>24</dim>
					<dim>8</dim>
				</port>
			</output>
		</layer>
		<layer name="bottleneck4_5/dim_red/conv" type="Convolution" precision="FP32" id="213">
			<data dilations="1,1" group="1" kernel="1,1" output="64" pads_begin="0,0" pads_end="0,0" quantization_level="I8" strides="1,1" />
			<input>
				<port id="0">
					<dim>1</dim>
					<dim>256</dim>
					<dim>24</dim>
					<dim>8</dim>
				</port>
			</input>
			<output>
				<port id="1">
					<dim>1</dim>
					<dim>64</dim>
					<dim>24</dim>
					<dim>8</dim>
				</port>
			</output>
			<blobs>
				<biases offset="1283032" size="256" />
				<weights offset="1283288" size="65536" />
			</blobs>
		</layer>
		<layer name="bottleneck4_5/dim_red/fn" type="elu" precision="FP32" id="214">
			<data alpha="1.0" />
			<input>
				<port id="0">
					<dim>1</dim>
					<dim>64</dim>
					<dim>24</dim>
					<dim>8</dim>
				</port>
			</input>
			<output>
				<port id="1">
					<dim>1</dim>
					<dim>64</dim>
					<dim>24</dim>
					<dim>8</dim>
				</port>
			</output>
		</layer>
		<layer name="bottleneck4_5/inner/dw1/conv" type="Convolution" precision="FP32" id="215">
			<data dilations="1,1" group="64" kernel="3,3" output="64" pads_begin="1,1" pads_end="1,1" quantization_level="I8" strides="1,1" />
			<input>
				<port id="0">
					<dim>1</dim>
					<dim>64</dim>
					<dim>24</dim>
					<dim>8</dim>
				</port>
			</input>
			<output>
				<port id="1">
					<dim>1</dim>
					<dim>64</dim>
					<dim>24</dim>
					<dim>8</dim>
				</port>
			</output>
			<blobs>
				<biases offset="1348824" size="256" />
				<weights offset="1349080" size="2304" />
			</blobs>
		</layer>
		<layer name="bottleneck4_5/inner/dw1/fn" type="elu" precision="FP32" id="216">
			<data alpha="1.0" />
			<input>
				<port id="0">
					<dim>1</dim>
					<dim>64</dim>
					<dim>24</dim>
					<dim>8</dim>
				</port>
			</input>
			<output>
				<port id="1">
					<dim>1</dim>
					<dim>64</dim>
					<dim>24</dim>
					<dim>8</dim>
				</port>
			</output>
		</layer>
		<layer name="bottleneck4_5/dim_inc/conv" type="Convolution" precision="FP32" id="217">
			<data dilations="1,1" group="1" kernel="1,1" output="256" pads_begin="0,0" pads_end="0,0" quantization_level="I8" strides="1,1" />
			<input>
				<port id="0">
					<dim>1</dim>
					<dim>64</dim>
					<dim>24</dim>
					<dim>8</dim>
				</port>
			</input>
			<output>
				<port id="1">
					<dim>1</dim>
					<dim>256</dim>
					<dim>24</dim>
					<dim>8</dim>
				</port>
			</output>
			<blobs>
				<biases offset="1351384" size="1024" />
				<weights offset="1352408" size="65536" />
			</blobs>
		</layer>
		<layer name="bottleneck4_5/add" type="Eltwise" precision="FP32" id="218">
			<data operation="sum" />
			<input>
				<port id="0">
					<dim>1</dim>
					<dim>256</dim>
					<dim>24</dim>
					<dim>8</dim>
				</port>
				<port id="1">
					<dim>1</dim>
					<dim>256</dim>
					<dim>24</dim>
					<dim>8</dim>
				</port>
			</input>
			<output>
				<port id="2">
					<dim>1</dim>
					<dim>256</dim>
					<dim>24</dim>
					<dim>8</dim>
				</port>
			</output>
		</layer>
		<layer name="bottleneck4_5/fn" type="elu" precision="FP32" id="219">
			<data alpha="1.0" />
			<input>
				<port id="0">
					<dim>1</dim>
					<dim>256</dim>
					<dim>24</dim>
					<dim>8</dim>
				</port>
			</input>
			<output>
				<port id="1">
					<dim>1</dim>
					<dim>256</dim>
					<dim>24</dim>
					<dim>8</dim>
				</port>
			</output>
		</layer>
		<layer name="bottleneck4_6/dim_red/conv" type="Convolution" precision="FP32" id="220">
			<data dilations="1,1" group="1" kernel="1,1" output="64" pads_begin="0,0" pads_end="0,0" quantization_level="I8" strides="1,1" />
			<input>
				<port id="0">
					<dim>1</dim>
					<dim>256</dim>
					<dim>24</dim>
					<dim>8</dim>
				</port>
			</input>
			<output>
				<port id="1">
					<dim>1</dim>
					<dim>64</dim>
					<dim>24</dim>
					<dim>8</dim>
				</port>
			</output>
			<blobs>
				<biases offset="1417944" size="256" />
				<weights offset="1418200" size="65536" />
			</blobs>
		</layer>
		<layer name="bottleneck4_6/dim_red/fn" type="elu" precision="FP32" id="221">
			<data alpha="1.0" />
			<input>
				<port id="0">
					<dim>1</dim>
					<dim>64</dim>
					<dim>24</dim>
					<dim>8</dim>
				</port>
			</input>
			<output>
				<port id="1">
					<dim>1</dim>
					<dim>64</dim>
					<dim>24</dim>
					<dim>8</dim>
				</port>
			</output>
		</layer>
		<layer name="bottleneck4_6/inner/dw1/conv" type="Convolution" precision="FP32" id="222">
			<data dilations="1,1" group="64" kernel="3,3" output="64" pads_begin="1,1" pads_end="1,1" quantization_level="I8" strides="1,1" />
			<input>
				<port id="0">
					<dim>1</dim>
					<dim>64</dim>
					<dim>24</dim>
					<dim>8</dim>
				</port>
			</input>
			<output>
				<port id="1">
					<dim>1</dim>
					<dim>64</dim>
					<dim>24</dim>
					<dim>8</dim>
				</port>
			</output>
			<blobs>
				<biases offset="1483736" size="256" />
				<weights offset="1483992" size="2304" />
			</blobs>
		</layer>
		<layer name="bottleneck4_6/inner/dw1/fn" type="elu" precision="FP32" id="223">
			<data alpha="1.0" />
			<input>
				<port id="0">
					<dim>1</dim>
					<dim>64</dim>
					<dim>24</dim>
					<dim>8</dim>
				</port>
			</input>
			<output>
				<port id="1">
					<dim>1</dim>
					<dim>64</dim>
					<dim>24</dim>
					<dim>8</dim>
				</port>
			</output>
		</layer>
		<layer name="bottleneck4_6/dim_inc/conv" type="Convolution" precision="FP32" id="224">
			<data dilations="1,1" group="1" kernel="1,1" output="256" pads_begin="0,0" pads_end="0,0" quantization_level="I8" strides="1,1" />
			<input>
				<port id="0">
					<dim>1</dim>
					<dim>64</dim>
					<dim>24</dim>
					<dim>8</dim>
				</port>
			</input>
			<output>
				<port id="1">
					<dim>1</dim>
					<dim>256</dim>
					<dim>24</dim>
					<dim>8</dim>
				</port>
			</output>
			<blobs>
				<biases offset="1486296" size="1024" />
				<weights offset="1487320" size="65536" />
			</blobs>
		</layer>
		<layer name="bottleneck4_6/add" type="Eltwise" precision="FP32" id="225">
			<data operation="sum" />
			<input>
				<port id="0">
					<dim>1</dim>
					<dim>256</dim>
					<dim>24</dim>
					<dim>8</dim>
				</port>
				<port id="1">
					<dim>1</dim>
					<dim>256</dim>
					<dim>24</dim>
					<dim>8</dim>
				</port>
			</input>
			<output>
				<port id="2">
					<dim>1</dim>
					<dim>256</dim>
					<dim>24</dim>
					<dim>8</dim>
				</port>
			</output>
		</layer>
		<layer name="bottleneck4_6/fn" type="elu" precision="FP32" id="226">
			<data alpha="1.0" />
			<input>
				<port id="0">
					<dim>1</dim>
					<dim>256</dim>
					<dim>24</dim>
					<dim>8</dim>
				</port>
			</input>
			<output>
				<port id="1">
					<dim>1</dim>
					<dim>256</dim>
					<dim>24</dim>
					<dim>8</dim>
				</port>
			</output>
		</layer>
		<layer name="bottleneck4_7/dim_red/conv" type="Convolution" precision="FP32" id="227">
			<data dilations="1,1" group="1" kernel="1,1" output="64" pads_begin="0,0" pads_end="0,0" quantization_level="I8" strides="1,1" />
			<input>
				<port id="0">
					<dim>1</dim>
					<dim>256</dim>
					<dim>24</dim>
					<dim>8</dim>
				</port>
			</input>
			<output>
				<port id="1">
					<dim>1</dim>
					<dim>64</dim>
					<dim>24</dim>
					<dim>8</dim>
				</port>
			</output>
			<blobs>
				<biases offset="1552856" size="256" />
				<weights offset="1553112" size="65536" />
			</blobs>
		</layer>
		<layer name="bottleneck4_7/dim_red/fn" type="elu" precision="FP32" id="228">
			<data alpha="1.0" />
			<input>
				<port id="0">
					<dim>1</dim>
					<dim>64</dim>
					<dim>24</dim>
					<dim>8</dim>
				</port>
			</input>
			<output>
				<port id="1">
					<dim>1</dim>
					<dim>64</dim>
					<dim>24</dim>
					<dim>8</dim>
				</port>
			</output>
		</layer>
		<layer name="bottleneck4_7/inner/dw1/conv" type="Convolution" precision="FP32" id="229">
			<data dilations="1,1" group="64" kernel="3,3" output="64" pads_begin="1,1" pads_end="1,1" quantization_level="I8" strides="1,1" />
			<input>
				<port id="0">
					<dim>1</dim>
					<dim>64</dim>
					<dim>24</dim>
					<dim>8</dim>
				</port>
			</input>
			<output>
				<port id="1">
					<dim>1</dim>
					<dim>64</dim>
					<dim>24</dim>
					<dim>8</dim>
				</port>
			</output>
			<blobs>
				<biases offset="1618648" size="256" />
				<weights offset="1618904" size="2304" />
			</blobs>
		</layer>
		<layer name="bottleneck4_7/inner/dw1/fn" type="elu" precision="FP32" id="230">
			<data alpha="1.0" />
			<input>
				<port id="0">
					<dim>1</dim>
					<dim>64</dim>
					<dim>24</dim>
					<dim>8</dim>
				</port>
			</input>
			<output>
				<port id="1">
					<dim>1</dim>
					<dim>64</dim>
					<dim>24</dim>
					<dim>8</dim>
				</port>
			</output>
		</layer>
		<layer name="bottleneck4_7/dim_inc/conv" type="Convolution" precision="FP32" id="231">
			<data dilations="1,1" group="1" kernel="1,1" output="256" pads_begin="0,0" pads_end="0,0" quantization_level="I8" strides="1,1" />
			<input>
				<port id="0">
					<dim>1</dim>
					<dim>64</dim>
					<dim>24</dim>
					<dim>8</dim>
				</port>
			</input>
			<output>
				<port id="1">
					<dim>1</dim>
					<dim>256</dim>
					<dim>24</dim>
					<dim>8</dim>
				</port>
			</output>
			<blobs>
				<biases offset="1621208" size="1024" />
				<weights offset="1622232" size="65536" />
			</blobs>
		</layer>
		<layer name="bottleneck4_7/add" type="Eltwise" precision="FP32" id="232">
			<data operation="sum" />
			<input>
				<port id="0">
					<dim>1</dim>
					<dim>256</dim>
					<dim>24</dim>
					<dim>8</dim>
				</port>
				<port id="1">
					<dim>1</dim>
					<dim>256</dim>
					<dim>24</dim>
					<dim>8</dim>
				</port>
			</input>
			<output>
				<port id="2">
					<dim>1</dim>
					<dim>256</dim>
					<dim>24</dim>
					<dim>8</dim>
				</port>
			</output>
		</layer>
		<layer name="bottleneck4_7/fn" type="elu" precision="FP32" id="233">
			<data alpha="1.0" />
			<input>
				<port id="0">
					<dim>1</dim>
					<dim>256</dim>
					<dim>24</dim>
					<dim>8</dim>
				</port>
			</input>
			<output>
				<port id="1">
					<dim>1</dim>
					<dim>256</dim>
					<dim>24</dim>
					<dim>8</dim>
				</port>
			</output>
		</layer>
		<layer name="bottleneck4_8/dim_red/conv" type="Convolution" precision="FP32" id="234">
			<data dilations="1,1" group="1" kernel="1,1" output="64" pads_begin="0,0" pads_end="0,0" quantization_level="I8" strides="1,1" />
			<input>
				<port id="0">
					<dim>1</dim>
					<dim>256</dim>
					<dim>24</dim>
					<dim>8</dim>
				</port>
			</input>
			<output>
				<port id="1">
					<dim>1</dim>
					<dim>64</dim>
					<dim>24</dim>
					<dim>8</dim>
				</port>
			</output>
			<blobs>
				<biases offset="1687768" size="256" />
				<weights offset="1688024" size="65536" />
			</blobs>
		</layer>
		<layer name="bottleneck4_8/dim_red/fn" type="elu" precision="FP32" id="235">
			<data alpha="1.0" />
			<input>
				<port id="0">
					<dim>1</dim>
					<dim>64</dim>
					<dim>24</dim>
					<dim>8</dim>
				</port>
			</input>
			<output>
				<port id="1">
					<dim>1</dim>
					<dim>64</dim>
					<dim>24</dim>
					<dim>8</dim>
				</port>
			</output>
		</layer>
		<layer name="bottleneck4_8/inner/dw1/conv" type="Convolution" precision="FP32" id="236">
			<data dilations="1,1" group="64" kernel="3,3" output="64" pads_begin="1,1" pads_end="1,1" quantization_level="I8" strides="1,1" />
			<input>
				<port id="0">
					<dim>1</dim>
					<dim>64</dim>
					<dim>24</dim>
					<dim>8</dim>
				</port>
			</input>
			<output>
				<port id="1">
					<dim>1</dim>
					<dim>64</dim>
					<dim>24</dim>
					<dim>8</dim>
				</port>
			</output>
			<blobs>
				<biases offset="1753560" size="256" />
				<weights offset="1753816" size="2304" />
			</blobs>
		</layer>
		<layer name="bottleneck4_8/inner/dw1/fn" type="elu" precision="FP32" id="237">
			<data alpha="1.0" />
			<input>
				<port id="0">
					<dim>1</dim>
					<dim>64</dim>
					<dim>24</dim>
					<dim>8</dim>
				</port>
			</input>
			<output>
				<port id="1">
					<dim>1</dim>
					<dim>64</dim>
					<dim>24</dim>
					<dim>8</dim>
				</port>
			</output>
		</layer>
		<layer name="bottleneck4_8/dim_inc/conv" type="Convolution" precision="FP32" id="238">
			<data dilations="1,1" group="1" kernel="1,1" output="256" pads_begin="0,0" pads_end="0,0" quantization_level="I8" strides="1,1" />
			<input>
				<port id="0">
					<dim>1</dim>
					<dim>64</dim>
					<dim>24</dim>
					<dim>8</dim>
				</port>
			</input>
			<output>
				<port id="1">
					<dim>1</dim>
					<dim>256</dim>
					<dim>24</dim>
					<dim>8</dim>
				</port>
			</output>
			<blobs>
				<biases offset="1756120" size="1024" />
				<weights offset="1757144" size="65536" />
			</blobs>
		</layer>
		<layer name="bottleneck4_8/add" type="Eltwise" precision="FP32" id="239">
			<data operation="sum" />
			<input>
				<port id="0">
					<dim>1</dim>
					<dim>256</dim>
					<dim>24</dim>
					<dim>8</dim>
				</port>
				<port id="1">
					<dim>1</dim>
					<dim>256</dim>
					<dim>24</dim>
					<dim>8</dim>
				</port>
			</input>
			<output>
				<port id="2">
					<dim>1</dim>
					<dim>256</dim>
					<dim>24</dim>
					<dim>8</dim>
				</port>
			</output>
		</layer>
		<layer name="bottleneck4_8/fn" type="elu" precision="FP32" id="240">
			<data alpha="1.0" />
			<input>
				<port id="0">
					<dim>1</dim>
					<dim>256</dim>
					<dim>24</dim>
					<dim>8</dim>
				</port>
			</input>
			<output>
				<port id="1">
					<dim>1</dim>
					<dim>256</dim>
					<dim>24</dim>
					<dim>8</dim>
				</port>
			</output>
		</layer>
		<layer name="bottleneck4_9/dim_red/conv" type="Convolution" precision="FP32" id="241">
			<data dilations="1,1" group="1" kernel="1,1" output="64" pads_begin="0,0" pads_end="0,0" quantization_level="I8" strides="1,1" />
			<input>
				<port id="0">
					<dim>1</dim>
					<dim>256</dim>
					<dim>24</dim>
					<dim>8</dim>
				</port>
			</input>
			<output>
				<port id="1">
					<dim>1</dim>
					<dim>64</dim>
					<dim>24</dim>
					<dim>8</dim>
				</port>
			</output>
			<blobs>
				<biases offset="1822680" size="256" />
				<weights offset="1822936" size="65536" />
			</blobs>
		</layer>
		<layer name="bottleneck4_9/dim_red/fn" type="elu" precision="FP32" id="242">
			<data alpha="1.0" />
			<input>
				<port id="0">
					<dim>1</dim>
					<dim>64</dim>
					<dim>24</dim>
					<dim>8</dim>
				</port>
			</input>
			<output>
				<port id="1">
					<dim>1</dim>
					<dim>64</dim>
					<dim>24</dim>
					<dim>8</dim>
				</port>
			</output>
		</layer>
		<layer name="bottleneck4_9/inner/dw1/conv" type="Convolution" precision="FP32" id="243">
			<data dilations="1,1" group="64" kernel="3,3" output="64" pads_begin="1,1" pads_end="1,1" quantization_level="I8" strides="1,1" />
			<input>
				<port id="0">
					<dim>1</dim>
					<dim>64</dim>
					<dim>24</dim>
					<dim>8</dim>
				</port>
			</input>
			<output>
				<port id="1">
					<dim>1</dim>
					<dim>64</dim>
					<dim>24</dim>
					<dim>8</dim>
				</port>
			</output>
			<blobs>
				<biases offset="1888472" size="256" />
				<weights offset="1888728" size="2304" />
			</blobs>
		</layer>
		<layer name="bottleneck4_9/inner/dw1/fn" type="elu" precision="FP32" id="244">
			<data alpha="1.0" />
			<input>
				<port id="0">
					<dim>1</dim>
					<dim>64</dim>
					<dim>24</dim>
					<dim>8</dim>
				</port>
			</input>
			<output>
				<port id="1">
					<dim>1</dim>
					<dim>64</dim>
					<dim>24</dim>
					<dim>8</dim>
				</port>
			</output>
		</layer>
		<layer name="bottleneck4_9/dim_inc/conv" type="Convolution" precision="FP32" id="245">
			<data dilations="1,1" group="1" kernel="1,1" output="256" pads_begin="0,0" pads_end="0,0" quantization_level="I8" strides="1,1" />
			<input>
				<port id="0">
					<dim>1</dim>
					<dim>64</dim>
					<dim>24</dim>
					<dim>8</dim>
				</port>
			</input>
			<output>
				<port id="1">
					<dim>1</dim>
					<dim>256</dim>
					<dim>24</dim>
					<dim>8</dim>
				</port>
			</output>
			<blobs>
				<biases offset="1891032" size="1024" />
				<weights offset="1892056" size="65536" />
			</blobs>
		</layer>
		<layer name="bottleneck4_9/add" type="Eltwise" precision="FP32" id="246">
			<data operation="sum" />
			<input>
				<port id="0">
					<dim>1</dim>
					<dim>256</dim>
					<dim>24</dim>
					<dim>8</dim>
				</port>
				<port id="1">
					<dim>1</dim>
					<dim>256</dim>
					<dim>24</dim>
					<dim>8</dim>
				</port>
			</input>
			<output>
				<port id="2">
					<dim>1</dim>
					<dim>256</dim>
					<dim>24</dim>
					<dim>8</dim>
				</port>
			</output>
		</layer>
		<layer name="bottleneck4_9/fn" type="elu" precision="FP32" id="247">
			<data alpha="1.0" />
			<input>
				<port id="0">
					<dim>1</dim>
					<dim>256</dim>
					<dim>24</dim>
					<dim>8</dim>
				</port>
			</input>
			<output>
				<port id="1">
					<dim>1</dim>
					<dim>256</dim>
					<dim>24</dim>
					<dim>8</dim>
				</port>
			</output>
		</layer>
		<layer name="bottleneck4_10/dim_red/conv" type="Convolution" precision="FP32" id="248">
			<data dilations="1,1" group="1" kernel="1,1" output="64" pads_begin="0,0" pads_end="0,0" quantization_level="I8" strides="1,1" />
			<input>
				<port id="0">
					<dim>1</dim>
					<dim>256</dim>
					<dim>24</dim>
					<dim>8</dim>
				</port>
			</input>
			<output>
				<port id="1">
					<dim>1</dim>
					<dim>64</dim>
					<dim>24</dim>
					<dim>8</dim>
				</port>
			</output>
			<blobs>
				<biases offset="1957592" size="256" />
				<weights offset="1957848" size="65536" />
			</blobs>
		</layer>
		<layer name="bottleneck4_10/dim_red/fn" type="elu" precision="FP32" id="249">
			<data alpha="1.0" />
			<input>
				<port id="0">
					<dim>1</dim>
					<dim>64</dim>
					<dim>24</dim>
					<dim>8</dim>
				</port>
			</input>
			<output>
				<port id="1">
					<dim>1</dim>
					<dim>64</dim>
					<dim>24</dim>
					<dim>8</dim>
				</port>
			</output>
		</layer>
		<layer name="bottleneck4_10/inner/dw1/conv" type="Convolution" precision="FP32" id="250">
			<data dilations="1,1" group="64" kernel="3,3" output="64" pads_begin="1,1" pads_end="1,1" quantization_level="I8" strides="1,1" />
			<input>
				<port id="0">
					<dim>1</dim>
					<dim>64</dim>
					<dim>24</dim>
					<dim>8</dim>
				</port>
			</input>
			<output>
				<port id="1">
					<dim>1</dim>
					<dim>64</dim>
					<dim>24</dim>
					<dim>8</dim>
				</port>
			</output>
			<blobs>
				<biases offset="2023384" size="256" />
				<weights offset="2023640" size="2304" />
			</blobs>
		</layer>
		<layer name="bottleneck4_10/inner/dw1/fn" type="elu" precision="FP32" id="251">
			<data alpha="1.0" />
			<input>
				<port id="0">
					<dim>1</dim>
					<dim>64</dim>
					<dim>24</dim>
					<dim>8</dim>
				</port>
			</input>
			<output>
				<port id="1">
					<dim>1</dim>
					<dim>64</dim>
					<dim>24</dim>
					<dim>8</dim>
				</port>
			</output>
		</layer>
		<layer name="bottleneck4_10/dim_inc/conv" type="Convolution" precision="FP32" id="252">
			<data dilations="1,1" group="1" kernel="1,1" output="256" pads_begin="0,0" pads_end="0,0" quantization_level="I8" strides="1,1" />
			<input>
				<port id="0">
					<dim>1</dim>
					<dim>64</dim>
					<dim>24</dim>
					<dim>8</dim>
				</port>
			</input>
			<output>
				<port id="1">
					<dim>1</dim>
					<dim>256</dim>
					<dim>24</dim>
					<dim>8</dim>
				</port>
			</output>
			<blobs>
				<biases offset="2025944" size="1024" />
				<weights offset="2026968" size="65536" />
			</blobs>
		</layer>
		<layer name="bottleneck4_10/add" type="Eltwise" precision="FP32" id="253">
			<data operation="sum" />
			<input>
				<port id="0">
					<dim>1</dim>
					<dim>256</dim>
					<dim>24</dim>
					<dim>8</dim>
				</port>
				<port id="1">
					<dim>1</dim>
					<dim>256</dim>
					<dim>24</dim>
					<dim>8</dim>
				</port>
			</input>
			<output>
				<port id="2">
					<dim>1</dim>
					<dim>256</dim>
					<dim>24</dim>
					<dim>8</dim>
				</port>
			</output>
		</layer>
		<layer name="bottleneck4_10/fn" type="elu" precision="FP32" id="254">
			<data alpha="1.0" />
			<input>
				<port id="0">
					<dim>1</dim>
					<dim>256</dim>
					<dim>24</dim>
					<dim>8</dim>
				</port>
			</input>
			<output>
				<port id="1">
					<dim>1</dim>
					<dim>256</dim>
					<dim>24</dim>
					<dim>8</dim>
				</port>
			</output>
		</layer>
		<layer name="bottleneck4_11/dim_red/conv" type="Convolution" precision="FP32" id="255">
			<data dilations="1,1" group="1" kernel="1,1" output="64" pads_begin="0,0" pads_end="0,0" quantization_level="I8" strides="1,1" />
			<input>
				<port id="0">
					<dim>1</dim>
					<dim>256</dim>
					<dim>24</dim>
					<dim>8</dim>
				</port>
			</input>
			<output>
				<port id="1">
					<dim>1</dim>
					<dim>64</dim>
					<dim>24</dim>
					<dim>8</dim>
				</port>
			</output>
			<blobs>
				<biases offset="2092504" size="256" />
				<weights offset="2092760" size="65536" />
			</blobs>
		</layer>
		<layer name="bottleneck4_11/dim_red/fn" type="elu" precision="FP32" id="256">
			<data alpha="1.0" />
			<input>
				<port id="0">
					<dim>1</dim>
					<dim>64</dim>
					<dim>24</dim>
					<dim>8</dim>
				</port>
			</input>
			<output>
				<port id="1">
					<dim>1</dim>
					<dim>64</dim>
					<dim>24</dim>
					<dim>8</dim>
				</port>
			</output>
		</layer>
		<layer name="bottleneck4_11/inner/dw1/conv" type="Convolution" precision="FP32" id="257">
			<data dilations="1,1" group="64" kernel="3,3" output="64" pads_begin="1,1" pads_end="1,1" quantization_level="I8" strides="1,1" />
			<input>
				<port id="0">
					<dim>1</dim>
					<dim>64</dim>
					<dim>24</dim>
					<dim>8</dim>
				</port>
			</input>
			<output>
				<port id="1">
					<dim>1</dim>
					<dim>64</dim>
					<dim>24</dim>
					<dim>8</dim>
				</port>
			</output>
			<blobs>
				<biases offset="2158296" size="256" />
				<weights offset="2158552" size="2304" />
			</blobs>
		</layer>
		<layer name="bottleneck4_11/inner/dw1/fn" type="elu" precision="FP32" id="258">
			<data alpha="1.0" />
			<input>
				<port id="0">
					<dim>1</dim>
					<dim>64</dim>
					<dim>24</dim>
					<dim>8</dim>
				</port>
			</input>
			<output>
				<port id="1">
					<dim>1</dim>
					<dim>64</dim>
					<dim>24</dim>
					<dim>8</dim>
				</port>
			</output>
		</layer>
		<layer name="bottleneck4_11/dim_inc/conv" type="Convolution" precision="FP32" id="259">
			<data dilations="1,1" group="1" kernel="1,1" output="256" pads_begin="0,0" pads_end="0,0" quantization_level="I8" strides="1,1" />
			<input>
				<port id="0">
					<dim>1</dim>
					<dim>64</dim>
					<dim>24</dim>
					<dim>8</dim>
				</port>
			</input>
			<output>
				<port id="1">
					<dim>1</dim>
					<dim>256</dim>
					<dim>24</dim>
					<dim>8</dim>
				</port>
			</output>
			<blobs>
				<biases offset="2160856" size="1024" />
				<weights offset="2161880" size="65536" />
			</blobs>
		</layer>
		<layer name="bottleneck4_11/add" type="Eltwise" precision="FP32" id="260">
			<data operation="sum" />
			<input>
				<port id="0">
					<dim>1</dim>
					<dim>256</dim>
					<dim>24</dim>
					<dim>8</dim>
				</port>
				<port id="1">
					<dim>1</dim>
					<dim>256</dim>
					<dim>24</dim>
					<dim>8</dim>
				</port>
			</input>
			<output>
				<port id="2">
					<dim>1</dim>
					<dim>256</dim>
					<dim>24</dim>
					<dim>8</dim>
				</port>
			</output>
		</layer>
		<layer name="bottleneck4_11/fn" type="elu" precision="FP32" id="261">
			<data alpha="1.0" />
			<input>
				<port id="0">
					<dim>1</dim>
					<dim>256</dim>
					<dim>24</dim>
					<dim>8</dim>
				</port>
			</input>
			<output>
				<port id="1">
					<dim>1</dim>
					<dim>256</dim>
					<dim>24</dim>
					<dim>8</dim>
				</port>
			</output>
		</layer>
		<layer name="pooling/out" type="Pooling" precision="FP32" id="262">
			<data exclude-pad="true" kernel="24,8" pads_begin="0,0" pads_end="0,0" pool-method="max" rounding_type="ceil" strides="1,1" />
			<input>
				<port id="0">
					<dim>1</dim>
					<dim>256</dim>
					<dim>24</dim>
					<dim>8</dim>
				</port>
			</input>
			<output>
				<port id="1">
					<dim>1</dim>
					<dim>256</dim>
					<dim>1</dim>
					<dim>1</dim>
				</port>
			</output>
		</layer>
		<layer name="embd/dim_inc/conv" type="Convolution" precision="FP32" id="263">
			<data dilations="1,1" group="1" kernel="1,1" output="512" pads_begin="0,0" pads_end="0,0" quantization_level="I8" strides="1,1" />
			<input>
				<port id="0">
					<dim>1</dim>
					<dim>256</dim>
					<dim>1</dim>
					<dim>1</dim>
				</port>
			</input>
			<output>
				<port id="1">
					<dim>1</dim>
					<dim>512</dim>
					<dim>1</dim>
					<dim>1</dim>
				</port>
			</output>
			<blobs>
				<biases offset="2227416" size="2048" />
				<weights offset="2229464" size="524288" />
			</blobs>
		</layer>
		<layer name="embd/dim_inc/fn" type="elu" precision="FP32" id="264">
			<data alpha="1.0" />
			<input>
				<port id="0">
					<dim>1</dim>
					<dim>512</dim>
					<dim>1</dim>
					<dim>1</dim>
				</port>
			</input>
			<output>
				<port id="1">
					<dim>1</dim>
					<dim>512</dim>
					<dim>1</dim>
					<dim>1</dim>
				</port>
			</output>
		</layer>
		<layer name="embd/dim_red/conv" type="Convolution" precision="FP32" id="265">
			<data dilations="1,1" group="1" kernel="1,1" output="256" pads_begin="0,0" pads_end="0,0" quantization_level="I8" strides="1,1" />
			<input>
				<port id="0">
					<dim>1</dim>
					<dim>512</dim>
					<dim>1</dim>
					<dim>1</dim>
				</port>
			</input>
			<output>
				<port id="1">
					<dim>1</dim>
					<dim>256</dim>
					<dim>1</dim>
					<dim>1</dim>
				</port>
			</output>
			<blobs>
				<biases offset="2753752" size="1024" />
				<weights offset="2754776" size="524288" />
			</blobs>
		</layer>
	</layers>
	<edges>
		<edge from-layer="0" from-port="0" to-layer="1" to-port="0" />
		<edge from-layer="1" from-port="1" to-layer="2" to-port="0" />
		<edge from-layer="2" from-port="1" to-layer="3" to-port="0" />
		<edge from-layer="3" from-port="1" to-layer="9" to-port="0" />
		<edge from-layer="3" from-port="1" to-layer="4" to-port="0" />
		<edge from-layer="4" from-port="1" to-layer="5" to-port="0" />
		<edge from-layer="5" from-port="1" to-layer="6" to-port="0" />
		<edge from-layer="6" from-port="1" to-layer="7" to-port="0" />
		<edge from-layer="7" from-port="1" to-layer="8" to-port="0" />
		<edge from-layer="8" from-port="1" to-layer="9" to-port="1" />
		<edge from-layer="9" from-port="2" to-layer="10" to-port="0" />
		<edge from-layer="10" from-port="1" to-layer="16" to-port="0" />
		<edge from-layer="10" from-port="1" to-layer="11" to-port="0" />
		<edge from-layer="11" from-port="1" to-layer="12" to-port="0" />
		<edge from-layer="12" from-port="1" to-layer="13" to-port="0" />
		<edge from-layer="13" from-port="1" to-layer="14" to-port="0" />
		<edge from-layer="14" from-port="1" to-layer="15" to-port="0" />
		<edge from-layer="15" from-port="1" to-layer="16" to-port="1" />
		<edge from-layer="16" from-port="2" to-layer="17" to-port="0" />
		<edge from-layer="17" from-port="1" to-layer="23" to-port="0" />
		<edge from-layer="17" from-port="1" to-layer="18" to-port="0" />
		<edge from-layer="18" from-port="1" to-layer="19" to-port="0" />
		<edge from-layer="19" from-port="1" to-layer="20" to-port="0" />
		<edge from-layer="20" from-port="1" to-layer="21" to-port="0" />
		<edge from-layer="21" from-port="1" to-layer="22" to-port="0" />
		<edge from-layer="22" from-port="1" to-layer="23" to-port="1" />
		<edge from-layer="23" from-port="2" to-layer="24" to-port="0" />
		<edge from-layer="24" from-port="1" to-layer="30" to-port="0" />
		<edge from-layer="24" from-port="1" to-layer="25" to-port="0" />
		<edge from-layer="25" from-port="1" to-layer="26" to-port="0" />
		<edge from-layer="26" from-port="1" to-layer="27" to-port="0" />
		<edge from-layer="27" from-port="1" to-layer="28" to-port="0" />
		<edge from-layer="28" from-port="1" to-layer="29" to-port="0" />
		<edge from-layer="29" from-port="1" to-layer="30" to-port="1" />
		<edge from-layer="30" from-port="2" to-layer="31" to-port="0" />
		<edge from-layer="31" from-port="1" to-layer="34" to-port="0" />
		<edge from-layer="31" from-port="1" to-layer="32" to-port="0" />
		<edge from-layer="32" from-port="1" to-layer="33" to-port="0" />
		<edge from-layer="33" from-port="1" to-layer="39" to-port="0" />
		<edge from-layer="34" from-port="1" to-layer="35" to-port="0" />
		<edge from-layer="35" from-port="1" to-layer="36" to-port="0" />
		<edge from-layer="36" from-port="1" to-layer="37" to-port="0" />
		<edge from-layer="37" from-port="1" to-layer="38" to-port="0" />
		<edge from-layer="38" from-port="1" to-layer="39" to-port="1" />
		<edge from-layer="39" from-port="2" to-layer="40" to-port="0" />
		<edge from-layer="40" from-port="1" to-layer="46" to-port="0" />
		<edge from-layer="40" from-port="1" to-layer="41" to-port="0" />
		<edge from-layer="41" from-port="1" to-layer="42" to-port="0" />
		<edge from-layer="42" from-port="1" to-layer="43" to-port="0" />
		<edge from-layer="43" from-port="1" to-layer="44" to-port="0" />
		<edge from-layer="44" from-port="1" to-layer="45" to-port="0" />
		<edge from-layer="45" from-port="1" to-layer="46" to-port="1" />
		<edge from-layer="46" from-port="2" to-layer="47" to-port="0" />
		<edge from-layer="47" from-port="1" to-layer="53" to-port="0" />
		<edge from-layer="47" from-port="1" to-layer="48" to-port="0" />
		<edge from-layer="48" from-port="1" to-layer="49" to-port="0" />
		<edge from-layer="49" from-port="1" to-layer="50" to-port="0" />
		<edge from-layer="50" from-port="1" to-layer="51" to-port="0" />
		<edge from-layer="51" from-port="1" to-layer="52" to-port="0" />
		<edge from-layer="52" from-port="1" to-layer="53" to-port="1" />
		<edge from-layer="53" from-port="2" to-layer="54" to-port="0" />
		<edge from-layer="54" from-port="1" to-layer="60" to-port="0" />
		<edge from-layer="54" from-port="1" to-layer="55" to-port="0" />
		<edge from-layer="55" from-port="1" to-layer="56" to-port="0" />
		<edge from-layer="56" from-port="1" to-layer="57" to-port="0" />
		<edge from-layer="57" from-port="1" to-layer="58" to-port="0" />
		<edge from-layer="58" from-port="1" to-layer="59" to-port="0" />
		<edge from-layer="59" from-port="1" to-layer="60" to-port="1" />
		<edge from-layer="60" from-port="2" to-layer="61" to-port="0" />
		<edge from-layer="61" from-port="1" to-layer="67" to-port="0" />
		<edge from-layer="61" from-port="1" to-layer="62" to-port="0" />
		<edge from-layer="62" from-port="1" to-layer="63" to-port="0" />
		<edge from-layer="63" from-port="1" to-layer="64" to-port="0" />
		<edge from-layer="64" from-port="1" to-layer="65" to-port="0" />
		<edge from-layer="65" from-port="1" to-layer="66" to-port="0" />
		<edge from-layer="66" from-port="1" to-layer="67" to-port="1" />
		<edge from-layer="67" from-port="2" to-layer="68" to-port="0" />
		<edge from-layer="68" from-port="1" to-layer="74" to-port="0" />
		<edge from-layer="68" from-port="1" to-layer="69" to-port="0" />
		<edge from-layer="69" from-port="1" to-layer="70" to-port="0" />
		<edge from-layer="70" from-port="1" to-layer="71" to-port="0" />
		<edge from-layer="71" from-port="1" to-layer="72" to-port="0" />
		<edge from-layer="72" from-port="1" to-layer="73" to-port="0" />
		<edge from-layer="73" from-port="1" to-layer="74" to-port="1" />
		<edge from-layer="74" from-port="2" to-layer="75" to-port="0" />
		<edge from-layer="75" from-port="1" to-layer="81" to-port="0" />
		<edge from-layer="75" from-port="1" to-layer="76" to-port="0" />
		<edge from-layer="76" from-port="1" to-layer="77" to-port="0" />
		<edge from-layer="77" from-port="1" to-layer="78" to-port="0" />
		<edge from-layer="78" from-port="1" to-layer="79" to-port="0" />
		<edge from-layer="79" from-port="1" to-layer="80" to-port="0" />
		<edge from-layer="80" from-port="1" to-layer="81" to-port="1" />
		<edge from-layer="81" from-port="2" to-layer="82" to-port="0" />
		<edge from-layer="82" from-port="1" to-layer="88" to-port="0" />
		<edge from-layer="82" from-port="1" to-layer="83" to-port="0" />
		<edge from-layer="83" from-port="1" to-layer="84" to-port="0" />
		<edge from-layer="84" from-port="1" to-layer="85" to-port="0" />
		<edge from-layer="85" from-port="1" to-layer="86" to-port="0" />
		<edge from-layer="86" from-port="1" to-layer="87" to-port="0" />
		<edge from-layer="87" from-port="1" to-layer="88" to-port="1" />
		<edge from-layer="88" from-port="2" to-layer="89" to-port="0" />
		<edge from-layer="89" from-port="1" to-layer="95" to-port="0" />
		<edge from-layer="89" from-port="1" to-layer="90" to-port="0" />
		<edge from-layer="90" from-port="1" to-layer="91" to-port="0" />
		<edge from-layer="91" from-port="1" to-layer="92" to-port="0" />
		<edge from-layer="92" from-port="1" to-layer="93" to-port="0" />
		<edge from-layer="93" from-port="1" to-layer="94" to-port="0" />
		<edge from-layer="94" from-port="1" to-layer="95" to-port="1" />
		<edge from-layer="95" from-port="2" to-layer="96" to-port="0" />
		<edge from-layer="96" from-port="1" to-layer="99" to-port="0" />
		<edge from-layer="96" from-port="1" to-layer="97" to-port="0" />
		<edge from-layer="97" from-port="1" to-layer="98" to-port="0" />
		<edge from-layer="98" from-port="1" to-layer="104" to-port="0" />
		<edge from-layer="99" from-port="1" to-layer="100" to-port="0" />
		<edge from-layer="100" from-port="1" to-layer="101" to-port="0" />
		<edge from-layer="101" from-port="1" to-layer="102" to-port="0" />
		<edge from-layer="102" from-port="1" to-layer="103" to-port="0" />
		<edge from-layer="103" from-port="1" to-layer="104" to-port="1" />
		<edge from-layer="104" from-port="2" to-layer="105" to-port="0" />
		<edge from-layer="105" from-port="1" to-layer="111" to-port="0" />
		<edge from-layer="105" from-port="1" to-layer="106" to-port="0" />
		<edge from-layer="106" from-port="1" to-layer="107" to-port="0" />
		<edge from-layer="107" from-port="1" to-layer="108" to-port="0" />
		<edge from-layer="108" from-port="1" to-layer="109" to-port="0" />
		<edge from-layer="109" from-port="1" to-layer="110" to-port="0" />
		<edge from-layer="110" from-port="1" to-layer="111" to-port="1" />
		<edge from-layer="111" from-port="2" to-layer="112" to-port="0" />
		<edge from-layer="112" from-port="1" to-layer="118" to-port="0" />
		<edge from-layer="112" from-port="1" to-layer="113" to-port="0" />
		<edge from-layer="113" from-port="1" to-layer="114" to-port="0" />
		<edge from-layer="114" from-port="1" to-layer="115" to-port="0" />
		<edge from-layer="115" from-port="1" to-layer="116" to-port="0" />
		<edge from-layer="116" from-port="1" to-layer="117" to-port="0" />
		<edge from-layer="117" from-port="1" to-layer="118" to-port="1" />
		<edge from-layer="118" from-port="2" to-layer="119" to-port="0" />
		<edge from-layer="119" from-port="1" to-layer="125" to-port="0" />
		<edge from-layer="119" from-port="1" to-layer="120" to-port="0" />
		<edge from-layer="120" from-port="1" to-layer="121" to-port="0" />
		<edge from-layer="121" from-port="1" to-layer="122" to-port="0" />
		<edge from-layer="122" from-port="1" to-layer="123" to-port="0" />
		<edge from-layer="123" from-port="1" to-layer="124" to-port="0" />
		<edge from-layer="124" from-port="1" to-layer="125" to-port="1" />
		<edge from-layer="125" from-port="2" to-layer="126" to-port="0" />
		<edge from-layer="126" from-port="1" to-layer="132" to-port="0" />
		<edge from-layer="126" from-port="1" to-layer="127" to-port="0" />
		<edge from-layer="127" from-port="1" to-layer="128" to-port="0" />
		<edge from-layer="128" from-port="1" to-layer="129" to-port="0" />
		<edge from-layer="129" from-port="1" to-layer="130" to-port="0" />
		<edge from-layer="130" from-port="1" to-layer="131" to-port="0" />
		<edge from-layer="131" from-port="1" to-layer="132" to-port="1" />
		<edge from-layer="132" from-port="2" to-layer="133" to-port="0" />
		<edge from-layer="133" from-port="1" to-layer="139" to-port="0" />
		<edge from-layer="133" from-port="1" to-layer="134" to-port="0" />
		<edge from-layer="134" from-port="1" to-layer="135" to-port="0" />
		<edge from-layer="135" from-port="1" to-layer="136" to-port="0" />
		<edge from-layer="136" from-port="1" to-layer="137" to-port="0" />
		<edge from-layer="137" from-port="1" to-layer="138" to-port="0" />
		<edge from-layer="138" from-port="1" to-layer="139" to-port="1" />
		<edge from-layer="139" from-port="2" to-layer="140" to-port="0" />
		<edge from-layer="140" from-port="1" to-layer="146" to-port="0" />
		<edge from-layer="140" from-port="1" to-layer="141" to-port="0" />
		<edge from-layer="141" from-port="1" to-layer="142" to-port="0" />
		<edge from-layer="142" from-port="1" to-layer="143" to-port="0" />
		<edge from-layer="143" from-port="1" to-layer="144" to-port="0" />
		<edge from-layer="144" from-port="1" to-layer="145" to-port="0" />
		<edge from-layer="145" from-port="1" to-layer="146" to-port="1" />
		<edge from-layer="146" from-port="2" to-layer="147" to-port="0" />
		<edge from-layer="147" from-port="1" to-layer="153" to-port="0" />
		<edge from-layer="147" from-port="1" to-layer="148" to-port="0" />
		<edge from-layer="148" from-port="1" to-layer="149" to-port="0" />
		<edge from-layer="149" from-port="1" to-layer="150" to-port="0" />
		<edge from-layer="150" from-port="1" to-layer="151" to-port="0" />
		<edge from-layer="151" from-port="1" to-layer="152" to-port="0" />
		<edge from-layer="152" from-port="1" to-layer="153" to-port="1" />
		<edge from-layer="153" from-port="2" to-layer="154" to-port="0" />
		<edge from-layer="154" from-port="1" to-layer="160" to-port="0" />
		<edge from-layer="154" from-port="1" to-layer="155" to-port="0" />
		<edge from-layer="155" from-port="1" to-layer="156" to-port="0" />
		<edge from-layer="156" from-port="1" to-layer="157" to-port="0" />
		<edge from-layer="157" from-port="1" to-layer="158" to-port="0" />
		<edge from-layer="158" from-port="1" to-layer="159" to-port="0" />
		<edge from-layer="159" from-port="1" to-layer="160" to-port="1" />
		<edge from-layer="160" from-port="2" to-layer="161" to-port="0" />
		<edge from-layer="161" from-port="1" to-layer="167" to-port="0" />
		<edge from-layer="161" from-port="1" to-layer="162" to-port="0" />
		<edge from-layer="162" from-port="1" to-layer="163" to-port="0" />
		<edge from-layer="163" from-port="1" to-layer="164" to-port="0" />
		<edge from-layer="164" from-port="1" to-layer="165" to-port="0" />
		<edge from-layer="165" from-port="1" to-layer="166" to-port="0" />
		<edge from-layer="166" from-port="1" to-layer="167" to-port="1" />
		<edge from-layer="167" from-port="2" to-layer="168" to-port="0" />
		<edge from-layer="168" from-port="1" to-layer="174" to-port="0" />
		<edge from-layer="168" from-port="1" to-layer="169" to-port="0" />
		<edge from-layer="169" from-port="1" to-layer="170" to-port="0" />
		<edge from-layer="170" from-port="1" to-layer="171" to-port="0" />
		<edge from-layer="171" from-port="1" to-layer="172" to-port="0" />
		<edge from-layer="172" from-port="1" to-layer="173" to-port="0" />
		<edge from-layer="173" from-port="1" to-layer="174" to-port="1" />
		<edge from-layer="174" from-port="2" to-layer="175" to-port="0" />
		<edge from-layer="175" from-port="1" to-layer="178" to-port="0" />
		<edge from-layer="175" from-port="1" to-layer="176" to-port="0" />
		<edge from-layer="176" from-port="1" to-layer="177" to-port="0" />
		<edge from-layer="177" from-port="1" to-layer="183" to-port="0" />
		<edge from-layer="178" from-port="1" to-layer="179" to-port="0" />
		<edge from-layer="179" from-port="1" to-layer="180" to-port="0" />
		<edge from-layer="180" from-port="1" to-layer="181" to-port="0" />
		<edge from-layer="181" from-port="1" to-layer="182" to-port="0" />
		<edge from-layer="182" from-port="1" to-layer="183" to-port="1" />
		<edge from-layer="183" from-port="2" to-layer="184" to-port="0" />
		<edge from-layer="184" from-port="1" to-layer="190" to-port="0" />
		<edge from-layer="184" from-port="1" to-layer="185" to-port="0" />
		<edge from-layer="185" from-port="1" to-layer="186" to-port="0" />
		<edge from-layer="186" from-port="1" to-layer="187" to-port="0" />
		<edge from-layer="187" from-port="1" to-layer="188" to-port="0" />
		<edge from-layer="188" from-port="1" to-layer="189" to-port="0" />
		<edge from-layer="189" from-port="1" to-layer="190" to-port="1" />
		<edge from-layer="190" from-port="2" to-layer="191" to-port="0" />
		<edge from-layer="191" from-port="1" to-layer="197" to-port="0" />
		<edge from-layer="191" from-port="1" to-layer="192" to-port="0" />
		<edge from-layer="192" from-port="1" to-layer="193" to-port="0" />
		<edge from-layer="193" from-port="1" to-layer="194" to-port="0" />
		<edge from-layer="194" from-port="1" to-layer="195" to-port="0" />
		<edge from-layer="195" from-port="1" to-layer="196" to-port="0" />
		<edge from-layer="196" from-port="1" to-layer="197" to-port="1" />
		<edge from-layer="197" from-port="2" to-layer="198" to-port="0" />
		<edge from-layer="198" from-port="1" to-layer="204" to-port="0" />
		<edge from-layer="198" from-port="1" to-layer="199" to-port="0" />
		<edge from-layer="199" from-port="1" to-layer="200" to-port="0" />
		<edge from-layer="200" from-port="1" to-layer="201" to-port="0" />
		<edge from-layer="201" from-port="1" to-layer="202" to-port="0" />
		<edge from-layer="202" from-port="1" to-layer="203" to-port="0" />
		<edge from-layer="203" from-port="1" to-layer="204" to-port="1" />
		<edge from-layer="204" from-port="2" to-layer="205" to-port="0" />
		<edge from-layer="205" from-port="1" to-layer="211" to-port="0" />
		<edge from-layer="205" from-port="1" to-layer="206" to-port="0" />
		<edge from-layer="206" from-port="1" to-layer="207" to-port="0" />
		<edge from-layer="207" from-port="1" to-layer="208" to-port="0" />
		<edge from-layer="208" from-port="1" to-layer="209" to-port="0" />
		<edge from-layer="209" from-port="1" to-layer="210" to-port="0" />
		<edge from-layer="210" from-port="1" to-layer="211" to-port="1" />
		<edge from-layer="211" from-port="2" to-layer="212" to-port="0" />
		<edge from-layer="212" from-port="1" to-layer="218" to-port="0" />
		<edge from-layer="212" from-port="1" to-layer="213" to-port="0" />
		<edge from-layer="213" from-port="1" to-layer="214" to-port="0" />
		<edge from-layer="214" from-port="1" to-layer="215" to-port="0" />
		<edge from-layer="215" from-port="1" to-layer="216" to-port="0" />
		<edge from-layer="216" from-port="1" to-layer="217" to-port="0" />
		<edge from-layer="217" from-port="1" to-layer="218" to-port="1" />
		<edge from-layer="218" from-port="2" to-layer="219" to-port="0" />
		<edge from-layer="219" from-port="1" to-layer="225" to-port="0" />
		<edge from-layer="219" from-port="1" to-layer="220" to-port="0" />
		<edge from-layer="220" from-port="1" to-layer="221" to-port="0" />
		<edge from-layer="221" from-port="1" to-layer="222" to-port="0" />
		<edge from-layer="222" from-port="1" to-layer="223" to-port="0" />
		<edge from-layer="223" from-port="1" to-layer="224" to-port="0" />
		<edge from-layer="224" from-port="1" to-layer="225" to-port="1" />
		<edge from-layer="225" from-port="2" to-layer="226" to-port="0" />
		<edge from-layer="226" from-port="1" to-layer="232" to-port="0" />
		<edge from-layer="226" from-port="1" to-layer="227" to-port="0" />
		<edge from-layer="227" from-port="1" to-layer="228" to-port="0" />
		<edge from-layer="228" from-port="1" to-layer="229" to-port="0" />
		<edge from-layer="229" from-port="1" to-layer="230" to-port="0" />
		<edge from-layer="230" from-port="1" to-layer="231" to-port="0" />
		<edge from-layer="231" from-port="1" to-layer="232" to-port="1" />
		<edge from-layer="232" from-port="2" to-layer="233" to-port="0" />
		<edge from-layer="233" from-port="1" to-layer="239" to-port="0" />
		<edge from-layer="233" from-port="1" to-layer="234" to-port="0" />
		<edge from-layer="234" from-port="1" to-layer="235" to-port="0" />
		<edge from-layer="235" from-port="1" to-layer="236" to-port="0" />
		<edge from-layer="236" from-port="1" to-layer="237" to-port="0" />
		<edge from-layer="237" from-port="1" to-layer="238" to-port="0" />
		<edge from-layer="238" from-port="1" to-layer="239" to-port="1" />
		<edge from-layer="239" from-port="2" to-layer="240" to-port="0" />
		<edge from-layer="240" from-port="1" to-layer="246" to-port="0" />
		<edge from-layer="240" from-port="1" to-layer="241" to-port="0" />
		<edge from-layer="241" from-port="1" to-layer="242" to-port="0" />
		<edge from-layer="242" from-port="1" to-layer="243" to-port="0" />
		<edge from-layer="243" from-port="1" to-layer="244" to-port="0" />
		<edge from-layer="244" from-port="1" to-layer="245" to-port="0" />
		<edge from-layer="245" from-port="1" to-layer="246" to-port="1" />
		<edge from-layer="246" from-port="2" to-layer="247" to-port="0" />
		<edge from-layer="247" from-port="1" to-layer="253" to-port="0" />
		<edge from-layer="247" from-port="1" to-layer="248" to-port="0" />
		<edge from-layer="248" from-port="1" to-layer="249" to-port="0" />
		<edge from-layer="249" from-port="1" to-layer="250" to-port="0" />
		<edge from-layer="250" from-port="1" to-layer="251" to-port="0" />
		<edge from-layer="251" from-port="1" to-layer="252" to-port="0" />
		<edge from-layer="252" from-port="1" to-layer="253" to-port="1" />
		<edge from-layer="253" from-port="2" to-layer="254" to-port="0" />
		<edge from-layer="254" from-port="1" to-layer="260" to-port="0" />
		<edge from-layer="254" from-port="1" to-layer="255" to-port="0" />
		<edge from-layer="255" from-port="1" to-layer="256" to-port="0" />
		<edge from-layer="256" from-port="1" to-layer="257" to-port="0" />
		<edge from-layer="257" from-port="1" to-layer="258" to-port="0" />
		<edge from-layer="258" from-port="1" to-layer="259" to-port="0" />
		<edge from-layer="259" from-port="1" to-layer="260" to-port="1" />
		<edge from-layer="260" from-port="2" to-layer="261" to-port="0" />
		<edge from-layer="261" from-port="1" to-layer="262" to-port="0" />
		<edge from-layer="262" from-port="1" to-layer="263" to-port="0" />
		<edge from-layer="263" from-port="1" to-layer="264" to-port="0" />
		<edge from-layer="264" from-port="1" to-layer="265" to-port="0" />
	</edges>
	<statistics>
		<layer>
			<name>Mul_12493/Fused_Mul_/FusedScaleShift_</name>
			<min>-7.120130, -5.668603, -5.736889</min>
			<max>13.562521, 15.389074, 13.017159</max>
		</layer>
		<layer>
			<name>bottleneck1_1/add</name>
			<min>… -0.218504</min>
			<max>… 20.879169</max>
		</layer>
		<layer>
			<name>bottleneck1_1/dim_inc/conv</name>
			<min>… -0.345242</min>
			<max>… 0.086398</max>
		</layer>
		<layer>
			<name>bottleneck1_1/dim_red/conv</name>
			<min>-7.396273, -4.580756, -6.863207, -2.906780, 1.002503, -14.737078, -8.282558, -17.188934</min>
			<max>6.041114, 2.764296, 4.721272, 2.426322, 4.578358, -0.338112, 4.541578, -5.283562</max>
		</layer>
		<layer>
			<name>bottleneck1_1/dim_red/fn</name>
			<min>-0.999386, -0.989753, -0.998954, -0.945349, 1.002503, -1.000000, -0.999747, -1.000000</min>
			<max>6.041114, 2.764296, 4.721272, 2.426322, 4.578358, -0.286885, 4.541578, -0.994926</max>
		</layer>
		<layer>
			<name>bottleneck1_1/fn</name>
			<min>… -0.196280</min>
			<max>… 20.879169</max>
		</layer>
		<layer>
			<name>bottleneck1_1/inner/dw1/conv</name>
			<min>-19.671192, -5.106087, -18.558472, -16.189697, -19.064718, -0.526482, -7.407589, 4.510230</min>
			<max>18.543358, 7.775520, 20.630268, 18.644180, 21.600159, 1.647352, 9.285257, 10.118117</max>
		</layer>
		<layer>
			<name>bottleneck1_1/inner/dw1/fn</name>
			<min>-1.000000, -0.993940, -1.000000, -1.000000, -1.000000, -0.409321, -0.999393, 4.510230</min>
			<max>18.543358, 7.775520, 20.630268, 18.644180, 21.600159, 1.647352, 9.285257, 10.118117</max>
		</layer>
		<layer>
			<name>bottleneck1_2/add</name>
			<min>… -0.436227</min>
			<max>… 20.722376</max>
		</layer>
		<layer>
			<name>bottleneck1_2/dim_inc/conv</name>
			<min>… -0.449735</min>
			<max>… 0.019685</max>
		</layer>
		<layer>
			<name>bottleneck1_2/dim_red/conv</name>
			<min>-20.891157, 0.067283, -5.106323, -1.911888, -1.642627, -24.233498, -1.554183, -0.075884</min>
			<max>8.362596, 4.127777, 7.128295, 1.765620, 1.994277, 1.864329, 6.865554, 4.269201</max>
		</layer>
		<layer>
			<name>bottleneck1_2/dim_red/fn</name>
			<min>-1.000000, 0.067283, -0.993942, -0.852199, -0.806529, -1.000000, -0.788638, -0.073076</min>
			<max>8.362596, 4.127777, 7.128295, 1.765620, 1.994277, 1.864329, 6.865554, 4.269201</max>
		</layer>
		<layer>
			<name>bottleneck1_2/fn</name>
			<min>… -0.353529</min>
			<max>… 20.722376</max>
		</layer>
		<layer>
			<name>bottleneck1_2/inner/dw1/conv</name>
			<min>-9.355325, -25.260324, -15.274032, -19.645844, -11.161282, -7.318792, -28.477499, -33.485447</min>
			<max>8.853566, 14.186331, 7.055839, 18.598721, 8.201917, 9.166390, 18.876034, 17.614910</max>
		</layer>
		<layer>
			<name>bottleneck1_2/inner/dw1/fn</name>
			<min>-0.999914, -1.000000, -1.000000, -1.000000, -0.999986, -0.999337, -1.000000, -1.000000</min>
			<max>8.853566, 14.186331, 7.055839, 18.598721, 8.201917, 9.166390, 18.876034, 17.614910</max>
		</layer>
		<layer>
			<name>bottleneck1_3/add</name>
			<min>… -0.963774</min>
			<max>… 20.500851</max>
		</layer>
		<layer>
			<name>bottleneck1_3/dim_inc/conv</name>
			<min>… -0.892270</min>
			<max>… 0.910987</max>
		</layer>
		<layer>
			<name>bottleneck1_3/dim_red/conv</name>
			<min>-2.327455, -2.844892, -1.546554, -4.414752, -5.067569, -3.616259, -9.538733, -4.229855</min>
			<max>1.458002, 2.249384, 0.471670, 4.640099, 3.745646, 4.038425, 3.247506, 1.572157</max>
		</layer>
		<layer>
			<name>bottleneck1_3/dim_red/fn</name>
			<min>-0.902456, -0.941859, -0.787019, -0.987902, -0.993702, -0.973117, -0.999928, -0.985445</min>
			<max>1.458002, 2.249384, 0.471670, 4.640099, 3.745646, 4.038425, 3.247506, 1.572157</max>
		</layer>
		<layer>
			<name>bottleneck1_3/fn</name>
			<min>… -0.618549</min>
			<max>… 20.500851</max>
		</layer>
		<layer>
			<name>bottleneck1_3/inner/dw1/conv</name>
			<min>-12.557264, -12.989850, -21.506453, -15.683142, -7.499571, -3.985674, -17.555624, -8.852225</min>
			<max>14.031470, 15.382062, 15.327551, 17.116966, 13.067731, 9.913281, 16.001396, 10.942391</max>
		</layer>
		<layer>
			<name>bottleneck1_3/inner/dw1/fn</name>
			<min>-0.999996, -0.999998, -1.000000, -1.000000, -0.999447, -0.981420, -1.000000, -0.999857</min>
			<max>14.031470, 15.382062, 15.327551, 17.116966, 13.067731, 9.913281, 16.001396, 10.942391</max>
		</layer>
		<layer>
			<name>bottleneck1_4/add</name>
			<min>… -0.958622</min>
			<max>… 20.226677</max>
		</layer>
		<layer>
			<name>bottleneck1_4/dim_inc/conv</name>
			<min>… -0.691586</min>
			<max>… 0.317223</max>
		</layer>
		<layer>
			<name>bottleneck1_4/dim_red/conv</name>
			<min>-4.177619, -2.730164, -7.078718, -4.474241, -4.036018, -6.531644, -0.676954, -16.393648</min>
			<max>1.684749, 1.867833, 7.373127, 4.977448, 4.678093, 6.409386, 2.787849, 8.670043</max>
		</layer>
		<layer>
			<name>bottleneck1_4/dim_red/fn</name>
			<min>-0.984665, -0.934791, -0.999157, -0.988601, -0.982332, -0.998543, -0.491837, -1.000000</min>
			<max>1.684749, 1.867833, 7.373127, 4.977448, 4.678093, 6.409386, 2.787849, 8.670043</max>
		</layer>
		<layer>
			<name>bottleneck1_4/fn</name>
			<min>… -0.616579</min>
			<max>… 20.226677</max>
		</layer>
		<layer>
			<name>bottleneck1_4/inner/dw1/conv</name>
			<min>-9.088463, -12.296615, -21.049528, -7.064259, -11.812977, -23.206543, -16.512268, 1.261742</min>
			<max>10.026345, 14.657917, 24.635870, 11.249266, 12.878140, 12.412804, 14.088315, 4.687700</max>
		</layer>
		<layer>
			<name>bottleneck1_4/inner/dw1/fn</name>
			<min>-0.999887, -0.999995, -1.000000, -0.999145, -0.999993, -1.000000, -1.000000, 1.261742</min>
			<max>10.026345, 14.657917, 24.635870, 11.249266, 12.878140, 12.412804, 14.088315, 4.687700</max>
		</layer>
		<layer>
			<name>bottleneck2_0/add</name>
			<min>… -8.356693</min>
			<max>… 6.423044</max>
		</layer>
		<layer>
			<name>bottleneck2_0/dim_inc/conv</name>
			<min>… -7.878293</min>
			<max>… 5.036358</max>
		</layer>
		<layer>
			<name>bottleneck2_0/dim_red/conv</name>
			<min>-2.626269, -0.972302, -8.234817, -1.136650, -8.413000, -2.460077, -6.601686, -3.881155, -5.038029, -8.481220, -6.818689, -10.966976, -13.228790, -4.087008, -1.519418, -0.642658</min>
			<max>4.694610, 2.649089, 3.866598, 1.488710, 9.437274, 8.083673, 2.321937, 3.028024, 10.760024, 7.882014, 3.757521, 8.788711, 0.894357, 4.561892, 0.301554, 3.784660</max>
		</layer>
		<layer>
			<name>bottleneck2_0/dim_red/fn</name>
			<min>-0.927652, -0.621788, -0.999735, -0.679108, -0.999778, -0.914572, -0.998642, -0.979373, -0.993513, -0.999793, -0.998907, -0.999983, -0.999998, -0.983211, -0.781161, -0.474107</min>
			<max>4.694610, 2.649089, 3.866598, 1.488710, 9.437274, 8.083673, 2.321937, 3.028024, 10.760024, 7.882014, 3.757521, 8.788711, 0.894357, 4.561892, 0.301554, 3.784660</max>
		</layer>
		<layer>
			<name>bottleneck2_0/fn</name>
			<min>… -0.999765</min>
			<max>… 6.423044</max>
		</layer>
		<layer>
			<name>bottleneck2_0/inner/dw1/conv</name>
			<min>-12.335259, -2.236215, -3.069744, -5.349174, -9.013273, -12.818224, -1.493577, -11.141736, -1.866908, -1.022696, -8.113821, -10.069749, -1.700528, -1.402292, -1.227952, -11.754904</min>
			<max>9.186792, 5.983423, 2.934289, 4.371267, 3.147229, 5.063921, 4.687401, 18.857086, 5.747287, 6.545669, 8.597024, 2.039274, 6.129845, 7.132346, 9.610800, 8.088837</max>
		</layer>
		<layer>
			<name>bottleneck2_0/inner/dw1/fn</name>
			<min>-0.999996, -0.893138, -0.953567, -0.995248, -0.999878, -0.999997, -0.775432, -0.999986, -0.845399, -0.640376, -0.999701, -0.999958, -0.817413, -0.753967, -0.707108, -0.999992</min>
			<max>9.186792, 5.983423, 2.934289, 4.371267, 3.147229, 5.063921, 4.687401, 18.857086, 5.747287, 6.545669, 8.597024, 2.039274, 6.129845, 7.132346, 9.610800, 8.088837</max>
		</layer>
		<layer>
			<name>bottleneck2_0/skip/conv</name>
			<min>… -7.114757</min>
			<max>… 7.006426</max>
		</layer>
		<layer>
			<name>bottleneck2_0/skip/pooling</name>
			<min>… -0.552027</min>
			<max>… 20.226677</max>
		</layer>
		<layer>
			<name>bottleneck2_1/add</name>
			<min>… -3.993086</min>
			<max>… 6.967325</max>
		</layer>
		<layer>
			<name>bottleneck2_1/dim_inc/conv</name>
			<min>… -3.013163</min>
			<max>… 2.250091</max>
		</layer>
		<layer>
			<name>bottleneck2_1/dim_red/conv</name>
			<min>-1.069298, -1.815620, -10.715204, -2.131479, -2.744985, -0.880092, -2.114022, -1.985705, -2.402493, -1.704256, -3.748665, -8.991910, -1.851275, -1.516120, -6.250663, -5.966453</min>
			<max>0.599752, 2.864968, 0.665241, 2.331009, 3.495950, 2.769295, 2.893641, 2.260334, 1.787869, 7.075094, 2.087583, 1.073413, 3.291156, 2.412803, 4.101977, 0.595332</max>
		</layer>
		<layer>
			<name>bottleneck2_1/dim_red/fn</name>
			<min>-0.656751, -0.837263, -0.999978, -0.881338, -0.935751, -0.585255, -0.879249, -0.862716, -0.909508, -0.818092, -0.976451, -0.999876, -0.842963, -0.780438, -0.998071, -0.997437</min>
			<max>0.599752, 2.864968, 0.665241, 2.331009, 3.495950, 2.769295, 2.893641, 2.260334, 1.787869, 7.075094, 2.087583, 1.073413, 3.291156, 2.412803, 4.101977, 0.595332</max>
		</layer>
		<layer>
			<name>bottleneck2_1/fn</name>
			<min>… -0.981557</min>
			<max>… 6.967325</max>
		</layer>
		<layer>
			<name>bottleneck2_1/inner/dw1/conv</name>
			<min>-9.493544, -11.284316, -1.404909, -8.656385, -13.705165, -8.618054, -6.936151, -9.201682, -3.936682, -5.962725, -11.709400, -6.126229, -10.136927, -9.381717, -0.590929, -2.772408</min>
			<max>6.941017, 9.002085, 17.640856, 6.970858, 10.875484, 8.413204, 7.653032, 8.035670, 5.763997, 2.336530, 8.376019, 8.388552, 9.351803, 7.576174, 5.243914, 5.510173</max>
		</layer>
		<layer>
			<name>bottleneck2_1/inner/dw1/fn</name>
			<min>-0.999925, -0.999987, -0.754611, -0.999826, -0.999999, -0.999819, -0.999028, -0.999899, -0.980487, -0.997427, -0.999992, -0.997815, -0.999960, -0.999916, -0.446187, -0.937489</min>
			<max>6.941017, 9.002085, 17.640856, 6.970858, 10.875484, 8.413204, 7.653032, 8.035670, 5.763997, 2.336530, 8.376019, 8.388552, 9.351803, 7.576174, 5.243914, 5.510173</max>
		</layer>
		<layer>
			<name>bottleneck2_2/add</name>
			<min>… -4.814261</min>
			<max>… 6.715151</max>
		</layer>
		<layer>
			<name>bottleneck2_2/dim_inc/conv</name>
			<min>… -4.129224</min>
			<max>… 3.575343</max>
		</layer>
		<layer>
			<name>bottleneck2_2/dim_red/conv</name>
			<min>-0.433234, -8.536166, -6.278297, -1.952134, -3.332822, -7.492125, -0.684195, -0.006667, -5.387578, -1.392088, -7.196452, -2.375334, -3.519688, -1.011507, -4.727675, -0.617052</min>
			<max>0.892078, 5.084764, 2.793761, 2.930990, 5.096645, 8.638723, 4.141168, 3.513711, 4.242118, 2.098262, 5.033945, 9.534998, 1.366521, 0.707664, 2.561395, 3.635218</max>
		</layer>
		<layer>
			<name>bottleneck2_2/dim_red/fn</name>
			<min>-0.351591, -0.999804, -0.998123, -0.858029, -0.964308, -0.999443, -0.495504, -0.006645, -0.995427, -0.751444, -0.999251, -0.907017, -0.970391, -0.636330, -0.991153, -0.460468</min>
			<max>0.892078, 5.084764, 2.793761, 2.930990, 5.096645, 8.638723, 4.141168, 3.513711, 4.242118, 2.098262, 5.033945, 9.534998, 1.366521, 0.707664, 2.561395, 3.635218</max>
		</layer>
		<layer>
			<name>bottleneck2_2/fn</name>
			<min>… -0.991887</min>
			<max>… 6.715151</max>
		</layer>
		<layer>
			<name>bottleneck2_2/inner/dw1/conv</name>
			<min>-2.205916, -2.072039, -4.691097, -8.038419, -9.561757, -11.632601, -6.171033, -5.414584, -2.011960, -2.057735, -10.054876, -3.161914, -6.500736, -4.676087, -4.655556, -11.745420</min>
			<max>7.697644, 5.607387, 3.945029, 8.123752, 9.251884, 1.264177, 6.300986, 6.543183, 5.170800, 4.071352, 5.224114, 7.952275, 7.728321, 6.017592, 5.373707, 7.741210</max>
		</layer>
		<layer>
			<name>bottleneck2_2/inner/dw1/fn</name>
			<min>-0.889850, -0.874071, -0.990823, -0.999677, -0.999930, -0.999991, -0.997911, -0.995549, -0.866274, -0.872257, -0.999957, -0.957655, -0.998498, -0.990685, -0.990491, -0.999992</min>
			<max>7.697644, 5.607387, 3.945029, 8.123752, 9.251884, 1.264177, 6.300986, 6.543183, 5.170800, 4.071352, 5.224114, 7.952275, 7.728321, 6.017592, 5.373707, 7.741210</max>
		</layer>
		<layer>
			<name>bottleneck2_3/add</name>
			<min>… -3.202657</min>
			<max>… 7.950714</max>
		</layer>
		<layer>
			<name>bottleneck2_3/dim_inc/conv</name>
			<min>… -2.766244</min>
			<max>… 6.023848</max>
		</layer>
		<layer>
			<name>bottleneck2_3/dim_red/conv</name>
			<min>-5.938884, -3.415959, -2.227693, -5.726593, -5.420804, -4.065203, -8.332079, -2.251621, -6.059008, -1.785221, -7.687798, -0.839964, -6.363628, -0.366038, -0.433544, -7.784294</min>
			<max>3.917882, 3.626775, 2.364025, 5.280775, 1.225716, 5.089266, 7.568008, 4.182680, -0.495549, 2.665694, 4.667020, 2.924115, 4.351041, 3.017240, 3.049337, 1.590083</max>
		</layer>
		<layer>
			<name>bottleneck2_3/dim_red/fn</name>
			<min>-0.997365, -0.967155, -0.892223, -0.996742, -0.995576, -0.982840, -0.999759, -0.894771, -0.997663, -0.832240, -0.999542, -0.568274, -0.998277, -0.306524, -0.351792, -0.999584</min>
			<max>3.917882, 3.626775, 2.364025, 5.280775, 1.225716, 5.089266, 7.568008, 4.182680, -0.390763, 2.665694, 4.667020, 2.924115, 4.351041, 3.017240, 3.049337, 1.590083</max>
		</layer>
		<layer>
			<name>bottleneck2_3/fn</name>
			<min>… -0.959346</min>
			<max>… 7.950714</max>
		</layer>
		<layer>
			<name>bottleneck2_3/inner/dw1/conv</name>
			<min>-2.643012, -2.711244, -6.915109, -4.801903, -5.859405, -6.588782, -4.957845, -7.472743, 0.142666, -3.490138, -4.230027, -12.186247, -2.207057, -14.277690, -7.700678, -0.431547</min>
			<max>2.866252, 5.059028, 5.049831, 5.779889, 5.946259, 4.459789, 3.147353, 8.509109, 7.531433, 6.250849, 7.928253, 3.785757, 4.158384, 9.050066, 7.395116, 7.604836</max>
		</layer>
		<layer>
			<name>bottleneck2_3/inner/dw1/fn</name>
			<min>-0.928853, -0.933546, -0.999007, -0.991786, -0.997147, -0.998624, -0.992972, -0.999432, 0.142666, -0.969503, -0.985448, -0.999995, -0.889976, -0.999999, -0.999547, -0.350497</min>
			<max>2.866252, 5.059028, 5.049831, 5.779889, 5.946259, 4.459789, 3.147353, 8.509109, 7.531433, 6.250849, 7.928253, 3.785757, 4.158384, 9.050066, 7.395116, 7.604836</max>
		</layer>
		<layer>
			<name>bottleneck2_4/add</name>
			<min>… -6.324943</min>
			<max>… 10.680426</max>
		</layer>
		<layer>
			<name>bottleneck2_4/dim_inc/conv</name>
			<min>… -5.690945</min>
			<max>… 4.323136</max>
		</layer>
		<layer>
			<name>bottleneck2_4/dim_red/conv</name>
			<min>-1.950438, -8.959514, -6.334531, -1.130779, -10.306721, -5.624157, -6.010719, -8.895892, -11.657478, -9.878525, -1.972639, -3.887758, -5.898642, -4.579563, -2.867060, -3.677915</min>
			<max>3.064765, 7.356266, 1.633392, 1.924415, 1.460685, 4.273993, 2.255961, 6.244344, 3.924523, 4.891216, 4.952485, 1.164497, 3.563298, 5.188643, 0.616023, 7.612111</max>
		</layer>
		<layer>
			<name>bottleneck2_4/dim_red/fn</name>
			<min>-0.857788, -0.999871, -0.998226, -0.677218, -0.999967, -0.996390, -0.997548, -0.999863, -0.999991, -0.999949, -0.860911, -0.979509, -0.997257, -0.989741, -0.943134, -0.974724</min>
			<max>3.064765, 7.356266, 1.633392, 1.924415, 1.460685, 4.273993, 2.255961, 6.244344, 3.924523, 4.891216, 4.952485, 1.164497, 3.563298, 5.188643, 0.616023, 7.612111</max>
		</layer>
		<layer>
			<name>bottleneck2_4/fn</name>
			<min>… -0.998209</min>
			<max>… 10.680426</max>
		</layer>
		<layer>
			<name>bottleneck2_4/inner/dw1/conv</name>
			<min>-16.812040, -1.960251, -0.669365, -10.019979, -1.670423, -2.397787, -3.687490, -4.522236, -1.005855, -0.794260, -10.737195, -14.427883, -4.402170, -1.402516, -10.284297, -14.417738</min>
			<max>9.574113, 9.028422, 4.756564, 6.586482, 13.576186, 6.180863, 7.375942, 5.519973, 6.009267, 5.119092, 7.977401, 7.181560, 6.106961, 5.701845, 8.036952, 6.387938</max>
		</layer>
		<layer>
			<name>bottleneck2_4/inner/dw1/fn</name>
			<min>-1.000000, -0.859177, -0.487966, -0.999955, -0.811833, -0.909081, -0.974965, -0.989135, -0.634268, -0.548085, -0.999978, -0.999999, -0.987749, -0.754023, -0.999966, -0.999999</min>
			<max>9.574113, 9.028422, 4.756564, 6.586482, 13.576186, 6.180863, 7.375942, 5.519973, 6.009267, 5.119092, 7.977401, 7.181560, 6.106961, 5.701845, 8.036952, 6.387938</max>
		</layer>
		<layer>
			<name>bottleneck2_5/add</name>
			<min>… -4.380938</min>
			<max>… 10.510539</max>
		</layer>
		<layer>
			<name>bottleneck2_5/dim_inc/conv</name>
			<min>… -3.998657</min>
			<max>… 3.365893</max>
		</layer>
		<layer>
			<name>bottleneck2_5/dim_red/conv</name>
			<min>-7.674044, -8.419442, -5.473898, -2.176431, -1.465366, -8.404817, -2.461236, -9.938287, -8.711225, -6.348848, -3.324138, -10.767583, -5.941636, -6.430238, -8.694327, -8.067750</min>
			<max>7.235582, 7.362279, 3.648047, 3.609766, 0.382227, 4.865057, 4.095931, 1.729454, 5.551122, 10.157844, 3.686947, 3.692531, 4.427403, 4.283272, 3.097606, 3.702650</max>
		</layer>
		<layer>
			<name>bottleneck2_5/dim_red/fn</name>
			<min>-0.999535, -0.999779, -0.995805, -0.886554, -0.769007, -0.999776, -0.914671, -0.999952, -0.999835, -0.998251, -0.963996, -0.999979, -0.997372, -0.998388, -0.999832, -0.999687</min>
			<max>7.235582, 7.362279, 3.648047, 3.609766, 0.382227, 4.865057, 4.095931, 1.729454, 5.551122, 10.157844, 3.686947, 3.692531, 4.427403, 4.283272, 3.097606, 3.702650</max>
		</layer>
		<layer>
			<name>bottleneck2_5/fn</name>
			<min>… -0.987486</min>
			<max>… 10.510539</max>
		</layer>
		<layer>
			<name>bottleneck2_5/inner/dw1/conv</name>
			<min>-2.068516, -7.091873, -4.811638, -4.287251, -11.305936, -6.190439, -4.551524, -5.273549, -2.511656, -2.579273, -11.875903, -3.451707, -6.415327, -4.642273, -6.992614, -4.767755</min>
			<max>3.402655, 1.655514, 4.904355, 5.047729, 7.550903, 2.291457, 5.867002, 5.611284, 5.920641, 7.146389, 7.291503, 4.615017, 6.706851, 5.704686, 4.453271, 2.685685</max>
		</layer>
		<layer>
			<name>bottleneck2_5/inner/dw1/fn</name>
			<min>-0.873627, -0.999168, -0.991865, -0.986257, -0.999988, -0.997951, -0.989449, -0.994875, -0.918866, -0.924171, -0.999993, -0.968309, -0.998364, -0.990364, -0.999081, -0.991501</min>
			<max>3.402655, 1.655514, 4.904355, 5.047729, 7.550903, 2.291457, 5.867002, 5.611284, 5.920641, 7.146389, 7.291503, 4.615017, 6.706851, 5.704686, 4.453271, 2.685685</max>
		</layer>
		<layer>
			<name>bottleneck2_6/add</name>
			<min>… -5.406910</min>
			<max>… 13.082796</max>
		</layer>
		<layer>
			<name>bottleneck2_6/dim_inc/conv</name>
			<min>… -4.505597</min>
			<max>… 5.871362</max>
		</layer>
		<layer>
			<name>bottleneck2_6/dim_red/conv</name>
			<min>-8.441236, -3.842080, -2.833013, -3.496712, -3.875100, -5.066081, -6.264734, -0.361163, -0.681850, -6.347535, -1.569097, -3.174565, -2.056094, -2.183790, -4.277514, -1.093783</min>
			<max>1.436688, 5.406220, 6.718824, 4.699172, 3.183889, 2.367554, 3.916136, 3.701346, 3.568942, 3.448889, 3.907783, 0.990594, 2.434559, 1.213728, 4.236415, 5.204553</max>
		</layer>
		<layer>
			<name>bottleneck2_6/dim_red/fn</name>
			<min>-0.999784, -0.978551, -0.941165, -0.969703, -0.979248, -0.993693, -0.998098, -0.303134, -0.494319, -0.998249, -0.791767, -0.958188, -0.872047, -0.887386, -0.986123, -0.665053</min>
			<max>1.436688, 5.406220, 6.718824, 4.699172, 3.183889, 2.367554, 3.916136, 3.701346, 3.568942, 3.448889, 3.907783, 0.990594, 2.434559, 1.213728, 4.236415, 5.204553</max>
		</layer>
		<layer>
			<name>bottleneck2_6/fn</name>
			<min>… -0.995515</min>
			<max>… 13.082796</max>
		</layer>
		<layer>
			<name>bottleneck2_6/inner/dw1/conv</name>
			<min>-4.994941, -4.604521, -9.679754, -6.674915, -3.504064, -8.258477, -6.734983, -13.262200, -12.287689, -4.742088, -11.916043, -8.721704, -10.556084, -10.540905, -6.214277, -7.744675</min>
			<max>7.687989, 3.725602, 8.650428, 7.163728, 3.940959, 4.697852, 5.501323, 6.780807, 3.761489, 5.802354, 7.299142, 5.185559, 7.710688, 6.129491, 4.713234, 7.148224</max>
		</layer>
		<layer>
			<name>bottleneck2_6/inner/dw1/fn</name>
			<min>-0.993228, -0.989994, -0.999937, -0.998738, -0.969925, -0.999741, -0.998811, -0.999998, -0.999995, -0.991280, -0.999993, -0.999837, -0.999974, -0.999974, -0.997999, -0.999567</min>
			<max>7.687989, 3.725602, 8.650428, 7.163728, 3.940959, 4.697852, 5.501323, 6.780807, 3.761489, 5.802354, 7.299142, 5.185559, 7.710688, 6.129491, 4.713234, 7.148224</max>
		</layer>
		<layer>
			<name>bottleneck2_7/add</name>
			<min>… -4.704447</min>
			<max>… 13.618603</max>
		</layer>
		<layer>
			<name>bottleneck2_7/dim_inc/conv</name>
			<min>… -3.953962</min>
			<max>… 5.065161</max>
		</layer>
		<layer>
			<name>bottleneck2_7/dim_red/conv</name>
			<min>-0.546701, -2.758628, -5.075199, -5.383036, -4.421546, -1.281013, -2.256896, -3.347338, -3.623867, -3.662737, -1.359483, -4.627317, -2.081766, -2.607506, -3.282914, -6.006057</min>
			<max>3.923366, 5.705538, 1.389515, 1.516760, 2.933727, 3.786384, 3.730936, 4.852806, 4.258191, 2.218702, 3.991544, 3.994282, 5.863692, 1.015060, 3.812343, 7.228939</max>
		</layer>
		<layer>
			<name>bottleneck2_7/dim_red/fn</name>
			<min>-0.421143, -0.936621, -0.993750, -0.995406, -0.987984, -0.722244, -0.895325, -0.964822, -0.973321, -0.974338, -0.743207, -0.990219, -0.875290, -0.926282, -0.962481, -0.997536</min>
			<max>3.923366, 5.705538, 1.389515, 1.516760, 2.933727, 3.786384, 3.730936, 4.852806, 4.258191, 2.218702, 3.991544, 3.994282, 5.863692, 1.015060, 3.812343, 7.228939</max>
		</layer>
		<layer>
			<name>bottleneck2_7/fn</name>
			<min>… -0.990945</min>
			<max>… 13.618603</max>
		</layer>
		<layer>
			<name>bottleneck2_7/inner/dw1/conv</name>
			<min>-13.820528, -9.566684, -10.267765, -15.767585, -5.738689, -15.775642, -13.288781, -10.391815, -11.253143, -11.059390, -16.449921, -9.579412, -11.836585, -12.301133, -16.502525, -9.763925</min>
			<max>6.618238, 11.266584, 8.306283, 11.676633, 6.376801, 10.216818, 10.425684, 7.683771, 8.762650, 8.079937, 9.084262, 10.137392, 4.028833, 7.494783, 11.192391, 10.077606</max>
		</layer>
		<layer>
			<name>bottleneck2_7/inner/dw1/fn</name>
			<min>-0.999999, -0.999930, -0.999965, -1.000000, -0.996781, -1.000000, -0.999998, -0.999969, -0.999987, -0.999984, -1.000000, -0.999931, -0.999993, -0.999995, -1.000000, -0.999943</min>
			<max>6.618238, 11.266584, 8.306283, 11.676633, 6.376801, 10.216818, 10.425684, 7.683771, 8.762650, 8.079937, 9.084262, 10.137392, 4.028833, 7.494783, 11.192391, 10.077606</max>
		</layer>
		<layer>
			<name>bottleneck2_8/add</name>
			<min>… -3.824309</min>
			<max>… 14.454264</max>
		</layer>
		<layer>
			<name>bottleneck2_8/dim_inc/conv</name>
			<min>… -3.004805</min>
			<max>… 3.019766</max>
		</layer>
		<layer>
			<name>bottleneck2_8/dim_red/conv</name>
			<min>-9.368825, -2.412368, -2.904809, -4.410355, -2.114259, -0.880642, -6.078107, -1.823177, -1.140641, -1.849119, -4.788888, -1.420927, -1.657046, -4.139878, -4.196767, -1.337615</min>
			<max>5.986492, 1.272851, 4.221314, 7.872302, 4.759173, 4.896449, 3.055326, 3.797200, 4.590132, 0.893519, 3.682830, 0.266158, 3.298688, 2.068562, 5.490419, 0.299339</max>
		</layer>
		<layer>
			<name>bottleneck2_8/dim_red/fn</name>
			<min>-0.999915, -0.910397, -0.945241, -0.987849, -0.879277, -0.585483, -0.997707, -0.838488, -0.680386, -0.842624, -0.991678, -0.758510, -0.809298, -0.984075, -0.984956, -0.737529</min>
			<max>5.986492, 1.272851, 4.221314, 7.872302, 4.759173, 4.896449, 3.055326, 3.797200, 4.590132, 0.893519, 3.682830, 0.266158, 3.298688, 2.068562, 5.490419, 0.299339</max>
		</layer>
		<layer>
			<name>bottleneck2_8/fn</name>
			<min>… -0.978166</min>
			<max>… 14.454264</max>
		</layer>
		<layer>
			<name>bottleneck2_8/inner/dw1/conv</name>
			<min>-1.607494, -18.005003, -13.177943, -21.668161, -18.574696, -14.056815, -7.505962, -10.078328, -19.093287, -12.431109, -11.799254, -19.109097, -13.663980, -12.996055, -11.452561, -14.886694</min>
			<max>10.712976, 9.340259, 10.305511, 11.818859, 9.620708, 8.344110, 8.400421, 13.523439, 9.714591, 9.442843, 9.671747, 8.910580, 12.990641, 8.269866, 9.350243, 11.266026</max>
		</layer>
		<layer>
			<name>bottleneck2_8/inner/dw1/fn</name>
			<min>-0.799611, -1.000000, -0.999998, -1.000000, -1.000000, -0.999999, -0.999450, -0.999958, -1.000000, -0.999996, -0.999992, -1.000000, -0.999999, -0.999998, -0.999989, -1.000000</min>
			<max>10.712976, 9.340259, 10.305511, 11.818859, 9.620708, 8.344110, 8.400421, 13.523439, 9.714591, 9.442843, 9.671747, 8.910580, 12.990641, 8.269866, 9.350243, 11.266026</max>
		</layer>
		<layer>
			<name>bottleneck3_0/add</name>
			<min>… -9.772878</min>
			<max>… 9.577641</max>
		</layer>
		<layer>
			<name>bottleneck3_0/dim_inc/conv</name>
			<min>… -5.496072</min>
			<max>… 3.740582</max>
		</layer>
		<layer>
			<name>bottleneck3_0/dim_red/conv</name>
			<min>… -4.504955</min>
			<max>… 8.836663</max>
		</layer>
		<layer>
			<name>bottleneck3_0/dim_red/fn</name>
			<min>… -0.988946</min>
			<max>… 8.836663</max>
		</layer>
		<layer>
			<name>bottleneck3_0/fn</name>
			<min>… -0.999943</min>
			<max>… 9.577641</max>
		</layer>
		<layer>
			<name>bottleneck3_0/inner/dw1/conv</name>
			<min>… -2.893585</min>
			<max>… 2.990319</max>
		</layer>
		<layer>
			<name>bottleneck3_0/inner/dw1/fn</name>
			<min>… -0.944623</min>
			<max>… 2.990319</max>
		</layer>
		<layer>
			<name>bottleneck3_0/skip/conv</name>
			<min>… -9.383993</min>
			<max>… 8.489510</max>
		</layer>
		<layer>
			<name>bottleneck3_0/skip/pooling</name>
			<min>… -0.954759</min>
			<max>… 14.454264</max>
		</layer>
		<layer>
			<name>bottleneck3_1/add</name>
			<min>… -7.930758</min>
			<max>… 12.867975</max>
		</layer>
		<layer>
			<name>bottleneck3_1/dim_inc/conv</name>
			<min>… -6.931486</min>
			<max>… 6.151681</max>
		</layer>
		<layer>
			<name>bottleneck3_1/dim_red/conv</name>
			<min>… -0.076759</min>
			<max>… 2.908580</max>
		</layer>
		<layer>
			<name>bottleneck3_1/dim_red/fn</name>
			<min>… -0.073887</min>
			<max>… 2.908580</max>
		</layer>
		<layer>
			<name>bottleneck3_1/fn</name>
			<min>… -0.999640</min>
			<max>… 12.867975</max>
		</layer>
		<layer>
			<name>bottleneck3_1/inner/dw1/conv</name>
			<min>… -11.410931</min>
			<max>… 8.030669</max>
		</layer>
		<layer>
			<name>bottleneck3_1/inner/dw1/fn</name>
			<min>… -0.999989</min>
			<max>… 8.030669</max>
		</layer>
		<layer>
			<name>bottleneck3_10/add</name>
			<min>… -6.420025</min>
			<max>… 15.971960</max>
		</layer>
		<layer>
			<name>bottleneck3_10/dim_inc/conv</name>
			<min>… -5.701398</min>
			<max>… 14.420895</max>
		</layer>
		<layer>
			<name>bottleneck3_10/dim_red/conv</name>
			<min>… -11.140013</min>
			<max>… 5.241143</max>
		</layer>
		<layer>
			<name>bottleneck3_10/dim_red/fn</name>
			<min>… -0.999985</min>
			<max>… 5.241143</max>
		</layer>
		<layer>
			<name>bottleneck3_10/fn</name>
			<min>… -0.998371</min>
			<max>… 15.971960</max>
		</layer>
		<layer>
			<name>bottleneck3_10/inner/dw1/conv</name>
			<min>… -2.798132</min>
			<max>… 12.015765</max>
		</layer>
		<layer>
			<name>bottleneck3_10/inner/dw1/fn</name>
			<min>… -0.939076</min>
			<max>… 12.015765</max>
		</layer>
		<layer>
			<name>bottleneck3_2/add</name>
			<min>… -7.206244</min>
			<max>… 13.120080</max>
		</layer>
		<layer>
			<name>bottleneck3_2/dim_inc/conv</name>
			<min>… -6.248249</min>
			<max>… 5.953446</max>
		</layer>
		<layer>
			<name>bottleneck3_2/dim_red/conv</name>
			<min>… -4.199160</min>
			<max>… 5.662996</max>
		</layer>
		<layer>
			<name>bottleneck3_2/dim_red/fn</name>
			<min>… -0.984992</min>
			<max>… 5.662996</max>
		</layer>
		<layer>
			<name>bottleneck3_2/fn</name>
			<min>… -0.999258</min>
			<max>… 13.120080</max>
		</layer>
		<layer>
			<name>bottleneck3_2/inner/dw1/conv</name>
			<min>… -3.599663</min>
			<max>… 8.001383</max>
		</layer>
		<layer>
			<name>bottleneck3_2/inner/dw1/fn</name>
			<min>… -0.972667</min>
			<max>… 8.001383</max>
		</layer>
		<layer>
			<name>bottleneck3_3/add</name>
			<min>… -6.760179</min>
			<max>… 14.158008</max>
		</layer>
		<layer>
			<name>bottleneck3_3/dim_inc/conv</name>
			<min>… -5.916581</min>
			<max>… 4.792965</max>
		</layer>
		<layer>
			<name>bottleneck3_3/dim_red/conv</name>
			<min>… -2.246233</min>
			<max>… 1.055414</max>
		</layer>
		<layer>
			<name>bottleneck3_3/dim_red/fn</name>
			<min>… -0.894203</min>
			<max>… 1.055414</max>
		</layer>
		<layer>
			<name>bottleneck3_3/fn</name>
			<min>… -0.998841</min>
			<max>… 14.158008</max>
		</layer>
		<layer>
			<name>bottleneck3_3/inner/dw1/conv</name>
			<min>… -12.796172</min>
			<max>… 9.385578</max>
		</layer>
		<layer>
			<name>bottleneck3_3/inner/dw1/fn</name>
			<min>… -0.999997</min>
			<max>… 9.385578</max>
		</layer>
		<layer>
			<name>bottleneck3_4/add</name>
			<min>… -7.047102</min>
			<max>… 14.145246</max>
		</layer>
		<layer>
			<name>bottleneck3_4/dim_inc/conv</name>
			<min>… -6.065753</min>
			<max>… 3.445231</max>
		</layer>
		<layer>
			<name>bottleneck3_4/dim_red/conv</name>
			<min>… -2.812828</min>
			<max>… 1.802428</max>
		</layer>
		<layer>
			<name>bottleneck3_4/dim_red/fn</name>
			<min>… -0.939965</min>
			<max>… 1.802428</max>
		</layer>
		<layer>
			<name>bottleneck3_4/fn</name>
			<min>… -0.999130</min>
			<max>… 14.145246</max>
		</layer>
		<layer>
			<name>bottleneck3_4/inner/dw1/conv</name>
			<min>… -14.115684</min>
			<max>… 7.203264</max>
		</layer>
		<layer>
			<name>bottleneck3_4/inner/dw1/fn</name>
			<min>… -0.999999</min>
			<max>… 7.203264</max>
		</layer>
		<layer>
			<name>bottleneck3_5/add</name>
			<min>… -6.263296</min>
			<max>… 14.242088</max>
		</layer>
		<layer>
			<name>bottleneck3_5/dim_inc/conv</name>
			<min>… -5.491717</min>
			<max>… 4.427133</max>
		</layer>
		<layer>
			<name>bottleneck3_5/dim_red/conv</name>
			<min>… -2.975313</min>
			<max>… 3.006261</max>
		</layer>
		<layer>
			<name>bottleneck3_5/dim_red/fn</name>
			<min>… -0.948969</min>
			<max>… 3.006261</max>
		</layer>
		<layer>
			<name>bottleneck3_5/fn</name>
			<min>… -0.998095</min>
			<max>… 14.242088</max>
		</layer>
		<layer>
			<name>bottleneck3_5/inner/dw1/conv</name>
			<min>… -7.735314</min>
			<max>… 5.993270</max>
		</layer>
		<layer>
			<name>bottleneck3_5/inner/dw1/fn</name>
			<min>… -0.999563</min>
			<max>… 5.993270</max>
		</layer>
		<layer>
			<name>bottleneck3_6/add</name>
			<min>… -4.682518</min>
			<max>… 13.648945</max>
		</layer>
		<layer>
			<name>bottleneck3_6/dim_inc/conv</name>
			<min>… -4.175562</min>
			<max>… 1.991236</max>
		</layer>
		<layer>
			<name>bottleneck3_6/dim_red/conv</name>
			<min>… -5.706211</min>
			<max>… 8.312288</max>
		</layer>
		<layer>
			<name>bottleneck3_6/dim_red/fn</name>
			<min>… -0.996675</min>
			<max>… 8.312288</max>
		</layer>
		<layer>
			<name>bottleneck3_6/fn</name>
			<min>… -0.990744</min>
			<max>… 13.648945</max>
		</layer>
		<layer>
			<name>bottleneck3_6/inner/dw1/conv</name>
			<min>… -10.527193</min>
			<max>… 2.477157</max>
		</layer>
		<layer>
			<name>bottleneck3_6/inner/dw1/fn</name>
			<min>… -0.999973</min>
			<max>… 2.477157</max>
		</layer>
		<layer>
			<name>bottleneck3_7/add</name>
			<min>… -5.857397</min>
			<max>… 13.780434</max>
		</layer>
		<layer>
			<name>bottleneck3_7/dim_inc/conv</name>
			<min>… -5.363003</min>
			<max>… 6.315779</max>
		</layer>
		<layer>
			<name>bottleneck3_7/dim_red/conv</name>
			<min>… -1.231808</min>
			<max>… 0.501185</max>
		</layer>
		<layer>
			<name>bottleneck3_7/dim_red/fn</name>
			<min>… -0.708235</min>
			<max>… 0.501185</max>
		</layer>
		<layer>
			<name>bottleneck3_7/fn</name>
			<min>… -0.997141</min>
			<max>… 13.780434</max>
		</layer>
		<layer>
			<name>bottleneck3_7/inner/dw1/conv</name>
			<min>… -11.060873</min>
			<max>… 8.987827</max>
		</layer>
		<layer>
			<name>bottleneck3_7/inner/dw1/fn</name>
			<min>… -0.999984</min>
			<max>… 8.987827</max>
		</layer>
		<layer>
			<name>bottleneck3_8/add</name>
			<min>… -7.542189</min>
			<max>… 13.002826</max>
		</layer>
		<layer>
			<name>bottleneck3_8/dim_inc/conv</name>
			<min>… -7.654627</min>
			<max>… 5.834196</max>
		</layer>
		<layer>
			<name>bottleneck3_8/dim_red/conv</name>
			<min>… -7.767395</min>
			<max>… 5.197933</max>
		</layer>
		<layer>
			<name>bottleneck3_8/dim_red/fn</name>
			<min>… -0.999577</min>
			<max>… 5.197933</max>
		</layer>
		<layer>
			<name>bottleneck3_8/fn</name>
			<min>… -0.999470</min>
			<max>… 13.002826</max>
		</layer>
		<layer>
			<name>bottleneck3_8/inner/dw1/conv</name>
			<min>… -5.534425</min>
			<max>… 4.798034</max>
		</layer>
		<layer>
			<name>bottleneck3_8/inner/dw1/fn</name>
			<min>… -0.996052</min>
			<max>… 4.798034</max>
		</layer>
		<layer>
			<name>bottleneck3_9/add</name>
			<min>… -10.433289</min>
			<max>… 13.683497</max>
		</layer>
		<layer>
			<name>bottleneck3_9/dim_inc/conv</name>
			<min>… -9.838482</min>
			<max>… 4.864018</max>
		</layer>
		<layer>
			<name>bottleneck3_9/dim_red/conv</name>
			<min>… -3.908696</min>
			<max>… 6.133739</max>
		</layer>
		<layer>
			<name>bottleneck3_9/dim_red/fn</name>
			<min>… -0.979933</min>
			<max>… 6.133739</max>
		</layer>
		<layer>
			<name>bottleneck3_9/fn</name>
			<min>… -0.999971</min>
			<max>… 13.683497</max>
		</layer>
		<layer>
			<name>bottleneck3_9/inner/dw1/conv</name>
			<min>… -12.758241</min>
			<max>… 10.769059</max>
		</layer>
		<layer>
			<name>bottleneck3_9/inner/dw1/fn</name>
			<min>… -0.999997</min>
			<max>… 10.769059</max>
		</layer>
		<layer>
			<name>bottleneck4_0/add</name>
			<min>… -8.205605</min>
			<max>… 9.499282</max>
		</layer>
		<layer>
			<name>bottleneck4_0/dim_inc/conv</name>
			<min>… -6.397696</min>
			<max>… 4.732265</max>
		</layer>
		<layer>
			<name>bottleneck4_0/dim_red/conv</name>
			<min>… -11.786671</min>
			<max>… 6.914952</max>
		</layer>
		<layer>
			<name>bottleneck4_0/dim_red/fn</name>
			<min>… -0.999992</min>
			<max>… 6.914952</max>
		</layer>
		<layer>
			<name>bottleneck4_0/fn</name>
			<min>… -0.999727</min>
			<max>… 9.499282</max>
		</layer>
		<layer>
			<name>bottleneck4_0/inner/dw1/conv</name>
			<min>… -0.611024</min>
			<max>… 10.028553</max>
		</layer>
		<layer>
			<name>bottleneck4_0/inner/dw1/fn</name>
			<min>… -0.457205</min>
			<max>… 10.028553</max>
		</layer>
		<layer>
			<name>bottleneck4_0/skip/conv</name>
			<min>… -7.000222</min>
			<max>… 7.410204</max>
		</layer>
		<layer>
			<name>bottleneck4_0/skip/pooling</name>
			<min>… -0.981731</min>
			<max>… 15.971960</max>
		</layer>
		<layer>
			<name>bottleneck4_1/add</name>
			<min>… -4.809316</min>
			<max>… 9.406070</max>
		</layer>
		<layer>
			<name>bottleneck4_1/dim_inc/conv</name>
			<min>… -3.991208</min>
			<max>… 2.568332</max>
		</layer>
		<layer>
			<name>bottleneck4_1/dim_red/conv</name>
			<min>… -4.679266</min>
			<max>… 6.623186</max>
		</layer>
		<layer>
			<name>bottleneck4_1/dim_red/fn</name>
			<min>… -0.990714</min>
			<max>… 6.623186</max>
		</layer>
		<layer>
			<name>bottleneck4_1/fn</name>
			<min>… -0.991847</min>
			<max>… 9.406070</max>
		</layer>
		<layer>
			<name>bottleneck4_1/inner/dw1/conv</name>
			<min>… -16.437216</min>
			<max>… 3.204336</max>
		</layer>
		<layer>
			<name>bottleneck4_1/inner/dw1/fn</name>
			<min>… -1.000000</min>
			<max>… 3.204336</max>
		</layer>
		<layer>
			<name>bottleneck4_10/add</name>
			<min>… -7.282301</min>
			<max>… 12.069060</max>
		</layer>
		<layer>
			<name>bottleneck4_10/dim_inc/conv</name>
			<min>… -7.399586</min>
			<max>… 4.725600</max>
		</layer>
		<layer>
			<name>bottleneck4_10/dim_red/conv</name>
			<min>… -6.222594</min>
			<max>… 4.870360</max>
		</layer>
		<layer>
			<name>bottleneck4_10/dim_red/fn</name>
			<min>… -0.998016</min>
			<max>… 4.870360</max>
		</layer>
		<layer>
			<name>bottleneck4_10/fn</name>
			<min>… -0.999312</min>
			<max>… 12.069060</max>
		</layer>
		<layer>
			<name>bottleneck4_10/inner/dw1/conv</name>
			<min>… -3.340633</min>
			<max>… 7.350796</max>
		</layer>
		<layer>
			<name>bottleneck4_10/inner/dw1/fn</name>
			<min>… -0.964585</min>
			<max>… 7.350796</max>
		</layer>
		<layer>
			<name>bottleneck4_11/add</name>
			<min>… -5.314333</min>
			<max>… 14.969241</max>
		</layer>
		<layer>
			<name>bottleneck4_11/dim_inc/conv</name>
			<min>… -4.801506</min>
			<max>… 5.553646</max>
		</layer>
		<layer>
			<name>bottleneck4_11/dim_red/conv</name>
			<min>… -9.952373</min>
			<max>… 3.095148</max>
		</layer>
		<layer>
			<name>bottleneck4_11/dim_red/fn</name>
			<min>… -0.999952</min>
			<max>… 3.095148</max>
		</layer>
		<layer>
			<name>bottleneck4_11/fn</name>
			<min>… -0.995079</min>
			<max>… 14.969241</max>
		</layer>
		<layer>
			<name>bottleneck4_11/inner/dw1/conv</name>
			<min>… -4.390597</min>
			<max>… 7.264841</max>
		</layer>
		<layer>
			<name>bottleneck4_11/inner/dw1/fn</name>
			<min>… -0.987607</min>
			<max>… 7.264841</max>
		</layer>
		<layer>
			<name>bottleneck4_2/add</name>
			<min>… -3.556171</min>
			<max>… 9.664467</max>
		</layer>
		<layer>
			<name>bottleneck4_2/dim_inc/conv</name>
			<min>… -3.528025</min>
			<max>… 2.842394</max>
		</layer>
		<layer>
			<name>bottleneck4_2/dim_red/conv</name>
			<min>… -1.661412</min>
			<max>… 2.610034</max>
		</layer>
		<layer>
			<name>bottleneck4_2/dim_red/fn</name>
			<min>… -0.810129</min>
			<max>… 2.610034</max>
		</layer>
		<layer>
			<name>bottleneck4_2/fn</name>
			<min>… -0.971452</min>
			<max>… 9.664467</max>
		</layer>
		<layer>
			<name>bottleneck4_2/inner/dw1/conv</name>
			<min>… -13.821323</min>
			<max>… 9.369854</max>
		</layer>
		<layer>
			<name>bottleneck4_2/inner/dw1/fn</name>
			<min>… -0.999999</min>
			<max>… 9.369854</max>
		</layer>
		<layer>
			<name>bottleneck4_3/add</name>
			<min>… -3.667069</min>
			<max>… 8.829567</max>
		</layer>
		<layer>
			<name>bottleneck4_3/dim_inc/conv</name>
			<min>… -3.274789</min>
			<max>… 1.598247</max>
		</layer>
		<layer>
			<name>bottleneck4_3/dim_red/conv</name>
			<min>… -1.407935</min>
			<max>… 2.379922</max>
		</layer>
		<layer>
			<name>bottleneck4_3/dim_red/fn</name>
			<min>… -0.755352</min>
			<max>… 2.379922</max>
		</layer>
		<layer>
			<name>bottleneck4_3/fn</name>
			<min>… -0.974449</min>
			<max>… 8.829567</max>
		</layer>
		<layer>
			<name>bottleneck4_3/inner/dw1/conv</name>
			<min>… -9.437284</min>
			<max>… 6.763329</max>
		</layer>
		<layer>
			<name>bottleneck4_3/inner/dw1/fn</name>
			<min>… -0.999920</min>
			<max>… 6.763329</max>
		</layer>
		<layer>
			<name>bottleneck4_4/add</name>
			<min>… -5.056708</min>
			<max>… 8.919065</max>
		</layer>
		<layer>
			<name>bottleneck4_4/dim_inc/conv</name>
			<min>… -4.703578</min>
			<max>… 3.450532</max>
		</layer>
		<layer>
			<name>bottleneck4_4/dim_red/conv</name>
			<min>… -1.530817</min>
			<max>… 1.261116</max>
		</layer>
		<layer>
			<name>bottleneck4_4/dim_red/fn</name>
			<min>… -0.783641</min>
			<max>… 1.261116</max>
		</layer>
		<layer>
			<name>bottleneck4_4/fn</name>
			<min>… -0.993634</min>
			<max>… 8.919065</max>
		</layer>
		<layer>
			<name>bottleneck4_4/inner/dw1/conv</name>
			<min>… -5.210819</min>
			<max>… 6.244255</max>
		</layer>
		<layer>
			<name>bottleneck4_4/inner/dw1/fn</name>
			<min>… -0.994543</min>
			<max>… 6.244255</max>
		</layer>
		<layer>
			<name>bottleneck4_5/add</name>
			<min>… -5.007070</min>
			<max>… 8.660478</max>
		</layer>
		<layer>
			<name>bottleneck4_5/dim_inc/conv</name>
			<min>… -4.597588</min>
			<max>… 2.768688</max>
		</layer>
		<layer>
			<name>bottleneck4_5/dim_red/conv</name>
			<min>… -2.991776</min>
			<max>… 5.337075</max>
		</layer>
		<layer>
			<name>bottleneck4_5/dim_red/fn</name>
			<min>… -0.949802</min>
			<max>… 5.337075</max>
		</layer>
		<layer>
			<name>bottleneck4_5/fn</name>
			<min>… -0.993309</min>
			<max>… 8.660478</max>
		</layer>
		<layer>
			<name>bottleneck4_5/inner/dw1/conv</name>
			<min>… -7.284317</min>
			<max>… 8.002708</max>
		</layer>
		<layer>
			<name>bottleneck4_5/inner/dw1/fn</name>
			<min>… -0.999314</min>
			<max>… 8.002708</max>
		</layer>
		<layer>
			<name>bottleneck4_6/add</name>
			<min>… -4.888707</min>
			<max>… 8.989468</max>
		</layer>
		<layer>
			<name>bottleneck4_6/dim_inc/conv</name>
			<min>… -4.096521</min>
			<max>… 3.686755</max>
		</layer>
		<layer>
			<name>bottleneck4_6/dim_red/conv</name>
			<min>… -3.356472</min>
			<max>… 3.914367</max>
		</layer>
		<layer>
			<name>bottleneck4_6/dim_red/fn</name>
			<min>… -0.965142</min>
			<max>… 3.914367</max>
		</layer>
		<layer>
			<name>bottleneck4_6/fn</name>
			<min>… -0.992469</min>
			<max>… 8.989468</max>
		</layer>
		<layer>
			<name>bottleneck4_6/inner/dw1/conv</name>
			<min>… -6.102875</min>
			<max>… 8.288256</max>
		</layer>
		<layer>
			<name>bottleneck4_6/inner/dw1/fn</name>
			<min>… -0.997764</min>
			<max>… 8.288256</max>
		</layer>
		<layer>
			<name>bottleneck4_7/add</name>
			<min>… -5.196188</min>
			<max>… 8.719831</max>
		</layer>
		<layer>
			<name>bottleneck4_7/dim_inc/conv</name>
			<min>… -4.374588</min>
			<max>… 2.997902</max>
		</layer>
		<layer>
			<name>bottleneck4_7/dim_red/conv</name>
			<min>… -9.650094</min>
			<max>… 2.987322</max>
		</layer>
		<layer>
			<name>bottleneck4_7/dim_red/fn</name>
			<min>… -0.999936</min>
			<max>… 2.987322</max>
		</layer>
		<layer>
			<name>bottleneck4_7/fn</name>
			<min>… -0.994462</min>
			<max>… 8.719831</max>
		</layer>
		<layer>
			<name>bottleneck4_7/inner/dw1/conv</name>
			<min>… -4.844664</min>
			<max>… 3.699817</max>
		</layer>
		<layer>
			<name>bottleneck4_7/inner/dw1/fn</name>
			<min>… -0.992130</min>
			<max>… 3.699817</max>
		</layer>
		<layer>
			<name>bottleneck4_8/add</name>
			<min>… -9.755987</min>
			<max>… 9.825458</max>
		</layer>
		<layer>
			<name>bottleneck4_8/dim_inc/conv</name>
			<min>… -9.035306</min>
			<max>… 2.833000</max>
		</layer>
		<layer>
			<name>bottleneck4_8/dim_red/conv</name>
			<min>… -6.996572</min>
			<max>… 9.332462</max>
		</layer>
		<layer>
			<name>bottleneck4_8/dim_red/fn</name>
			<min>… -0.999085</min>
			<max>… 9.332462</max>
		</layer>
		<layer>
			<name>bottleneck4_8/fn</name>
			<min>… -0.999942</min>
			<max>… 9.825458</max>
		</layer>
		<layer>
			<name>bottleneck4_8/inner/dw1/conv</name>
			<min>… -9.100658</min>
			<max>… 19.721729</max>
		</layer>
		<layer>
			<name>bottleneck4_8/inner/dw1/fn</name>
			<min>… -0.999888</min>
			<max>… 19.721729</max>
		</layer>
		<layer>
			<name>bottleneck4_9/add</name>
			<min>… -8.231414</min>
			<max>… 11.431451</max>
		</layer>
		<layer>
			<name>bottleneck4_9/dim_inc/conv</name>
			<min>… -7.236386</min>
			<max>… 4.012549</max>
		</layer>
		<layer>
			<name>bottleneck4_9/dim_red/conv</name>
			<min>… -6.067342</min>
			<max>… 7.302083</max>
		</layer>
		<layer>
			<name>bottleneck4_9/dim_red/fn</name>
			<min>… -0.997683</min>
			<max>… 7.302083</max>
		</layer>
		<layer>
			<name>bottleneck4_9/fn</name>
			<min>… -0.999734</min>
			<max>… 11.431451</max>
		</layer>
		<layer>
			<name>bottleneck4_9/inner/dw1/conv</name>
			<min>… -6.320571</min>
			<max>… 9.236706</max>
		</layer>
		<layer>
			<name>bottleneck4_9/inner/dw1/fn</name>
			<min>… -0.998201</min>
			<max>… 9.236706</max>
		</layer>
		<layer>
			<name>data</name>
			<min>0.000000, 0.000000, 0.000000</min>
			<max>255.000000, 255.000000, 255.000000</max>
		</layer>
		<layer>
			<name>embd/dim_inc/conv</name>
			<min>… -9.270235</min>
			<max>… 3.019436</max>
		</layer>
		<layer>
			<name>embd/dim_inc/fn</name>
			<min>… -0.999906</min>
			<max>… 3.019436</max>
		</layer>
		<layer>
			<name>embd/dim_red/conv</name>
			<min>… -2.027293</min>
			<max>… 2.801969</max>
		</layer>
		<layer>
			<name>init_block1/dim_inc/conv</name>
			<min>… -8.023691</min>
			<max>… 20.974495</max>
		</layer>
		<layer>
			<name>init_block1/dim_inc/fn</name>
			<min>… -0.000000</min>
			<max>… 20.974495</max>
		</layer>
		<layer>
			<name>pooling/out</name>
			<min>… -0.460480</min>
			<max>… 14.969241</max>
		</layer>
	</statistics>
</net>
