<?xml version="1.0"?>
<net name="ICV-RMNet-PD-ReID-Light" version="6" batch="1">
	<layers>
		<layer name="data" type="Input" precision="FP32" id="0">
			<output>
				<port id="0">
					<dim>1</dim>
					<dim>3</dim>
					<dim>96</dim>
					<dim>48</dim>
				</port>
			</output>
		</layer>
		<layer name="data/norm/scale/Mul_/FusedScaleShift_" type="ScaleShift" precision="FP32" id="1">
			<data broadcast="0" />
			<input>
				<port id="0">
					<dim>1</dim>
					<dim>3</dim>
					<dim>96</dim>
					<dim>48</dim>
				</port>
			</input>
			<output>
				<port id="1">
					<dim>1</dim>
					<dim>3</dim>
					<dim>96</dim>
					<dim>48</dim>
				</port>
			</output>
			<blobs>
				<biases offset="0" size="12" />
				<weights offset="12" size="12" />
			</blobs>
		</layer>
		<layer name="init_block1/dim_inc/conv" type="Convolution" precision="FP32" id="2">
			<data dilations="1,1" group="1" kernel="3,3" output="32" pads_begin="1,1" pads_end="1,1" quantization_level="I8" strides="2,2" />
			<input>
				<port id="0">
					<dim>1</dim>
					<dim>3</dim>
					<dim>96</dim>
					<dim>48</dim>
				</port>
			</input>
			<output>
				<port id="1">
					<dim>1</dim>
					<dim>32</dim>
					<dim>48</dim>
					<dim>24</dim>
				</port>
			</output>
			<blobs>
				<biases offset="24" size="128" />
				<weights offset="152" size="3456" />
			</blobs>
		</layer>
		<layer name="init_block1/dim_inc/fn" type="ReLU" precision="FP32" id="3">
			<input>
				<port id="0">
					<dim>1</dim>
					<dim>32</dim>
					<dim>48</dim>
					<dim>24</dim>
				</port>
			</input>
			<output>
				<port id="1">
					<dim>1</dim>
					<dim>32</dim>
					<dim>48</dim>
					<dim>24</dim>
				</port>
			</output>
		</layer>
		<layer name="bottleneck1_1/dim_red/conv" type="Convolution" precision="FP32" id="4">
			<data dilations="1,1" group="1" kernel="1,1" output="8" pads_begin="0,0" pads_end="0,0" quantization_level="I8" strides="1,1" />
			<input>
				<port id="0">
					<dim>1</dim>
					<dim>32</dim>
					<dim>48</dim>
					<dim>24</dim>
				</port>
			</input>
			<output>
				<port id="1">
					<dim>1</dim>
					<dim>8</dim>
					<dim>48</dim>
					<dim>24</dim>
				</port>
			</output>
			<blobs>
				<biases offset="3608" size="32" />
				<weights offset="3640" size="1024" />
			</blobs>
		</layer>
		<layer name="bottleneck1_1/dim_red/fn" type="elu" precision="FP32" id="5">
			<data alpha="1.0" />
			<input>
				<port id="0">
					<dim>1</dim>
					<dim>8</dim>
					<dim>48</dim>
					<dim>24</dim>
				</port>
			</input>
			<output>
				<port id="1">
					<dim>1</dim>
					<dim>8</dim>
					<dim>48</dim>
					<dim>24</dim>
				</port>
			</output>
		</layer>
		<layer name="bottleneck1_1/inner/dw1/conv" type="Convolution" precision="FP32" id="6">
			<data dilations="1,1" group="8" kernel="3,3" output="8" pads_begin="1,1" pads_end="1,1" quantization_level="I8" strides="1,1" />
			<input>
				<port id="0">
					<dim>1</dim>
					<dim>8</dim>
					<dim>48</dim>
					<dim>24</dim>
				</port>
			</input>
			<output>
				<port id="1">
					<dim>1</dim>
					<dim>8</dim>
					<dim>48</dim>
					<dim>24</dim>
				</port>
			</output>
			<blobs>
				<biases offset="4664" size="32" />
				<weights offset="4696" size="288" />
			</blobs>
		</layer>
		<layer name="bottleneck1_1/inner/dw1/fn" type="elu" precision="FP32" id="7">
			<data alpha="1.0" />
			<input>
				<port id="0">
					<dim>1</dim>
					<dim>8</dim>
					<dim>48</dim>
					<dim>24</dim>
				</port>
			</input>
			<output>
				<port id="1">
					<dim>1</dim>
					<dim>8</dim>
					<dim>48</dim>
					<dim>24</dim>
				</port>
			</output>
		</layer>
		<layer name="bottleneck1_1/dim_inc/conv" type="Convolution" precision="FP32" id="8">
			<data dilations="1,1" group="1" kernel="1,1" output="32" pads_begin="0,0" pads_end="0,0" quantization_level="I8" strides="1,1" />
			<input>
				<port id="0">
					<dim>1</dim>
					<dim>8</dim>
					<dim>48</dim>
					<dim>24</dim>
				</port>
			</input>
			<output>
				<port id="1">
					<dim>1</dim>
					<dim>32</dim>
					<dim>48</dim>
					<dim>24</dim>
				</port>
			</output>
			<blobs>
				<biases offset="4984" size="128" />
				<weights offset="5112" size="1024" />
			</blobs>
		</layer>
		<layer name="bottleneck1_1/add" type="Eltwise" precision="FP32" id="9">
			<data operation="sum" />
			<input>
				<port id="0">
					<dim>1</dim>
					<dim>32</dim>
					<dim>48</dim>
					<dim>24</dim>
				</port>
				<port id="1">
					<dim>1</dim>
					<dim>32</dim>
					<dim>48</dim>
					<dim>24</dim>
				</port>
			</input>
			<output>
				<port id="2">
					<dim>1</dim>
					<dim>32</dim>
					<dim>48</dim>
					<dim>24</dim>
				</port>
			</output>
		</layer>
		<layer name="bottleneck1_1/fn" type="elu" precision="FP32" id="10">
			<data alpha="1.0" />
			<input>
				<port id="0">
					<dim>1</dim>
					<dim>32</dim>
					<dim>48</dim>
					<dim>24</dim>
				</port>
			</input>
			<output>
				<port id="1">
					<dim>1</dim>
					<dim>32</dim>
					<dim>48</dim>
					<dim>24</dim>
				</port>
			</output>
		</layer>
		<layer name="bottleneck1_2/dim_red/conv" type="Convolution" precision="FP32" id="11">
			<data dilations="1,1" group="1" kernel="1,1" output="8" pads_begin="0,0" pads_end="0,0" quantization_level="I8" strides="1,1" />
			<input>
				<port id="0">
					<dim>1</dim>
					<dim>32</dim>
					<dim>48</dim>
					<dim>24</dim>
				</port>
			</input>
			<output>
				<port id="1">
					<dim>1</dim>
					<dim>8</dim>
					<dim>48</dim>
					<dim>24</dim>
				</port>
			</output>
			<blobs>
				<biases offset="6136" size="32" />
				<weights offset="6168" size="1024" />
			</blobs>
		</layer>
		<layer name="bottleneck1_2/dim_red/fn" type="elu" precision="FP32" id="12">
			<data alpha="1.0" />
			<input>
				<port id="0">
					<dim>1</dim>
					<dim>8</dim>
					<dim>48</dim>
					<dim>24</dim>
				</port>
			</input>
			<output>
				<port id="1">
					<dim>1</dim>
					<dim>8</dim>
					<dim>48</dim>
					<dim>24</dim>
				</port>
			</output>
		</layer>
		<layer name="bottleneck1_2/inner/dw1/conv" type="Convolution" precision="FP32" id="13">
			<data dilations="1,1" group="8" kernel="3,3" output="8" pads_begin="1,1" pads_end="1,1" quantization_level="I8" strides="1,1" />
			<input>
				<port id="0">
					<dim>1</dim>
					<dim>8</dim>
					<dim>48</dim>
					<dim>24</dim>
				</port>
			</input>
			<output>
				<port id="1">
					<dim>1</dim>
					<dim>8</dim>
					<dim>48</dim>
					<dim>24</dim>
				</port>
			</output>
			<blobs>
				<biases offset="7192" size="32" />
				<weights offset="7224" size="288" />
			</blobs>
		</layer>
		<layer name="bottleneck1_2/inner/dw1/fn" type="elu" precision="FP32" id="14">
			<data alpha="1.0" />
			<input>
				<port id="0">
					<dim>1</dim>
					<dim>8</dim>
					<dim>48</dim>
					<dim>24</dim>
				</port>
			</input>
			<output>
				<port id="1">
					<dim>1</dim>
					<dim>8</dim>
					<dim>48</dim>
					<dim>24</dim>
				</port>
			</output>
		</layer>
		<layer name="bottleneck1_2/dim_inc/conv" type="Convolution" precision="FP32" id="15">
			<data dilations="1,1" group="1" kernel="1,1" output="32" pads_begin="0,0" pads_end="0,0" quantization_level="I8" strides="1,1" />
			<input>
				<port id="0">
					<dim>1</dim>
					<dim>8</dim>
					<dim>48</dim>
					<dim>24</dim>
				</port>
			</input>
			<output>
				<port id="1">
					<dim>1</dim>
					<dim>32</dim>
					<dim>48</dim>
					<dim>24</dim>
				</port>
			</output>
			<blobs>
				<biases offset="7512" size="128" />
				<weights offset="7640" size="1024" />
			</blobs>
		</layer>
		<layer name="bottleneck1_2/add" type="Eltwise" precision="FP32" id="16">
			<data operation="sum" />
			<input>
				<port id="0">
					<dim>1</dim>
					<dim>32</dim>
					<dim>48</dim>
					<dim>24</dim>
				</port>
				<port id="1">
					<dim>1</dim>
					<dim>32</dim>
					<dim>48</dim>
					<dim>24</dim>
				</port>
			</input>
			<output>
				<port id="2">
					<dim>1</dim>
					<dim>32</dim>
					<dim>48</dim>
					<dim>24</dim>
				</port>
			</output>
		</layer>
		<layer name="bottleneck1_2/fn" type="elu" precision="FP32" id="17">
			<data alpha="1.0" />
			<input>
				<port id="0">
					<dim>1</dim>
					<dim>32</dim>
					<dim>48</dim>
					<dim>24</dim>
				</port>
			</input>
			<output>
				<port id="1">
					<dim>1</dim>
					<dim>32</dim>
					<dim>48</dim>
					<dim>24</dim>
				</port>
			</output>
		</layer>
		<layer name="bottleneck1_3/dim_red/conv" type="Convolution" precision="FP32" id="18">
			<data dilations="1,1" group="1" kernel="1,1" output="8" pads_begin="0,0" pads_end="0,0" quantization_level="I8" strides="1,1" />
			<input>
				<port id="0">
					<dim>1</dim>
					<dim>32</dim>
					<dim>48</dim>
					<dim>24</dim>
				</port>
			</input>
			<output>
				<port id="1">
					<dim>1</dim>
					<dim>8</dim>
					<dim>48</dim>
					<dim>24</dim>
				</port>
			</output>
			<blobs>
				<biases offset="8664" size="32" />
				<weights offset="8696" size="1024" />
			</blobs>
		</layer>
		<layer name="bottleneck1_3/dim_red/fn" type="elu" precision="FP32" id="19">
			<data alpha="1.0" />
			<input>
				<port id="0">
					<dim>1</dim>
					<dim>8</dim>
					<dim>48</dim>
					<dim>24</dim>
				</port>
			</input>
			<output>
				<port id="1">
					<dim>1</dim>
					<dim>8</dim>
					<dim>48</dim>
					<dim>24</dim>
				</port>
			</output>
		</layer>
		<layer name="bottleneck1_3/inner/dw1/conv" type="Convolution" precision="FP32" id="20">
			<data dilations="1,1" group="8" kernel="3,3" output="8" pads_begin="1,1" pads_end="1,1" quantization_level="I8" strides="1,1" />
			<input>
				<port id="0">
					<dim>1</dim>
					<dim>8</dim>
					<dim>48</dim>
					<dim>24</dim>
				</port>
			</input>
			<output>
				<port id="1">
					<dim>1</dim>
					<dim>8</dim>
					<dim>48</dim>
					<dim>24</dim>
				</port>
			</output>
			<blobs>
				<biases offset="9720" size="32" />
				<weights offset="9752" size="288" />
			</blobs>
		</layer>
		<layer name="bottleneck1_3/inner/dw1/fn" type="elu" precision="FP32" id="21">
			<data alpha="1.0" />
			<input>
				<port id="0">
					<dim>1</dim>
					<dim>8</dim>
					<dim>48</dim>
					<dim>24</dim>
				</port>
			</input>
			<output>
				<port id="1">
					<dim>1</dim>
					<dim>8</dim>
					<dim>48</dim>
					<dim>24</dim>
				</port>
			</output>
		</layer>
		<layer name="bottleneck1_3/dim_inc/conv" type="Convolution" precision="FP32" id="22">
			<data dilations="1,1" group="1" kernel="1,1" output="32" pads_begin="0,0" pads_end="0,0" quantization_level="I8" strides="1,1" />
			<input>
				<port id="0">
					<dim>1</dim>
					<dim>8</dim>
					<dim>48</dim>
					<dim>24</dim>
				</port>
			</input>
			<output>
				<port id="1">
					<dim>1</dim>
					<dim>32</dim>
					<dim>48</dim>
					<dim>24</dim>
				</port>
			</output>
			<blobs>
				<biases offset="10040" size="128" />
				<weights offset="10168" size="1024" />
			</blobs>
		</layer>
		<layer name="bottleneck1_3/add" type="Eltwise" precision="FP32" id="23">
			<data operation="sum" />
			<input>
				<port id="0">
					<dim>1</dim>
					<dim>32</dim>
					<dim>48</dim>
					<dim>24</dim>
				</port>
				<port id="1">
					<dim>1</dim>
					<dim>32</dim>
					<dim>48</dim>
					<dim>24</dim>
				</port>
			</input>
			<output>
				<port id="2">
					<dim>1</dim>
					<dim>32</dim>
					<dim>48</dim>
					<dim>24</dim>
				</port>
			</output>
		</layer>
		<layer name="bottleneck1_3/fn" type="elu" precision="FP32" id="24">
			<data alpha="1.0" />
			<input>
				<port id="0">
					<dim>1</dim>
					<dim>32</dim>
					<dim>48</dim>
					<dim>24</dim>
				</port>
			</input>
			<output>
				<port id="1">
					<dim>1</dim>
					<dim>32</dim>
					<dim>48</dim>
					<dim>24</dim>
				</port>
			</output>
		</layer>
		<layer name="bottleneck2_0/skip/pooling" type="Pooling" precision="FP32" id="25">
			<data exclude-pad="true" kernel="2,2" pads_begin="0,0" pads_end="0,0" pool-method="max" rounding_type="ceil" strides="2,2" />
			<input>
				<port id="0">
					<dim>1</dim>
					<dim>32</dim>
					<dim>48</dim>
					<dim>24</dim>
				</port>
			</input>
			<output>
				<port id="1">
					<dim>1</dim>
					<dim>32</dim>
					<dim>24</dim>
					<dim>12</dim>
				</port>
			</output>
		</layer>
		<layer name="bottleneck2_0/skip/conv" type="Convolution" precision="FP32" id="26">
			<data dilations="1,1" group="1" kernel="1,1" output="64" pads_begin="0,0" pads_end="0,0" quantization_level="I8" strides="1,1" />
			<input>
				<port id="0">
					<dim>1</dim>
					<dim>32</dim>
					<dim>24</dim>
					<dim>12</dim>
				</port>
			</input>
			<output>
				<port id="1">
					<dim>1</dim>
					<dim>64</dim>
					<dim>24</dim>
					<dim>12</dim>
				</port>
			</output>
			<blobs>
				<biases offset="11192" size="256" />
				<weights offset="11448" size="8192" />
			</blobs>
		</layer>
		<layer name="bottleneck2_0/dim_red/conv" type="Convolution" precision="FP32" id="27">
			<data dilations="1,1" group="1" kernel="1,1" output="16" pads_begin="0,0" pads_end="0,0" quantization_level="I8" strides="1,1" />
			<input>
				<port id="0">
					<dim>1</dim>
					<dim>32</dim>
					<dim>48</dim>
					<dim>24</dim>
				</port>
			</input>
			<output>
				<port id="1">
					<dim>1</dim>
					<dim>16</dim>
					<dim>48</dim>
					<dim>24</dim>
				</port>
			</output>
			<blobs>
				<biases offset="19640" size="64" />
				<weights offset="19704" size="2048" />
			</blobs>
		</layer>
		<layer name="bottleneck2_0/dim_red/fn" type="elu" precision="FP32" id="28">
			<data alpha="1.0" />
			<input>
				<port id="0">
					<dim>1</dim>
					<dim>16</dim>
					<dim>48</dim>
					<dim>24</dim>
				</port>
			</input>
			<output>
				<port id="1">
					<dim>1</dim>
					<dim>16</dim>
					<dim>48</dim>
					<dim>24</dim>
				</port>
			</output>
		</layer>
		<layer name="bottleneck2_0/inner/dw1/conv" type="Convolution" precision="FP32" id="29">
			<data dilations="1,1" group="16" kernel="3,3" output="16" pads_begin="1,1" pads_end="1,1" quantization_level="I8" strides="2,2" />
			<input>
				<port id="0">
					<dim>1</dim>
					<dim>16</dim>
					<dim>48</dim>
					<dim>24</dim>
				</port>
			</input>
			<output>
				<port id="1">
					<dim>1</dim>
					<dim>16</dim>
					<dim>24</dim>
					<dim>12</dim>
				</port>
			</output>
			<blobs>
				<biases offset="21752" size="64" />
				<weights offset="21816" size="576" />
			</blobs>
		</layer>
		<layer name="bottleneck2_0/inner/dw1/fn" type="elu" precision="FP32" id="30">
			<data alpha="1.0" />
			<input>
				<port id="0">
					<dim>1</dim>
					<dim>16</dim>
					<dim>24</dim>
					<dim>12</dim>
				</port>
			</input>
			<output>
				<port id="1">
					<dim>1</dim>
					<dim>16</dim>
					<dim>24</dim>
					<dim>12</dim>
				</port>
			</output>
		</layer>
		<layer name="bottleneck2_0/dim_inc/conv" type="Convolution" precision="FP32" id="31">
			<data dilations="1,1" group="1" kernel="1,1" output="64" pads_begin="0,0" pads_end="0,0" quantization_level="I8" strides="1,1" />
			<input>
				<port id="0">
					<dim>1</dim>
					<dim>16</dim>
					<dim>24</dim>
					<dim>12</dim>
				</port>
			</input>
			<output>
				<port id="1">
					<dim>1</dim>
					<dim>64</dim>
					<dim>24</dim>
					<dim>12</dim>
				</port>
			</output>
			<blobs>
				<biases offset="22392" size="256" />
				<weights offset="22648" size="4096" />
			</blobs>
		</layer>
		<layer name="bottleneck2_0/add" type="Eltwise" precision="FP32" id="32">
			<data operation="sum" />
			<input>
				<port id="0">
					<dim>1</dim>
					<dim>64</dim>
					<dim>24</dim>
					<dim>12</dim>
				</port>
				<port id="1">
					<dim>1</dim>
					<dim>64</dim>
					<dim>24</dim>
					<dim>12</dim>
				</port>
			</input>
			<output>
				<port id="2">
					<dim>1</dim>
					<dim>64</dim>
					<dim>24</dim>
					<dim>12</dim>
				</port>
			</output>
		</layer>
		<layer name="bottleneck2_0/fn" type="elu" precision="FP32" id="33">
			<data alpha="1.0" />
			<input>
				<port id="0">
					<dim>1</dim>
					<dim>64</dim>
					<dim>24</dim>
					<dim>12</dim>
				</port>
			</input>
			<output>
				<port id="1">
					<dim>1</dim>
					<dim>64</dim>
					<dim>24</dim>
					<dim>12</dim>
				</port>
			</output>
		</layer>
		<layer name="bottleneck2_1/dim_red/conv" type="Convolution" precision="FP32" id="34">
			<data dilations="1,1" group="1" kernel="1,1" output="16" pads_begin="0,0" pads_end="0,0" quantization_level="I8" strides="1,1" />
			<input>
				<port id="0">
					<dim>1</dim>
					<dim>64</dim>
					<dim>24</dim>
					<dim>12</dim>
				</port>
			</input>
			<output>
				<port id="1">
					<dim>1</dim>
					<dim>16</dim>
					<dim>24</dim>
					<dim>12</dim>
				</port>
			</output>
			<blobs>
				<biases offset="26744" size="64" />
				<weights offset="26808" size="4096" />
			</blobs>
		</layer>
		<layer name="bottleneck2_1/dim_red/fn" type="elu" precision="FP32" id="35">
			<data alpha="1.0" />
			<input>
				<port id="0">
					<dim>1</dim>
					<dim>16</dim>
					<dim>24</dim>
					<dim>12</dim>
				</port>
			</input>
			<output>
				<port id="1">
					<dim>1</dim>
					<dim>16</dim>
					<dim>24</dim>
					<dim>12</dim>
				</port>
			</output>
		</layer>
		<layer name="bottleneck2_1/inner/dw1/conv" type="Convolution" precision="FP32" id="36">
			<data dilations="1,1" group="16" kernel="3,3" output="16" pads_begin="1,1" pads_end="1,1" quantization_level="I8" strides="1,1" />
			<input>
				<port id="0">
					<dim>1</dim>
					<dim>16</dim>
					<dim>24</dim>
					<dim>12</dim>
				</port>
			</input>
			<output>
				<port id="1">
					<dim>1</dim>
					<dim>16</dim>
					<dim>24</dim>
					<dim>12</dim>
				</port>
			</output>
			<blobs>
				<biases offset="30904" size="64" />
				<weights offset="30968" size="576" />
			</blobs>
		</layer>
		<layer name="bottleneck2_1/inner/dw1/fn" type="elu" precision="FP32" id="37">
			<data alpha="1.0" />
			<input>
				<port id="0">
					<dim>1</dim>
					<dim>16</dim>
					<dim>24</dim>
					<dim>12</dim>
				</port>
			</input>
			<output>
				<port id="1">
					<dim>1</dim>
					<dim>16</dim>
					<dim>24</dim>
					<dim>12</dim>
				</port>
			</output>
		</layer>
		<layer name="bottleneck2_1/dim_inc/conv" type="Convolution" precision="FP32" id="38">
			<data dilations="1,1" group="1" kernel="1,1" output="64" pads_begin="0,0" pads_end="0,0" quantization_level="I8" strides="1,1" />
			<input>
				<port id="0">
					<dim>1</dim>
					<dim>16</dim>
					<dim>24</dim>
					<dim>12</dim>
				</port>
			</input>
			<output>
				<port id="1">
					<dim>1</dim>
					<dim>64</dim>
					<dim>24</dim>
					<dim>12</dim>
				</port>
			</output>
			<blobs>
				<biases offset="31544" size="256" />
				<weights offset="31800" size="4096" />
			</blobs>
		</layer>
		<layer name="bottleneck2_1/add" type="Eltwise" precision="FP32" id="39">
			<data operation="sum" />
			<input>
				<port id="0">
					<dim>1</dim>
					<dim>64</dim>
					<dim>24</dim>
					<dim>12</dim>
				</port>
				<port id="1">
					<dim>1</dim>
					<dim>64</dim>
					<dim>24</dim>
					<dim>12</dim>
				</port>
			</input>
			<output>
				<port id="2">
					<dim>1</dim>
					<dim>64</dim>
					<dim>24</dim>
					<dim>12</dim>
				</port>
			</output>
		</layer>
		<layer name="bottleneck2_1/fn" type="elu" precision="FP32" id="40">
			<data alpha="1.0" />
			<input>
				<port id="0">
					<dim>1</dim>
					<dim>64</dim>
					<dim>24</dim>
					<dim>12</dim>
				</port>
			</input>
			<output>
				<port id="1">
					<dim>1</dim>
					<dim>64</dim>
					<dim>24</dim>
					<dim>12</dim>
				</port>
			</output>
		</layer>
		<layer name="bottleneck2_2/dim_red/conv" type="Convolution" precision="FP32" id="41">
			<data dilations="1,1" group="1" kernel="1,1" output="16" pads_begin="0,0" pads_end="0,0" quantization_level="I8" strides="1,1" />
			<input>
				<port id="0">
					<dim>1</dim>
					<dim>64</dim>
					<dim>24</dim>
					<dim>12</dim>
				</port>
			</input>
			<output>
				<port id="1">
					<dim>1</dim>
					<dim>16</dim>
					<dim>24</dim>
					<dim>12</dim>
				</port>
			</output>
			<blobs>
				<biases offset="35896" size="64" />
				<weights offset="35960" size="4096" />
			</blobs>
		</layer>
		<layer name="bottleneck2_2/dim_red/fn" type="elu" precision="FP32" id="42">
			<data alpha="1.0" />
			<input>
				<port id="0">
					<dim>1</dim>
					<dim>16</dim>
					<dim>24</dim>
					<dim>12</dim>
				</port>
			</input>
			<output>
				<port id="1">
					<dim>1</dim>
					<dim>16</dim>
					<dim>24</dim>
					<dim>12</dim>
				</port>
			</output>
		</layer>
		<layer name="bottleneck2_2/inner/dw1/conv" type="Convolution" precision="FP32" id="43">
			<data dilations="1,1" group="16" kernel="3,3" output="16" pads_begin="1,1" pads_end="1,1" quantization_level="I8" strides="1,1" />
			<input>
				<port id="0">
					<dim>1</dim>
					<dim>16</dim>
					<dim>24</dim>
					<dim>12</dim>
				</port>
			</input>
			<output>
				<port id="1">
					<dim>1</dim>
					<dim>16</dim>
					<dim>24</dim>
					<dim>12</dim>
				</port>
			</output>
			<blobs>
				<biases offset="40056" size="64" />
				<weights offset="40120" size="576" />
			</blobs>
		</layer>
		<layer name="bottleneck2_2/inner/dw1/fn" type="elu" precision="FP32" id="44">
			<data alpha="1.0" />
			<input>
				<port id="0">
					<dim>1</dim>
					<dim>16</dim>
					<dim>24</dim>
					<dim>12</dim>
				</port>
			</input>
			<output>
				<port id="1">
					<dim>1</dim>
					<dim>16</dim>
					<dim>24</dim>
					<dim>12</dim>
				</port>
			</output>
		</layer>
		<layer name="bottleneck2_2/dim_inc/conv" type="Convolution" precision="FP32" id="45">
			<data dilations="1,1" group="1" kernel="1,1" output="64" pads_begin="0,0" pads_end="0,0" quantization_level="I8" strides="1,1" />
			<input>
				<port id="0">
					<dim>1</dim>
					<dim>16</dim>
					<dim>24</dim>
					<dim>12</dim>
				</port>
			</input>
			<output>
				<port id="1">
					<dim>1</dim>
					<dim>64</dim>
					<dim>24</dim>
					<dim>12</dim>
				</port>
			</output>
			<blobs>
				<biases offset="40696" size="256" />
				<weights offset="40952" size="4096" />
			</blobs>
		</layer>
		<layer name="bottleneck2_2/add" type="Eltwise" precision="FP32" id="46">
			<data operation="sum" />
			<input>
				<port id="0">
					<dim>1</dim>
					<dim>64</dim>
					<dim>24</dim>
					<dim>12</dim>
				</port>
				<port id="1">
					<dim>1</dim>
					<dim>64</dim>
					<dim>24</dim>
					<dim>12</dim>
				</port>
			</input>
			<output>
				<port id="2">
					<dim>1</dim>
					<dim>64</dim>
					<dim>24</dim>
					<dim>12</dim>
				</port>
			</output>
		</layer>
		<layer name="bottleneck2_2/fn" type="elu" precision="FP32" id="47">
			<data alpha="1.0" />
			<input>
				<port id="0">
					<dim>1</dim>
					<dim>64</dim>
					<dim>24</dim>
					<dim>12</dim>
				</port>
			</input>
			<output>
				<port id="1">
					<dim>1</dim>
					<dim>64</dim>
					<dim>24</dim>
					<dim>12</dim>
				</port>
			</output>
		</layer>
		<layer name="bottleneck2_3/dim_red/conv" type="Convolution" precision="FP32" id="48">
			<data dilations="1,1" group="1" kernel="1,1" output="16" pads_begin="0,0" pads_end="0,0" quantization_level="I8" strides="1,1" />
			<input>
				<port id="0">
					<dim>1</dim>
					<dim>64</dim>
					<dim>24</dim>
					<dim>12</dim>
				</port>
			</input>
			<output>
				<port id="1">
					<dim>1</dim>
					<dim>16</dim>
					<dim>24</dim>
					<dim>12</dim>
				</port>
			</output>
			<blobs>
				<biases offset="45048" size="64" />
				<weights offset="45112" size="4096" />
			</blobs>
		</layer>
		<layer name="bottleneck2_3/dim_red/fn" type="elu" precision="FP32" id="49">
			<data alpha="1.0" />
			<input>
				<port id="0">
					<dim>1</dim>
					<dim>16</dim>
					<dim>24</dim>
					<dim>12</dim>
				</port>
			</input>
			<output>
				<port id="1">
					<dim>1</dim>
					<dim>16</dim>
					<dim>24</dim>
					<dim>12</dim>
				</port>
			</output>
		</layer>
		<layer name="bottleneck2_3/inner/dw1/conv" type="Convolution" precision="FP32" id="50">
			<data dilations="1,1" group="16" kernel="3,3" output="16" pads_begin="1,1" pads_end="1,1" quantization_level="I8" strides="1,1" />
			<input>
				<port id="0">
					<dim>1</dim>
					<dim>16</dim>
					<dim>24</dim>
					<dim>12</dim>
				</port>
			</input>
			<output>
				<port id="1">
					<dim>1</dim>
					<dim>16</dim>
					<dim>24</dim>
					<dim>12</dim>
				</port>
			</output>
			<blobs>
				<biases offset="49208" size="64" />
				<weights offset="49272" size="576" />
			</blobs>
		</layer>
		<layer name="bottleneck2_3/inner/dw1/fn" type="elu" precision="FP32" id="51">
			<data alpha="1.0" />
			<input>
				<port id="0">
					<dim>1</dim>
					<dim>16</dim>
					<dim>24</dim>
					<dim>12</dim>
				</port>
			</input>
			<output>
				<port id="1">
					<dim>1</dim>
					<dim>16</dim>
					<dim>24</dim>
					<dim>12</dim>
				</port>
			</output>
		</layer>
		<layer name="bottleneck2_3/dim_inc/conv" type="Convolution" precision="FP32" id="52">
			<data dilations="1,1" group="1" kernel="1,1" output="64" pads_begin="0,0" pads_end="0,0" quantization_level="I8" strides="1,1" />
			<input>
				<port id="0">
					<dim>1</dim>
					<dim>16</dim>
					<dim>24</dim>
					<dim>12</dim>
				</port>
			</input>
			<output>
				<port id="1">
					<dim>1</dim>
					<dim>64</dim>
					<dim>24</dim>
					<dim>12</dim>
				</port>
			</output>
			<blobs>
				<biases offset="49848" size="256" />
				<weights offset="50104" size="4096" />
			</blobs>
		</layer>
		<layer name="bottleneck2_3/add" type="Eltwise" precision="FP32" id="53">
			<data operation="sum" />
			<input>
				<port id="0">
					<dim>1</dim>
					<dim>64</dim>
					<dim>24</dim>
					<dim>12</dim>
				</port>
				<port id="1">
					<dim>1</dim>
					<dim>64</dim>
					<dim>24</dim>
					<dim>12</dim>
				</port>
			</input>
			<output>
				<port id="2">
					<dim>1</dim>
					<dim>64</dim>
					<dim>24</dim>
					<dim>12</dim>
				</port>
			</output>
		</layer>
		<layer name="bottleneck2_3/fn" type="elu" precision="FP32" id="54">
			<data alpha="1.0" />
			<input>
				<port id="0">
					<dim>1</dim>
					<dim>64</dim>
					<dim>24</dim>
					<dim>12</dim>
				</port>
			</input>
			<output>
				<port id="1">
					<dim>1</dim>
					<dim>64</dim>
					<dim>24</dim>
					<dim>12</dim>
				</port>
			</output>
		</layer>
		<layer name="bottleneck3_0/skip/pooling" type="Pooling" precision="FP32" id="55">
			<data exclude-pad="true" kernel="2,2" pads_begin="0,0" pads_end="0,0" pool-method="max" rounding_type="ceil" strides="2,2" />
			<input>
				<port id="0">
					<dim>1</dim>
					<dim>64</dim>
					<dim>24</dim>
					<dim>12</dim>
				</port>
			</input>
			<output>
				<port id="1">
					<dim>1</dim>
					<dim>64</dim>
					<dim>12</dim>
					<dim>6</dim>
				</port>
			</output>
		</layer>
		<layer name="bottleneck3_0/skip/conv" type="Convolution" precision="FP32" id="56">
			<data dilations="1,1" group="1" kernel="1,1" output="128" pads_begin="0,0" pads_end="0,0" quantization_level="I8" strides="1,1" />
			<input>
				<port id="0">
					<dim>1</dim>
					<dim>64</dim>
					<dim>12</dim>
					<dim>6</dim>
				</port>
			</input>
			<output>
				<port id="1">
					<dim>1</dim>
					<dim>128</dim>
					<dim>12</dim>
					<dim>6</dim>
				</port>
			</output>
			<blobs>
				<biases offset="54200" size="512" />
				<weights offset="54712" size="32768" />
			</blobs>
		</layer>
		<layer name="bottleneck3_0/dim_red/conv" type="Convolution" precision="FP32" id="57">
			<data dilations="1,1" group="1" kernel="1,1" output="32" pads_begin="0,0" pads_end="0,0" quantization_level="I8" strides="1,1" />
			<input>
				<port id="0">
					<dim>1</dim>
					<dim>64</dim>
					<dim>24</dim>
					<dim>12</dim>
				</port>
			</input>
			<output>
				<port id="1">
					<dim>1</dim>
					<dim>32</dim>
					<dim>24</dim>
					<dim>12</dim>
				</port>
			</output>
			<blobs>
				<biases offset="87480" size="128" />
				<weights offset="87608" size="8192" />
			</blobs>
		</layer>
		<layer name="bottleneck3_0/dim_red/fn" type="elu" precision="FP32" id="58">
			<data alpha="1.0" />
			<input>
				<port id="0">
					<dim>1</dim>
					<dim>32</dim>
					<dim>24</dim>
					<dim>12</dim>
				</port>
			</input>
			<output>
				<port id="1">
					<dim>1</dim>
					<dim>32</dim>
					<dim>24</dim>
					<dim>12</dim>
				</port>
			</output>
		</layer>
		<layer name="bottleneck3_0/inner/dw1/conv" type="Convolution" precision="FP32" id="59">
			<data dilations="1,1" group="32" kernel="3,3" output="32" pads_begin="1,1" pads_end="1,1" quantization_level="I8" strides="2,2" />
			<input>
				<port id="0">
					<dim>1</dim>
					<dim>32</dim>
					<dim>24</dim>
					<dim>12</dim>
				</port>
			</input>
			<output>
				<port id="1">
					<dim>1</dim>
					<dim>32</dim>
					<dim>12</dim>
					<dim>6</dim>
				</port>
			</output>
			<blobs>
				<biases offset="95800" size="128" />
				<weights offset="95928" size="1152" />
			</blobs>
		</layer>
		<layer name="bottleneck3_0/inner/dw1/fn" type="elu" precision="FP32" id="60">
			<data alpha="1.0" />
			<input>
				<port id="0">
					<dim>1</dim>
					<dim>32</dim>
					<dim>12</dim>
					<dim>6</dim>
				</port>
			</input>
			<output>
				<port id="1">
					<dim>1</dim>
					<dim>32</dim>
					<dim>12</dim>
					<dim>6</dim>
				</port>
			</output>
		</layer>
		<layer name="bottleneck3_0/dim_inc/conv" type="Convolution" precision="FP32" id="61">
			<data dilations="1,1" group="1" kernel="1,1" output="128" pads_begin="0,0" pads_end="0,0" quantization_level="I8" strides="1,1" />
			<input>
				<port id="0">
					<dim>1</dim>
					<dim>32</dim>
					<dim>12</dim>
					<dim>6</dim>
				</port>
			</input>
			<output>
				<port id="1">
					<dim>1</dim>
					<dim>128</dim>
					<dim>12</dim>
					<dim>6</dim>
				</port>
			</output>
			<blobs>
				<biases offset="97080" size="512" />
				<weights offset="97592" size="16384" />
			</blobs>
		</layer>
		<layer name="bottleneck3_0/add" type="Eltwise" precision="FP32" id="62">
			<data operation="sum" />
			<input>
				<port id="0">
					<dim>1</dim>
					<dim>128</dim>
					<dim>12</dim>
					<dim>6</dim>
				</port>
				<port id="1">
					<dim>1</dim>
					<dim>128</dim>
					<dim>12</dim>
					<dim>6</dim>
				</port>
			</input>
			<output>
				<port id="2">
					<dim>1</dim>
					<dim>128</dim>
					<dim>12</dim>
					<dim>6</dim>
				</port>
			</output>
		</layer>
		<layer name="bottleneck3_0/fn" type="elu" precision="FP32" id="63">
			<data alpha="1.0" />
			<input>
				<port id="0">
					<dim>1</dim>
					<dim>128</dim>
					<dim>12</dim>
					<dim>6</dim>
				</port>
			</input>
			<output>
				<port id="1">
					<dim>1</dim>
					<dim>128</dim>
					<dim>12</dim>
					<dim>6</dim>
				</port>
			</output>
		</layer>
		<layer name="bottleneck3_1/dim_red/conv" type="Convolution" precision="FP32" id="64">
			<data dilations="1,1" group="1" kernel="1,1" output="32" pads_begin="0,0" pads_end="0,0" quantization_level="I8" strides="1,1" />
			<input>
				<port id="0">
					<dim>1</dim>
					<dim>128</dim>
					<dim>12</dim>
					<dim>6</dim>
				</port>
			</input>
			<output>
				<port id="1">
					<dim>1</dim>
					<dim>32</dim>
					<dim>12</dim>
					<dim>6</dim>
				</port>
			</output>
			<blobs>
				<biases offset="113976" size="128" />
				<weights offset="114104" size="16384" />
			</blobs>
		</layer>
		<layer name="bottleneck3_1/dim_red/fn" type="elu" precision="FP32" id="65">
			<data alpha="1.0" />
			<input>
				<port id="0">
					<dim>1</dim>
					<dim>32</dim>
					<dim>12</dim>
					<dim>6</dim>
				</port>
			</input>
			<output>
				<port id="1">
					<dim>1</dim>
					<dim>32</dim>
					<dim>12</dim>
					<dim>6</dim>
				</port>
			</output>
		</layer>
		<layer name="bottleneck3_1/inner/dw1/conv" type="Convolution" precision="FP32" id="66">
			<data dilations="1,1" group="32" kernel="3,3" output="32" pads_begin="1,1" pads_end="1,1" quantization_level="I8" strides="1,1" />
			<input>
				<port id="0">
					<dim>1</dim>
					<dim>32</dim>
					<dim>12</dim>
					<dim>6</dim>
				</port>
			</input>
			<output>
				<port id="1">
					<dim>1</dim>
					<dim>32</dim>
					<dim>12</dim>
					<dim>6</dim>
				</port>
			</output>
			<blobs>
				<biases offset="130488" size="128" />
				<weights offset="130616" size="1152" />
			</blobs>
		</layer>
		<layer name="bottleneck3_1/inner/dw1/fn" type="elu" precision="FP32" id="67">
			<data alpha="1.0" />
			<input>
				<port id="0">
					<dim>1</dim>
					<dim>32</dim>
					<dim>12</dim>
					<dim>6</dim>
				</port>
			</input>
			<output>
				<port id="1">
					<dim>1</dim>
					<dim>32</dim>
					<dim>12</dim>
					<dim>6</dim>
				</port>
			</output>
		</layer>
		<layer name="bottleneck3_1/dim_inc/conv" type="Convolution" precision="FP32" id="68">
			<data dilations="1,1" group="1" kernel="1,1" output="128" pads_begin="0,0" pads_end="0,0" quantization_level="I8" strides="1,1" />
			<input>
				<port id="0">
					<dim>1</dim>
					<dim>32</dim>
					<dim>12</dim>
					<dim>6</dim>
				</port>
			</input>
			<output>
				<port id="1">
					<dim>1</dim>
					<dim>128</dim>
					<dim>12</dim>
					<dim>6</dim>
				</port>
			</output>
			<blobs>
				<biases offset="131768" size="512" />
				<weights offset="132280" size="16384" />
			</blobs>
		</layer>
		<layer name="bottleneck3_1/add" type="Eltwise" precision="FP32" id="69">
			<data operation="sum" />
			<input>
				<port id="0">
					<dim>1</dim>
					<dim>128</dim>
					<dim>12</dim>
					<dim>6</dim>
				</port>
				<port id="1">
					<dim>1</dim>
					<dim>128</dim>
					<dim>12</dim>
					<dim>6</dim>
				</port>
			</input>
			<output>
				<port id="2">
					<dim>1</dim>
					<dim>128</dim>
					<dim>12</dim>
					<dim>6</dim>
				</port>
			</output>
		</layer>
		<layer name="bottleneck3_1/fn" type="elu" precision="FP32" id="70">
			<data alpha="1.0" />
			<input>
				<port id="0">
					<dim>1</dim>
					<dim>128</dim>
					<dim>12</dim>
					<dim>6</dim>
				</port>
			</input>
			<output>
				<port id="1">
					<dim>1</dim>
					<dim>128</dim>
					<dim>12</dim>
					<dim>6</dim>
				</port>
			</output>
		</layer>
		<layer name="bottleneck3_2/dim_red/conv" type="Convolution" precision="FP32" id="71">
			<data dilations="1,1" group="1" kernel="1,1" output="32" pads_begin="0,0" pads_end="0,0" quantization_level="I8" strides="1,1" />
			<input>
				<port id="0">
					<dim>1</dim>
					<dim>128</dim>
					<dim>12</dim>
					<dim>6</dim>
				</port>
			</input>
			<output>
				<port id="1">
					<dim>1</dim>
					<dim>32</dim>
					<dim>12</dim>
					<dim>6</dim>
				</port>
			</output>
			<blobs>
				<biases offset="148664" size="128" />
				<weights offset="148792" size="16384" />
			</blobs>
		</layer>
		<layer name="bottleneck3_2/dim_red/fn" type="elu" precision="FP32" id="72">
			<data alpha="1.0" />
			<input>
				<port id="0">
					<dim>1</dim>
					<dim>32</dim>
					<dim>12</dim>
					<dim>6</dim>
				</port>
			</input>
			<output>
				<port id="1">
					<dim>1</dim>
					<dim>32</dim>
					<dim>12</dim>
					<dim>6</dim>
				</port>
			</output>
		</layer>
		<layer name="bottleneck3_2/inner/dw1/conv" type="Convolution" precision="FP32" id="73">
			<data dilations="1,1" group="32" kernel="3,3" output="32" pads_begin="1,1" pads_end="1,1" quantization_level="I8" strides="1,1" />
			<input>
				<port id="0">
					<dim>1</dim>
					<dim>32</dim>
					<dim>12</dim>
					<dim>6</dim>
				</port>
			</input>
			<output>
				<port id="1">
					<dim>1</dim>
					<dim>32</dim>
					<dim>12</dim>
					<dim>6</dim>
				</port>
			</output>
			<blobs>
				<biases offset="165176" size="128" />
				<weights offset="165304" size="1152" />
			</blobs>
		</layer>
		<layer name="bottleneck3_2/inner/dw1/fn" type="elu" precision="FP32" id="74">
			<data alpha="1.0" />
			<input>
				<port id="0">
					<dim>1</dim>
					<dim>32</dim>
					<dim>12</dim>
					<dim>6</dim>
				</port>
			</input>
			<output>
				<port id="1">
					<dim>1</dim>
					<dim>32</dim>
					<dim>12</dim>
					<dim>6</dim>
				</port>
			</output>
		</layer>
		<layer name="bottleneck3_2/dim_inc/conv" type="Convolution" precision="FP32" id="75">
			<data dilations="1,1" group="1" kernel="1,1" output="128" pads_begin="0,0" pads_end="0,0" quantization_level="I8" strides="1,1" />
			<input>
				<port id="0">
					<dim>1</dim>
					<dim>32</dim>
					<dim>12</dim>
					<dim>6</dim>
				</port>
			</input>
			<output>
				<port id="1">
					<dim>1</dim>
					<dim>128</dim>
					<dim>12</dim>
					<dim>6</dim>
				</port>
			</output>
			<blobs>
				<biases offset="166456" size="512" />
				<weights offset="166968" size="16384" />
			</blobs>
		</layer>
		<layer name="bottleneck3_2/add" type="Eltwise" precision="FP32" id="76">
			<data operation="sum" />
			<input>
				<port id="0">
					<dim>1</dim>
					<dim>128</dim>
					<dim>12</dim>
					<dim>6</dim>
				</port>
				<port id="1">
					<dim>1</dim>
					<dim>128</dim>
					<dim>12</dim>
					<dim>6</dim>
				</port>
			</input>
			<output>
				<port id="2">
					<dim>1</dim>
					<dim>128</dim>
					<dim>12</dim>
					<dim>6</dim>
				</port>
			</output>
		</layer>
		<layer name="bottleneck3_2/fn" type="elu" precision="FP32" id="77">
			<data alpha="1.0" />
			<input>
				<port id="0">
					<dim>1</dim>
					<dim>128</dim>
					<dim>12</dim>
					<dim>6</dim>
				</port>
			</input>
			<output>
				<port id="1">
					<dim>1</dim>
					<dim>128</dim>
					<dim>12</dim>
					<dim>6</dim>
				</port>
			</output>
		</layer>
		<layer name="bottleneck3_3/dim_red/conv" type="Convolution" precision="FP32" id="78">
			<data dilations="1,1" group="1" kernel="1,1" output="32" pads_begin="0,0" pads_end="0,0" quantization_level="I8" strides="1,1" />
			<input>
				<port id="0">
					<dim>1</dim>
					<dim>128</dim>
					<dim>12</dim>
					<dim>6</dim>
				</port>
			</input>
			<output>
				<port id="1">
					<dim>1</dim>
					<dim>32</dim>
					<dim>12</dim>
					<dim>6</dim>
				</port>
			</output>
			<blobs>
				<biases offset="183352" size="128" />
				<weights offset="183480" size="16384" />
			</blobs>
		</layer>
		<layer name="bottleneck3_3/dim_red/fn" type="elu" precision="FP32" id="79">
			<data alpha="1.0" />
			<input>
				<port id="0">
					<dim>1</dim>
					<dim>32</dim>
					<dim>12</dim>
					<dim>6</dim>
				</port>
			</input>
			<output>
				<port id="1">
					<dim>1</dim>
					<dim>32</dim>
					<dim>12</dim>
					<dim>6</dim>
				</port>
			</output>
		</layer>
		<layer name="bottleneck3_3/inner/dw1/conv" type="Convolution" precision="FP32" id="80">
			<data dilations="1,1" group="32" kernel="3,3" output="32" pads_begin="1,1" pads_end="1,1" quantization_level="I8" strides="1,1" />
			<input>
				<port id="0">
					<dim>1</dim>
					<dim>32</dim>
					<dim>12</dim>
					<dim>6</dim>
				</port>
			</input>
			<output>
				<port id="1">
					<dim>1</dim>
					<dim>32</dim>
					<dim>12</dim>
					<dim>6</dim>
				</port>
			</output>
			<blobs>
				<biases offset="199864" size="128" />
				<weights offset="199992" size="1152" />
			</blobs>
		</layer>
		<layer name="bottleneck3_3/inner/dw1/fn" type="elu" precision="FP32" id="81">
			<data alpha="1.0" />
			<input>
				<port id="0">
					<dim>1</dim>
					<dim>32</dim>
					<dim>12</dim>
					<dim>6</dim>
				</port>
			</input>
			<output>
				<port id="1">
					<dim>1</dim>
					<dim>32</dim>
					<dim>12</dim>
					<dim>6</dim>
				</port>
			</output>
		</layer>
		<layer name="bottleneck3_3/dim_inc/conv" type="Convolution" precision="FP32" id="82">
			<data dilations="1,1" group="1" kernel="1,1" output="128" pads_begin="0,0" pads_end="0,0" quantization_level="I8" strides="1,1" />
			<input>
				<port id="0">
					<dim>1</dim>
					<dim>32</dim>
					<dim>12</dim>
					<dim>6</dim>
				</port>
			</input>
			<output>
				<port id="1">
					<dim>1</dim>
					<dim>128</dim>
					<dim>12</dim>
					<dim>6</dim>
				</port>
			</output>
			<blobs>
				<biases offset="201144" size="512" />
				<weights offset="201656" size="16384" />
			</blobs>
		</layer>
		<layer name="bottleneck3_3/add" type="Eltwise" precision="FP32" id="83">
			<data operation="sum" />
			<input>
				<port id="0">
					<dim>1</dim>
					<dim>128</dim>
					<dim>12</dim>
					<dim>6</dim>
				</port>
				<port id="1">
					<dim>1</dim>
					<dim>128</dim>
					<dim>12</dim>
					<dim>6</dim>
				</port>
			</input>
			<output>
				<port id="2">
					<dim>1</dim>
					<dim>128</dim>
					<dim>12</dim>
					<dim>6</dim>
				</port>
			</output>
		</layer>
		<layer name="bottleneck3_3/fn" type="elu" precision="FP32" id="84">
			<data alpha="1.0" />
			<input>
				<port id="0">
					<dim>1</dim>
					<dim>128</dim>
					<dim>12</dim>
					<dim>6</dim>
				</port>
			</input>
			<output>
				<port id="1">
					<dim>1</dim>
					<dim>128</dim>
					<dim>12</dim>
					<dim>6</dim>
				</port>
			</output>
		</layer>
		<layer name="bottleneck4_0/skip/pooling" type="Pooling" precision="FP32" id="85">
			<data exclude-pad="true" kernel="2,2" pads_begin="0,0" pads_end="0,0" pool-method="max" rounding_type="ceil" strides="2,2" />
			<input>
				<port id="0">
					<dim>1</dim>
					<dim>128</dim>
					<dim>12</dim>
					<dim>6</dim>
				</port>
			</input>
			<output>
				<port id="1">
					<dim>1</dim>
					<dim>128</dim>
					<dim>6</dim>
					<dim>3</dim>
				</port>
			</output>
		</layer>
		<layer name="bottleneck4_0/skip/conv" type="Convolution" precision="FP32" id="86">
			<data dilations="1,1" group="1" kernel="1,1" output="256" pads_begin="0,0" pads_end="0,0" quantization_level="I8" strides="1,1" />
			<input>
				<port id="0">
					<dim>1</dim>
					<dim>128</dim>
					<dim>6</dim>
					<dim>3</dim>
				</port>
			</input>
			<output>
				<port id="1">
					<dim>1</dim>
					<dim>256</dim>
					<dim>6</dim>
					<dim>3</dim>
				</port>
			</output>
			<blobs>
				<biases offset="218040" size="1024" />
				<weights offset="219064" size="131072" />
			</blobs>
		</layer>
		<layer name="bottleneck4_0/dim_red/conv" type="Convolution" precision="FP32" id="87">
			<data dilations="1,1" group="1" kernel="1,1" output="64" pads_begin="0,0" pads_end="0,0" quantization_level="I8" strides="1,1" />
			<input>
				<port id="0">
					<dim>1</dim>
					<dim>128</dim>
					<dim>12</dim>
					<dim>6</dim>
				</port>
			</input>
			<output>
				<port id="1">
					<dim>1</dim>
					<dim>64</dim>
					<dim>12</dim>
					<dim>6</dim>
				</port>
			</output>
			<blobs>
				<biases offset="350136" size="256" />
				<weights offset="350392" size="32768" />
			</blobs>
		</layer>
		<layer name="bottleneck4_0/dim_red/fn" type="elu" precision="FP32" id="88">
			<data alpha="1.0" />
			<input>
				<port id="0">
					<dim>1</dim>
					<dim>64</dim>
					<dim>12</dim>
					<dim>6</dim>
				</port>
			</input>
			<output>
				<port id="1">
					<dim>1</dim>
					<dim>64</dim>
					<dim>12</dim>
					<dim>6</dim>
				</port>
			</output>
		</layer>
		<layer name="bottleneck4_0/inner/dw1/conv" type="Convolution" precision="FP32" id="89">
			<data dilations="1,1" group="64" kernel="3,3" output="64" pads_begin="1,1" pads_end="1,1" quantization_level="I8" strides="2,2" />
			<input>
				<port id="0">
					<dim>1</dim>
					<dim>64</dim>
					<dim>12</dim>
					<dim>6</dim>
				</port>
			</input>
			<output>
				<port id="1">
					<dim>1</dim>
					<dim>64</dim>
					<dim>6</dim>
					<dim>3</dim>
				</port>
			</output>
			<blobs>
				<biases offset="383160" size="256" />
				<weights offset="383416" size="2304" />
			</blobs>
		</layer>
		<layer name="bottleneck4_0/inner/dw1/fn" type="elu" precision="FP32" id="90">
			<data alpha="1.0" />
			<input>
				<port id="0">
					<dim>1</dim>
					<dim>64</dim>
					<dim>6</dim>
					<dim>3</dim>
				</port>
			</input>
			<output>
				<port id="1">
					<dim>1</dim>
					<dim>64</dim>
					<dim>6</dim>
					<dim>3</dim>
				</port>
			</output>
		</layer>
		<layer name="bottleneck4_0/dim_inc/conv" type="Convolution" precision="FP32" id="91">
			<data dilations="1,1" group="1" kernel="1,1" output="256" pads_begin="0,0" pads_end="0,0" quantization_level="I8" strides="1,1" />
			<input>
				<port id="0">
					<dim>1</dim>
					<dim>64</dim>
					<dim>6</dim>
					<dim>3</dim>
				</port>
			</input>
			<output>
				<port id="1">
					<dim>1</dim>
					<dim>256</dim>
					<dim>6</dim>
					<dim>3</dim>
				</port>
			</output>
			<blobs>
				<biases offset="385720" size="1024" />
				<weights offset="386744" size="65536" />
			</blobs>
		</layer>
		<layer name="bottleneck4_0/add" type="Eltwise" precision="FP32" id="92">
			<data operation="sum" />
			<input>
				<port id="0">
					<dim>1</dim>
					<dim>256</dim>
					<dim>6</dim>
					<dim>3</dim>
				</port>
				<port id="1">
					<dim>1</dim>
					<dim>256</dim>
					<dim>6</dim>
					<dim>3</dim>
				</port>
			</input>
			<output>
				<port id="2">
					<dim>1</dim>
					<dim>256</dim>
					<dim>6</dim>
					<dim>3</dim>
				</port>
			</output>
		</layer>
		<layer name="bottleneck4_0/fn" type="elu" precision="FP32" id="93">
			<data alpha="1.0" />
			<input>
				<port id="0">
					<dim>1</dim>
					<dim>256</dim>
					<dim>6</dim>
					<dim>3</dim>
				</port>
			</input>
			<output>
				<port id="1">
					<dim>1</dim>
					<dim>256</dim>
					<dim>6</dim>
					<dim>3</dim>
				</port>
			</output>
		</layer>
		<layer name="bottleneck4_1/dim_red/conv" type="Convolution" precision="FP32" id="94">
			<data dilations="1,1" group="1" kernel="1,1" output="64" pads_begin="0,0" pads_end="0,0" quantization_level="I8" strides="1,1" />
			<input>
				<port id="0">
					<dim>1</dim>
					<dim>256</dim>
					<dim>6</dim>
					<dim>3</dim>
				</port>
			</input>
			<output>
				<port id="1">
					<dim>1</dim>
					<dim>64</dim>
					<dim>6</dim>
					<dim>3</dim>
				</port>
			</output>
			<blobs>
				<biases offset="452280" size="256" />
				<weights offset="452536" size="65536" />
			</blobs>
		</layer>
		<layer name="bottleneck4_1/dim_red/fn" type="elu" precision="FP32" id="95">
			<data alpha="1.0" />
			<input>
				<port id="0">
					<dim>1</dim>
					<dim>64</dim>
					<dim>6</dim>
					<dim>3</dim>
				</port>
			</input>
			<output>
				<port id="1">
					<dim>1</dim>
					<dim>64</dim>
					<dim>6</dim>
					<dim>3</dim>
				</port>
			</output>
		</layer>
		<layer name="bottleneck4_1/inner/dw1/conv" type="Convolution" precision="FP32" id="96">
			<data dilations="1,1" group="64" kernel="3,3" output="64" pads_begin="1,1" pads_end="1,1" quantization_level="I8" strides="1,1" />
			<input>
				<port id="0">
					<dim>1</dim>
					<dim>64</dim>
					<dim>6</dim>
					<dim>3</dim>
				</port>
			</input>
			<output>
				<port id="1">
					<dim>1</dim>
					<dim>64</dim>
					<dim>6</dim>
					<dim>3</dim>
				</port>
			</output>
			<blobs>
				<biases offset="518072" size="256" />
				<weights offset="518328" size="2304" />
			</blobs>
		</layer>
		<layer name="bottleneck4_1/inner/dw1/fn" type="elu" precision="FP32" id="97">
			<data alpha="1.0" />
			<input>
				<port id="0">
					<dim>1</dim>
					<dim>64</dim>
					<dim>6</dim>
					<dim>3</dim>
				</port>
			</input>
			<output>
				<port id="1">
					<dim>1</dim>
					<dim>64</dim>
					<dim>6</dim>
					<dim>3</dim>
				</port>
			</output>
		</layer>
		<layer name="bottleneck4_1/dim_inc/conv" type="Convolution" precision="FP32" id="98">
			<data dilations="1,1" group="1" kernel="1,1" output="256" pads_begin="0,0" pads_end="0,0" quantization_level="I8" strides="1,1" />
			<input>
				<port id="0">
					<dim>1</dim>
					<dim>64</dim>
					<dim>6</dim>
					<dim>3</dim>
				</port>
			</input>
			<output>
				<port id="1">
					<dim>1</dim>
					<dim>256</dim>
					<dim>6</dim>
					<dim>3</dim>
				</port>
			</output>
			<blobs>
				<biases offset="520632" size="1024" />
				<weights offset="521656" size="65536" />
			</blobs>
		</layer>
		<layer name="bottleneck4_1/add" type="Eltwise" precision="FP32" id="99">
			<data operation="sum" />
			<input>
				<port id="0">
					<dim>1</dim>
					<dim>256</dim>
					<dim>6</dim>
					<dim>3</dim>
				</port>
				<port id="1">
					<dim>1</dim>
					<dim>256</dim>
					<dim>6</dim>
					<dim>3</dim>
				</port>
			</input>
			<output>
				<port id="2">
					<dim>1</dim>
					<dim>256</dim>
					<dim>6</dim>
					<dim>3</dim>
				</port>
			</output>
		</layer>
		<layer name="bottleneck4_1/fn" type="elu" precision="FP32" id="100">
			<data alpha="1.0" />
			<input>
				<port id="0">
					<dim>1</dim>
					<dim>256</dim>
					<dim>6</dim>
					<dim>3</dim>
				</port>
			</input>
			<output>
				<port id="1">
					<dim>1</dim>
					<dim>256</dim>
					<dim>6</dim>
					<dim>3</dim>
				</port>
			</output>
		</layer>
		<layer name="bottleneck4_2/dim_red/conv" type="Convolution" precision="FP32" id="101">
			<data dilations="1,1" group="1" kernel="1,1" output="64" pads_begin="0,0" pads_end="0,0" quantization_level="I8" strides="1,1" />
			<input>
				<port id="0">
					<dim>1</dim>
					<dim>256</dim>
					<dim>6</dim>
					<dim>3</dim>
				</port>
			</input>
			<output>
				<port id="1">
					<dim>1</dim>
					<dim>64</dim>
					<dim>6</dim>
					<dim>3</dim>
				</port>
			</output>
			<blobs>
				<biases offset="587192" size="256" />
				<weights offset="587448" size="65536" />
			</blobs>
		</layer>
		<layer name="bottleneck4_2/dim_red/fn" type="elu" precision="FP32" id="102">
			<data alpha="1.0" />
			<input>
				<port id="0">
					<dim>1</dim>
					<dim>64</dim>
					<dim>6</dim>
					<dim>3</dim>
				</port>
			</input>
			<output>
				<port id="1">
					<dim>1</dim>
					<dim>64</dim>
					<dim>6</dim>
					<dim>3</dim>
				</port>
			</output>
		</layer>
		<layer name="bottleneck4_2/inner/dw1/conv" type="Convolution" precision="FP32" id="103">
			<data dilations="1,1" group="64" kernel="3,3" output="64" pads_begin="1,1" pads_end="1,1" quantization_level="I8" strides="1,1" />
			<input>
				<port id="0">
					<dim>1</dim>
					<dim>64</dim>
					<dim>6</dim>
					<dim>3</dim>
				</port>
			</input>
			<output>
				<port id="1">
					<dim>1</dim>
					<dim>64</dim>
					<dim>6</dim>
					<dim>3</dim>
				</port>
			</output>
			<blobs>
				<biases offset="652984" size="256" />
				<weights offset="653240" size="2304" />
			</blobs>
		</layer>
		<layer name="bottleneck4_2/inner/dw1/fn" type="elu" precision="FP32" id="104">
			<data alpha="1.0" />
			<input>
				<port id="0">
					<dim>1</dim>
					<dim>64</dim>
					<dim>6</dim>
					<dim>3</dim>
				</port>
			</input>
			<output>
				<port id="1">
					<dim>1</dim>
					<dim>64</dim>
					<dim>6</dim>
					<dim>3</dim>
				</port>
			</output>
		</layer>
		<layer name="bottleneck4_2/dim_inc/conv" type="Convolution" precision="FP32" id="105">
			<data dilations="1,1" group="1" kernel="1,1" output="256" pads_begin="0,0" pads_end="0,0" quantization_level="I8" strides="1,1" />
			<input>
				<port id="0">
					<dim>1</dim>
					<dim>64</dim>
					<dim>6</dim>
					<dim>3</dim>
				</port>
			</input>
			<output>
				<port id="1">
					<dim>1</dim>
					<dim>256</dim>
					<dim>6</dim>
					<dim>3</dim>
				</port>
			</output>
			<blobs>
				<biases offset="655544" size="1024" />
				<weights offset="656568" size="65536" />
			</blobs>
		</layer>
		<layer name="bottleneck4_2/add" type="Eltwise" precision="FP32" id="106">
			<data operation="sum" />
			<input>
				<port id="0">
					<dim>1</dim>
					<dim>256</dim>
					<dim>6</dim>
					<dim>3</dim>
				</port>
				<port id="1">
					<dim>1</dim>
					<dim>256</dim>
					<dim>6</dim>
					<dim>3</dim>
				</port>
			</input>
			<output>
				<port id="2">
					<dim>1</dim>
					<dim>256</dim>
					<dim>6</dim>
					<dim>3</dim>
				</port>
			</output>
		</layer>
		<layer name="bottleneck4_2/fn" type="elu" precision="FP32" id="107">
			<data alpha="1.0" />
			<input>
				<port id="0">
					<dim>1</dim>
					<dim>256</dim>
					<dim>6</dim>
					<dim>3</dim>
				</port>
			</input>
			<output>
				<port id="1">
					<dim>1</dim>
					<dim>256</dim>
					<dim>6</dim>
					<dim>3</dim>
				</port>
			</output>
		</layer>
		<layer name="bottleneck4_3/dim_red/conv" type="Convolution" precision="FP32" id="108">
			<data dilations="1,1" group="1" kernel="1,1" output="64" pads_begin="0,0" pads_end="0,0" quantization_level="I8" strides="1,1" />
			<input>
				<port id="0">
					<dim>1</dim>
					<dim>256</dim>
					<dim>6</dim>
					<dim>3</dim>
				</port>
			</input>
			<output>
				<port id="1">
					<dim>1</dim>
					<dim>64</dim>
					<dim>6</dim>
					<dim>3</dim>
				</port>
			</output>
			<blobs>
				<biases offset="722104" size="256" />
				<weights offset="722360" size="65536" />
			</blobs>
		</layer>
		<layer name="bottleneck4_3/dim_red/fn" type="elu" precision="FP32" id="109">
			<data alpha="1.0" />
			<input>
				<port id="0">
					<dim>1</dim>
					<dim>64</dim>
					<dim>6</dim>
					<dim>3</dim>
				</port>
			</input>
			<output>
				<port id="1">
					<dim>1</dim>
					<dim>64</dim>
					<dim>6</dim>
					<dim>3</dim>
				</port>
			</output>
		</layer>
		<layer name="bottleneck4_3/inner/dw1/conv" type="Convolution" precision="FP32" id="110">
			<data dilations="1,1" group="64" kernel="3,3" output="64" pads_begin="1,1" pads_end="1,1" quantization_level="I8" strides="1,1" />
			<input>
				<port id="0">
					<dim>1</dim>
					<dim>64</dim>
					<dim>6</dim>
					<dim>3</dim>
				</port>
			</input>
			<output>
				<port id="1">
					<dim>1</dim>
					<dim>64</dim>
					<dim>6</dim>
					<dim>3</dim>
				</port>
			</output>
			<blobs>
				<biases offset="787896" size="256" />
				<weights offset="788152" size="2304" />
			</blobs>
		</layer>
		<layer name="bottleneck4_3/inner/dw1/fn" type="elu" precision="FP32" id="111">
			<data alpha="1.0" />
			<input>
				<port id="0">
					<dim>1</dim>
					<dim>64</dim>
					<dim>6</dim>
					<dim>3</dim>
				</port>
			</input>
			<output>
				<port id="1">
					<dim>1</dim>
					<dim>64</dim>
					<dim>6</dim>
					<dim>3</dim>
				</port>
			</output>
		</layer>
		<layer name="bottleneck4_3/dim_inc/conv" type="Convolution" precision="FP32" id="112">
			<data dilations="1,1" group="1" kernel="1,1" output="256" pads_begin="0,0" pads_end="0,0" quantization_level="I8" strides="1,1" />
			<input>
				<port id="0">
					<dim>1</dim>
					<dim>64</dim>
					<dim>6</dim>
					<dim>3</dim>
				</port>
			</input>
			<output>
				<port id="1">
					<dim>1</dim>
					<dim>256</dim>
					<dim>6</dim>
					<dim>3</dim>
				</port>
			</output>
			<blobs>
				<biases offset="790456" size="1024" />
				<weights offset="791480" size="65536" />
			</blobs>
		</layer>
		<layer name="bottleneck4_3/add" type="Eltwise" precision="FP32" id="113">
			<data operation="sum" />
			<input>
				<port id="0">
					<dim>1</dim>
					<dim>256</dim>
					<dim>6</dim>
					<dim>3</dim>
				</port>
				<port id="1">
					<dim>1</dim>
					<dim>256</dim>
					<dim>6</dim>
					<dim>3</dim>
				</port>
			</input>
			<output>
				<port id="2">
					<dim>1</dim>
					<dim>256</dim>
					<dim>6</dim>
					<dim>3</dim>
				</port>
			</output>
		</layer>
		<layer name="bottleneck4_3/fn" type="elu" precision="FP32" id="114">
			<data alpha="1.0" />
			<input>
				<port id="0">
					<dim>1</dim>
					<dim>256</dim>
					<dim>6</dim>
					<dim>3</dim>
				</port>
			</input>
			<output>
				<port id="1">
					<dim>1</dim>
					<dim>256</dim>
					<dim>6</dim>
					<dim>3</dim>
				</port>
			</output>
		</layer>
		<layer name="out_pool" type="Pooling" precision="FP32" id="115">
			<data exclude-pad="true" kernel="6,3" pads_begin="0,0" pads_end="0,0" pool-method="max" rounding_type="ceil" strides="1,1" />
			<input>
				<port id="0">
					<dim>1</dim>
					<dim>256</dim>
					<dim>6</dim>
					<dim>3</dim>
				</port>
			</input>
			<output>
				<port id="1">
					<dim>1</dim>
					<dim>256</dim>
					<dim>1</dim>
					<dim>1</dim>
				</port>
			</output>
		</layer>
		<layer name="ip_reid" type="FullyConnected" precision="FP32" id="116">
			<data out-size="256" quantization_level="I8" />
			<input>
				<port id="0">
					<dim>1</dim>
					<dim>256</dim>
					<dim>1</dim>
					<dim>1</dim>
				</port>
			</input>
			<output>
				<port id="1">
					<dim>1</dim>
					<dim>256</dim>
				</port>
			</output>
			<blobs>
				<biases offset="857016" size="1024" />
				<weights offset="858040" size="262144" />
			</blobs>
		</layer>
	</layers>
	<edges>
		<edge from-layer="0" from-port="0" to-layer="1" to-port="0" />
		<edge from-layer="1" from-port="1" to-layer="2" to-port="0" />
		<edge from-layer="2" from-port="1" to-layer="3" to-port="0" />
		<edge from-layer="3" from-port="1" to-layer="9" to-port="0" />
		<edge from-layer="3" from-port="1" to-layer="4" to-port="0" />
		<edge from-layer="4" from-port="1" to-layer="5" to-port="0" />
		<edge from-layer="5" from-port="1" to-layer="6" to-port="0" />
		<edge from-layer="6" from-port="1" to-layer="7" to-port="0" />
		<edge from-layer="7" from-port="1" to-layer="8" to-port="0" />
		<edge from-layer="8" from-port="1" to-layer="9" to-port="1" />
		<edge from-layer="9" from-port="2" to-layer="10" to-port="0" />
		<edge from-layer="10" from-port="1" to-layer="16" to-port="0" />
		<edge from-layer="10" from-port="1" to-layer="11" to-port="0" />
		<edge from-layer="11" from-port="1" to-layer="12" to-port="0" />
		<edge from-layer="12" from-port="1" to-layer="13" to-port="0" />
		<edge from-layer="13" from-port="1" to-layer="14" to-port="0" />
		<edge from-layer="14" from-port="1" to-layer="15" to-port="0" />
		<edge from-layer="15" from-port="1" to-layer="16" to-port="1" />
		<edge from-layer="16" from-port="2" to-layer="17" to-port="0" />
		<edge from-layer="17" from-port="1" to-layer="23" to-port="0" />
		<edge from-layer="17" from-port="1" to-layer="18" to-port="0" />
		<edge from-layer="18" from-port="1" to-layer="19" to-port="0" />
		<edge from-layer="19" from-port="1" to-layer="20" to-port="0" />
		<edge from-layer="20" from-port="1" to-layer="21" to-port="0" />
		<edge from-layer="21" from-port="1" to-layer="22" to-port="0" />
		<edge from-layer="22" from-port="1" to-layer="23" to-port="1" />
		<edge from-layer="23" from-port="2" to-layer="24" to-port="0" />
		<edge from-layer="24" from-port="1" to-layer="27" to-port="0" />
		<edge from-layer="24" from-port="1" to-layer="25" to-port="0" />
		<edge from-layer="25" from-port="1" to-layer="26" to-port="0" />
		<edge from-layer="26" from-port="1" to-layer="32" to-port="0" />
		<edge from-layer="27" from-port="1" to-layer="28" to-port="0" />
		<edge from-layer="28" from-port="1" to-layer="29" to-port="0" />
		<edge from-layer="29" from-port="1" to-layer="30" to-port="0" />
		<edge from-layer="30" from-port="1" to-layer="31" to-port="0" />
		<edge from-layer="31" from-port="1" to-layer="32" to-port="1" />
		<edge from-layer="32" from-port="2" to-layer="33" to-port="0" />
		<edge from-layer="33" from-port="1" to-layer="39" to-port="0" />
		<edge from-layer="33" from-port="1" to-layer="34" to-port="0" />
		<edge from-layer="34" from-port="1" to-layer="35" to-port="0" />
		<edge from-layer="35" from-port="1" to-layer="36" to-port="0" />
		<edge from-layer="36" from-port="1" to-layer="37" to-port="0" />
		<edge from-layer="37" from-port="1" to-layer="38" to-port="0" />
		<edge from-layer="38" from-port="1" to-layer="39" to-port="1" />
		<edge from-layer="39" from-port="2" to-layer="40" to-port="0" />
		<edge from-layer="40" from-port="1" to-layer="46" to-port="0" />
		<edge from-layer="40" from-port="1" to-layer="41" to-port="0" />
		<edge from-layer="41" from-port="1" to-layer="42" to-port="0" />
		<edge from-layer="42" from-port="1" to-layer="43" to-port="0" />
		<edge from-layer="43" from-port="1" to-layer="44" to-port="0" />
		<edge from-layer="44" from-port="1" to-layer="45" to-port="0" />
		<edge from-layer="45" from-port="1" to-layer="46" to-port="1" />
		<edge from-layer="46" from-port="2" to-layer="47" to-port="0" />
		<edge from-layer="47" from-port="1" to-layer="53" to-port="0" />
		<edge from-layer="47" from-port="1" to-layer="48" to-port="0" />
		<edge from-layer="48" from-port="1" to-layer="49" to-port="0" />
		<edge from-layer="49" from-port="1" to-layer="50" to-port="0" />
		<edge from-layer="50" from-port="1" to-layer="51" to-port="0" />
		<edge from-layer="51" from-port="1" to-layer="52" to-port="0" />
		<edge from-layer="52" from-port="1" to-layer="53" to-port="1" />
		<edge from-layer="53" from-port="2" to-layer="54" to-port="0" />
		<edge from-layer="54" from-port="1" to-layer="57" to-port="0" />
		<edge from-layer="54" from-port="1" to-layer="55" to-port="0" />
		<edge from-layer="55" from-port="1" to-layer="56" to-port="0" />
		<edge from-layer="56" from-port="1" to-layer="62" to-port="0" />
		<edge from-layer="57" from-port="1" to-layer="58" to-port="0" />
		<edge from-layer="58" from-port="1" to-layer="59" to-port="0" />
		<edge from-layer="59" from-port="1" to-layer="60" to-port="0" />
		<edge from-layer="60" from-port="1" to-layer="61" to-port="0" />
		<edge from-layer="61" from-port="1" to-layer="62" to-port="1" />
		<edge from-layer="62" from-port="2" to-layer="63" to-port="0" />
		<edge from-layer="63" from-port="1" to-layer="69" to-port="0" />
		<edge from-layer="63" from-port="1" to-layer="64" to-port="0" />
		<edge from-layer="64" from-port="1" to-layer="65" to-port="0" />
		<edge from-layer="65" from-port="1" to-layer="66" to-port="0" />
		<edge from-layer="66" from-port="1" to-layer="67" to-port="0" />
		<edge from-layer="67" from-port="1" to-layer="68" to-port="0" />
		<edge from-layer="68" from-port="1" to-layer="69" to-port="1" />
		<edge from-layer="69" from-port="2" to-layer="70" to-port="0" />
		<edge from-layer="70" from-port="1" to-layer="76" to-port="0" />
		<edge from-layer="70" from-port="1" to-layer="71" to-port="0" />
		<edge from-layer="71" from-port="1" to-layer="72" to-port="0" />
		<edge from-layer="72" from-port="1" to-layer="73" to-port="0" />
		<edge from-layer="73" from-port="1" to-layer="74" to-port="0" />
		<edge from-layer="74" from-port="1" to-layer="75" to-port="0" />
		<edge from-layer="75" from-port="1" to-layer="76" to-port="1" />
		<edge from-layer="76" from-port="2" to-layer="77" to-port="0" />
		<edge from-layer="77" from-port="1" to-layer="83" to-port="0" />
		<edge from-layer="77" from-port="1" to-layer="78" to-port="0" />
		<edge from-layer="78" from-port="1" to-layer="79" to-port="0" />
		<edge from-layer="79" from-port="1" to-layer="80" to-port="0" />
		<edge from-layer="80" from-port="1" to-layer="81" to-port="0" />
		<edge from-layer="81" from-port="1" to-layer="82" to-port="0" />
		<edge from-layer="82" from-port="1" to-layer="83" to-port="1" />
		<edge from-layer="83" from-port="2" to-layer="84" to-port="0" />
		<edge from-layer="84" from-port="1" to-layer="87" to-port="0" />
		<edge from-layer="84" from-port="1" to-layer="85" to-port="0" />
		<edge from-layer="85" from-port="1" to-layer="86" to-port="0" />
		<edge from-layer="86" from-port="1" to-layer="92" to-port="0" />
		<edge from-layer="87" from-port="1" to-layer="88" to-port="0" />
		<edge from-layer="88" from-port="1" to-layer="89" to-port="0" />
		<edge from-layer="89" from-port="1" to-layer="90" to-port="0" />
		<edge from-layer="90" from-port="1" to-layer="91" to-port="0" />
		<edge from-layer="91" from-port="1" to-layer="92" to-port="1" />
		<edge from-layer="92" from-port="2" to-layer="93" to-port="0" />
		<edge from-layer="93" from-port="1" to-layer="99" to-port="0" />
		<edge from-layer="93" from-port="1" to-layer="94" to-port="0" />
		<edge from-layer="94" from-port="1" to-layer="95" to-port="0" />
		<edge from-layer="95" from-port="1" to-layer="96" to-port="0" />
		<edge from-layer="96" from-port="1" to-layer="97" to-port="0" />
		<edge from-layer="97" from-port="1" to-layer="98" to-port="0" />
		<edge from-layer="98" from-port="1" to-layer="99" to-port="1" />
		<edge from-layer="99" from-port="2" to-layer="100" to-port="0" />
		<edge from-layer="100" from-port="1" to-layer="106" to-port="0" />
		<edge from-layer="100" from-port="1" to-layer="101" to-port="0" />
		<edge from-layer="101" from-port="1" to-layer="102" to-port="0" />
		<edge from-layer="102" from-port="1" to-layer="103" to-port="0" />
		<edge from-layer="103" from-port="1" to-layer="104" to-port="0" />
		<edge from-layer="104" from-port="1" to-layer="105" to-port="0" />
		<edge from-layer="105" from-port="1" to-layer="106" to-port="1" />
		<edge from-layer="106" from-port="2" to-layer="107" to-port="0" />
		<edge from-layer="107" from-port="1" to-layer="113" to-port="0" />
		<edge from-layer="107" from-port="1" to-layer="108" to-port="0" />
		<edge from-layer="108" from-port="1" to-layer="109" to-port="0" />
		<edge from-layer="109" from-port="1" to-layer="110" to-port="0" />
		<edge from-layer="110" from-port="1" to-layer="111" to-port="0" />
		<edge from-layer="111" from-port="1" to-layer="112" to-port="0" />
		<edge from-layer="112" from-port="1" to-layer="113" to-port="1" />
		<edge from-layer="113" from-port="2" to-layer="114" to-port="0" />
		<edge from-layer="114" from-port="1" to-layer="115" to-port="0" />
		<edge from-layer="115" from-port="1" to-layer="116" to-port="0" />
	</edges>
	<statistics>
		<layer>
			<name>bottleneck1_1/add</name>
			<min>… -0.621835</min>
			<max>… 33.879059</max>
		</layer>
		<layer>
			<name>bottleneck1_1/dim_inc/conv</name>
			<min>… -1.079239</min>
			<max>… 0.513668</max>
		</layer>
		<layer>
			<name>bottleneck1_1/dim_red/conv</name>
			<min>-14.363482, -0.576194, -11.699060, -7.756789, 1.393832, -14.115194, -19.563488, -10.831021</min>
			<max>4.333001, 0.407161, 9.590567, 6.049412, 4.460872, 2.762269, 5.751028, 4.963141</max>
		</layer>
		<layer>
			<name>bottleneck1_1/dim_red/fn</name>
			<min>-0.999999, -0.437966, -0.999992, -0.999572, 1.393832, -0.999999, -1.000000, -0.999980</min>
			<max>4.333001, 0.407161, 9.590567, 6.049412, 4.460872, 2.762269, 5.751028, 4.963141</max>
		</layer>
		<layer>
			<name>bottleneck1_1/fn</name>
			<min>… -0.463042</min>
			<max>… 33.879059</max>
		</layer>
		<layer>
			<name>bottleneck1_1/inner/dw1/conv</name>
			<min>-9.859528, -6.327309, -13.569197, -14.259466, -13.137756, -6.630044, -10.491825, -19.796789</min>
			<max>10.220955, 9.773947, 14.588591, 15.144797, 15.187971, 11.531005, 10.701498, 9.792835</max>
		</layer>
		<layer>
			<name>bottleneck1_1/inner/dw1/fn</name>
			<min>-0.999948, -0.998213, -0.999999, -0.999999, -0.999998, -0.998680, -0.999972, -1.000000</min>
			<max>10.220955, 9.773947, 14.588591, 15.144797, 15.187971, 11.531005, 10.701498, 9.792835</max>
		</layer>
		<layer>
			<name>bottleneck1_2/add</name>
			<min>… -0.503364</min>
			<max>… 33.866047</max>
		</layer>
		<layer>
			<name>bottleneck1_2/dim_inc/conv</name>
			<min>… -0.538584</min>
			<max>… 0.475456</max>
		</layer>
		<layer>
			<name>bottleneck1_2/dim_red/conv</name>
			<min>-21.151270, -3.844498, -6.933278, -2.872632, -2.695267, -5.252434, -0.106576, -1.468586</min>
			<max>16.703461, 5.814706, 5.790957, 1.652899, 8.644705, 4.845552, 2.691468, 4.640947</max>
		</layer>
		<layer>
			<name>bottleneck1_2/dim_red/fn</name>
			<min>-1.000000, -0.978603, -0.999025, -0.943450, -0.932476, -0.994765, -0.101093, -0.769749</min>
			<max>16.703461, 5.814706, 5.790957, 1.652899, 8.644705, 4.845552, 2.691468, 4.640947</max>
		</layer>
		<layer>
			<name>bottleneck1_2/fn</name>
			<min>… -0.395506</min>
			<max>… 33.866047</max>
		</layer>
		<layer>
			<name>bottleneck1_2/inner/dw1/conv</name>
			<min>-8.345695, -7.606663, -18.762125, -6.997134, -30.116367, -12.289211, -24.805389, -15.834515</min>
			<max>4.526448, 7.326197, 14.499454, 10.964456, 5.738626, 14.619706, 20.919823, 15.246770</max>
		</layer>
		<layer>
			<name>bottleneck1_2/inner/dw1/fn</name>
			<min>-0.999763, -0.999503, -1.000000, -0.999085, -1.000000, -0.999995, -1.000000, -1.000000</min>
			<max>4.526448, 7.326197, 14.499454, 10.964456, 5.738626, 14.619706, 20.919823, 15.246770</max>
		</layer>
		<layer>
			<name>bottleneck1_3/add</name>
			<min>… -0.789351</min>
			<max>… 34.014805</max>
		</layer>
		<layer>
			<name>bottleneck1_3/dim_inc/conv</name>
			<min>… -0.657469</min>
			<max>… 1.304537</max>
		</layer>
		<layer>
			<name>bottleneck1_3/dim_red/conv</name>
			<min>-4.928885, -7.867883, -5.183397, -9.384709, -7.226979, -1.492427, -4.608585, -13.560470</min>
			<max>5.697508, 7.366165, 1.661221, 3.957970, 1.474031, 3.426406, 6.082047, 3.051534</max>
		</layer>
		<layer>
			<name>bottleneck1_3/dim_red/fn</name>
			<min>-0.992765, -0.999617, -0.994391, -0.999916, -0.999273, -0.775174, -0.990034, -0.999999</min>
			<max>5.697508, 7.366165, 1.661221, 3.957970, 1.474031, 3.426406, 6.082047, 3.051534</max>
		</layer>
		<layer>
			<name>bottleneck1_3/fn</name>
			<min>… -0.545861</min>
			<max>… 34.014805</max>
		</layer>
		<layer>
			<name>bottleneck1_3/inner/dw1/conv</name>
			<min>-16.575932, -5.901716, -10.727826, -9.940338, -6.407689, -4.694065, -23.969284, -5.356875</min>
			<max>14.442322, 13.663343, 12.520393, 14.787103, 12.072165, 10.483399, 22.467876, 9.642828</max>
		</layer>
		<layer>
			<name>bottleneck1_3/inner/dw1/fn</name>
			<min>-1.000000, -0.997265, -0.999978, -0.999952, -0.998351, -0.990851, -1.000000, -0.995284</min>
			<max>14.442322, 13.663343, 12.520393, 14.787103, 12.072165, 10.483399, 22.467876, 9.642828</max>
		</layer>
		<layer>
			<name>bottleneck2_0/add</name>
			<min>… -10.364803</min>
			<max>… 27.721083</max>
		</layer>
		<layer>
			<name>bottleneck2_0/dim_inc/conv</name>
			<min>… -5.451907</min>
			<max>… 8.189365</max>
		</layer>
		<layer>
			<name>bottleneck2_0/dim_red/conv</name>
			<min>-0.357388, -0.608777, -9.292168, -3.264792, -23.440269, -0.914750, -11.650526, -11.989018, -6.239039, -21.453054, -1.305032, -10.849240, -17.232582, -13.438550, -6.913605, -1.759476</min>
			<max>6.401703, 3.847264, 8.665930, 0.847106, 8.574681, 7.018625, 3.340343, 5.797499, 19.884470, 10.832334, 6.071991, 12.056065, 1.652947, 10.316744, 3.427245, 4.236940</max>
		</layer>
		<layer>
			<name>bottleneck2_0/dim_red/fn</name>
			<min>-0.300499, -0.455984, -0.999908, -0.961795, -1.000000, -0.599383, -0.999991, -0.999994, -0.998048, -1.000000, -0.728836, -0.999981, -1.000000, -0.999999, -0.999006, -0.827865</min>
			<max>6.401703, 3.847264, 8.665930, 0.847106, 8.574681, 7.018625, 3.340343, 5.797499, 19.884470, 10.832334, 6.071991, 12.056065, 1.652947, 10.316744, 3.427245, 4.236940</max>
		</layer>
		<layer>
			<name>bottleneck2_0/fn</name>
			<min>… -0.999968</min>
			<max>… 27.721083</max>
		</layer>
		<layer>
			<name>bottleneck2_0/inner/dw1/conv</name>
			<min>-19.165821, -12.882257, -1.919025, -6.844536, -13.420351, -22.432318, -1.780025, -4.948300, -23.160887, -7.893253, -12.478068, -17.512152, -1.808400, -0.822782, 0.149207, -9.384798</min>
			<max>4.623645, 8.005738, 16.307243, 5.690815, 4.615613, 5.595124, 6.640742, 9.327685, 27.020554, 3.165774, 4.691658, 4.734290, 8.234115, 5.348433, 8.837177, 4.444792</max>
		</layer>
		<layer>
			<name>bottleneck2_0/inner/dw1/fn</name>
			<min>-1.000000, -0.999997, -0.853250, -0.998935, -0.999999, -1.000000, -0.831366, -0.992905, -1.000000, -0.999627, -0.999996, -1.000000, -0.836084, -0.560792, 0.149207, -0.999916</min>
			<max>4.623645, 8.005738, 16.307243, 5.690815, 4.615613, 5.595124, 6.640742, 9.327685, 27.020554, 3.165774, 4.691658, 4.734290, 8.234115, 5.348433, 8.837177, 4.444792</max>
		</layer>
		<layer>
			<name>bottleneck2_0/skip/conv</name>
			<min>… -10.595351</min>
			<max>… 20.326590</max>
		</layer>
		<layer>
			<name>bottleneck2_0/skip/pooling</name>
			<min>… -0.057701</min>
			<max>… 34.014805</max>
		</layer>
		<layer>
			<name>bottleneck2_1/add</name>
			<min>… -5.170632</min>
			<max>… 31.894547</max>
		</layer>
		<layer>
			<name>bottleneck2_1/dim_inc/conv</name>
			<min>… -4.232933</min>
			<max>… 5.503399</max>
		</layer>
		<layer>
			<name>bottleneck2_1/dim_red/conv</name>
			<min>-3.426377, -1.131832, -11.615460, -2.469774, -10.284600, -2.086499, -5.243050, -2.551496, -0.888866, -6.570781, -3.589600, -3.462209, -9.035472, -3.850889, -5.381923, -4.831714</min>
			<max>4.997538, 2.976252, 5.240932, 4.503134, 5.711132, 2.796544, 2.669938, 1.477529, 0.441633, 6.423684, 1.083800, 5.357816, 9.805051, 6.961058, 5.483563, 8.578841</max>
		</layer>
		<layer>
			<name>bottleneck2_1/dim_red/fn</name>
			<min>-0.967496, -0.677558, -0.999991, -0.915396, -0.999966, -0.875879, -0.994716, -0.922035, -0.588879, -0.998599, -0.972391, -0.968640, -0.999881, -0.978739, -0.995401, -0.992027</min>
			<max>4.997538, 2.976252, 5.240932, 4.503134, 5.711132, 2.796544, 2.669938, 1.477529, 0.441633, 6.423684, 1.083800, 5.357816, 9.805051, 6.961058, 5.483563, 8.578841</max>
		</layer>
		<layer>
			<name>bottleneck2_1/fn</name>
			<min>… -0.994319</min>
			<max>… 31.894547</max>
		</layer>
		<layer>
			<name>bottleneck2_1/inner/dw1/conv</name>
			<min>-7.170737, -3.847081, -1.499913, -6.327820, -3.879536, -4.741527, -2.059434, -6.665707, -2.451335, -9.285792, -10.340833, -4.900887, -5.449884, -7.333921, -2.491289, -5.543708</min>
			<max>10.044526, 7.876380, 14.925861, 7.025163, 7.969537, 5.258427, 4.474627, 7.830781, 6.992555, 2.658676, 6.398921, 16.092144, 24.997719, 8.601966, 5.428852, 10.016783</max>
		</layer>
		<layer>
			<name>bottleneck2_1/inner/dw1/fn</name>
			<min>-0.999231, -0.978658, -0.776850, -0.998214, -0.979340, -0.991275, -0.872474, -0.998726, -0.913822, -0.999907, -0.999968, -0.992560, -0.995703, -0.999347, -0.917197, -0.996088</min>
			<max>10.044526, 7.876380, 14.925861, 7.025163, 7.969537, 5.258427, 4.474627, 7.830781, 6.992555, 2.658676, 6.398921, 16.092144, 24.997719, 8.601966, 5.428852, 10.016783</max>
		</layer>
		<layer>
			<name>bottleneck2_2/add</name>
			<min>… -4.244242</min>
			<max>… 31.216040</max>
		</layer>
		<layer>
			<name>bottleneck2_2/dim_inc/conv</name>
			<min>… -3.469415</min>
			<max>… 3.786723</max>
		</layer>
		<layer>
			<name>bottleneck2_2/dim_red/conv</name>
			<min>-0.656528, -3.438176, -3.194821, -4.295738, -1.511726, -1.293387, -4.839740, 0.429931, -5.332656, -1.912187, -6.700158, -7.426419, -2.981491, -2.506047, -4.149137, -2.003874</min>
			<max>1.207001, 2.818907, 2.159643, 5.906937, 3.588036, 1.607109, 5.253950, 4.540915, 2.935468, 2.648928, 5.105450, 7.985762, 1.546680, 3.575135, 3.459851, 3.658893</max>
		</layer>
		<layer>
			<name>bottleneck2_2/dim_red/fn</name>
			<min>-0.481351, -0.967877, -0.959026, -0.986373, -0.779471, -0.725660, -0.992091, 0.429931, -0.995169, -0.852243, -0.998769, -0.999405, -0.949283, -0.918410, -0.984222, -0.865188</min>
			<max>1.207001, 2.818907, 2.159643, 5.906937, 3.588036, 1.607109, 5.253950, 4.540915, 2.935468, 2.648928, 5.105450, 7.985762, 1.546680, 3.575135, 3.459851, 3.658893</max>
		</layer>
		<layer>
			<name>bottleneck2_2/fn</name>
			<min>… -0.985653</min>
			<max>… 31.216040</max>
		</layer>
		<layer>
			<name>bottleneck2_2/inner/dw1/conv</name>
			<min>-2.790409, -3.767021, -1.856575, -6.746423, -6.930012, -6.684624, -3.543121, -4.284226, -4.391605, -3.767736, -2.284365, -1.651248, -10.140759, -4.863209, -5.335784, -2.184343</min>
			<max>6.114233, 5.716622, 6.081488, 7.711292, 6.574471, 6.887829, 6.427424, 4.808268, 5.097401, 4.223320, 8.634286, 4.683609, 6.423622, 5.166414, 5.695206, 6.276515</max>
		</layer>
		<layer>
			<name>bottleneck2_2/inner/dw1/fn</name>
			<min>-0.938604, -0.976879, -0.843793, -0.998825, -0.999022, -0.998750, -0.971077, -0.986216, -0.987619, -0.976896, -0.898161, -0.808190, -0.999961, -0.992274, -0.995184, -0.887448</min>
			<max>6.114233, 5.716622, 6.081488, 7.711292, 6.574471, 6.887829, 6.427424, 4.808268, 5.097401, 4.223320, 8.634286, 4.683609, 6.423622, 5.166414, 5.695206, 6.276515</max>
		</layer>
		<layer>
			<name>bottleneck2_3/add</name>
			<min>… -5.559875</min>
			<max>… 31.386818</max>
		</layer>
		<layer>
			<name>bottleneck2_3/dim_inc/conv</name>
			<min>… -4.995597</min>
			<max>… 5.542171</max>
		</layer>
		<layer>
			<name>bottleneck2_3/dim_red/conv</name>
			<min>-4.597569, -4.053358, -3.333497, -10.844614, -5.898820, -0.429760, -6.786179, -4.241649, -10.437110, -1.165889, -4.463036, -2.506035, -4.644277, -1.491445, -1.241422, -4.448839</min>
			<max>13.880104, 5.184184, 0.727353, 3.689116, 5.997201, 4.307706, 3.961678, 5.439453, 8.070423, 3.132702, 3.388695, 3.542273, 3.350911, 1.135845, 4.710628, 4.370091</max>
		</layer>
		<layer>
			<name>bottleneck2_3/dim_red/fn</name>
			<min>-0.989924, -0.982636, -0.964332, -0.999981, -0.997257, -0.349335, -0.998871, -0.985616, -0.999971, -0.688354, -0.988473, -0.918409, -0.990384, -0.774953, -0.711027, -0.988308</min>
			<max>13.880104, 5.184184, 0.727353, 3.689116, 5.997201, 4.307706, 3.961678, 5.439453, 8.070423, 3.132702, 3.388695, 3.542273, 3.350911, 1.135845, 4.710628, 4.370091</max>
		</layer>
		<layer>
			<name>bottleneck2_3/fn</name>
			<min>… -0.996151</min>
			<max>… 31.386818</max>
		</layer>
		<layer>
			<name>bottleneck2_3/inner/dw1/conv</name>
			<min>-10.650754, -1.075668, -7.279014, -1.481149, -9.304277, -15.360696, -6.796676, -3.859892, -4.483263, -2.514797, -3.232452, -13.426005, -1.583848, -11.012497, -2.984521, -9.547652</min>
			<max>3.547122, 6.141863, 2.740234, 2.861749, 5.989489, 4.306434, 4.195056, 5.025770, 5.546092, 3.743381, 5.076559, 6.203457, 5.257767, 9.836132, 6.020308, 8.232285</max>
		</layer>
		<layer>
			<name>bottleneck2_3/inner/dw1/fn</name>
			<min>-0.999976, -0.658930, -0.999310, -0.772624, -0.999909, -1.000000, -0.998883, -0.978930, -0.988703, -0.919121, -0.960539, -0.999999, -0.794816, -0.999983, -0.949436, -0.999929</min>
			<max>3.547122, 6.141863, 2.740234, 2.861749, 5.989489, 4.306434, 4.195056, 5.025770, 5.546092, 3.743381, 5.076559, 6.203457, 5.257767, 9.836132, 6.020308, 8.232285</max>
		</layer>
		<layer>
			<name>bottleneck3_0/add</name>
			<min>… -6.288600</min>
			<max>… 7.222652</max>
		</layer>
		<layer>
			<name>bottleneck3_0/dim_inc/conv</name>
			<min>… -4.567978</min>
			<max>… 4.253489</max>
		</layer>
		<layer>
			<name>bottleneck3_0/dim_red/conv</name>
			<min>… -3.379828</min>
			<max>… 5.519829</max>
		</layer>
		<layer>
			<name>bottleneck3_0/dim_red/fn</name>
			<min>… -0.965947</min>
			<max>… 5.519829</max>
		</layer>
		<layer>
			<name>bottleneck3_0/fn</name>
			<min>… -0.998143</min>
			<max>… 7.222652</max>
		</layer>
		<layer>
			<name>bottleneck3_0/inner/dw1/conv</name>
			<min>… -3.322341</min>
			<max>… 3.081956</max>
		</layer>
		<layer>
			<name>bottleneck3_0/inner/dw1/fn</name>
			<min>… -0.963932</min>
			<max>… 3.081956</max>
		</layer>
		<layer>
			<name>bottleneck3_0/skip/conv</name>
			<min>… -4.415622</min>
			<max>… 5.758259</max>
		</layer>
		<layer>
			<name>bottleneck3_0/skip/pooling</name>
			<min>… -0.968670</min>
			<max>… 31.386818</max>
		</layer>
		<layer>
			<name>bottleneck3_1/add</name>
			<min>… -6.657575</min>
			<max>… 8.033964</max>
		</layer>
		<layer>
			<name>bottleneck3_1/dim_inc/conv</name>
			<min>… -7.227489</min>
			<max>… 5.490801</max>
		</layer>
		<layer>
			<name>bottleneck3_1/dim_red/conv</name>
			<min>… 0.228834</min>
			<max>… 2.769947</max>
		</layer>
		<layer>
			<name>bottleneck3_1/dim_red/fn</name>
			<min>… 0.228834</min>
			<max>… 2.769947</max>
		</layer>
		<layer>
			<name>bottleneck3_1/fn</name>
			<min>… -0.998716</min>
			<max>… 8.033964</max>
		</layer>
		<layer>
			<name>bottleneck3_1/inner/dw1/conv</name>
			<min>… -8.682808</min>
			<max>… 4.547309</max>
		</layer>
		<layer>
			<name>bottleneck3_1/inner/dw1/fn</name>
			<min>… -0.999831</min>
			<max>… 4.547309</max>
		</layer>
		<layer>
			<name>bottleneck3_2/add</name>
			<min>… -8.576174</min>
			<max>… 9.029634</max>
		</layer>
		<layer>
			<name>bottleneck3_2/dim_inc/conv</name>
			<min>… -7.637383</min>
			<max>… 4.601159</max>
		</layer>
		<layer>
			<name>bottleneck3_2/dim_red/conv</name>
			<min>… -1.748884</min>
			<max>… 1.835726</max>
		</layer>
		<layer>
			<name>bottleneck3_2/dim_red/fn</name>
			<min>… -0.826032</min>
			<max>… 1.835726</max>
		</layer>
		<layer>
			<name>bottleneck3_2/fn</name>
			<min>… -0.999811</min>
			<max>… 9.029634</max>
		</layer>
		<layer>
			<name>bottleneck3_2/inner/dw1/conv</name>
			<min>… -10.267432</min>
			<max>… 5.792696</max>
		</layer>
		<layer>
			<name>bottleneck3_2/inner/dw1/fn</name>
			<min>… -0.999965</min>
			<max>… 5.792696</max>
		</layer>
		<layer>
			<name>bottleneck3_3/add</name>
			<min>… -8.272061</min>
			<max>… 9.221606</max>
		</layer>
		<layer>
			<name>bottleneck3_3/dim_inc/conv</name>
			<min>… -7.337044</min>
			<max>… 6.202119</max>
		</layer>
		<layer>
			<name>bottleneck3_3/dim_red/conv</name>
			<min>… -1.023745</min>
			<max>… 0.930065</max>
		</layer>
		<layer>
			<name>bottleneck3_3/dim_red/fn</name>
			<min>… -0.640753</min>
			<max>… 0.930065</max>
		</layer>
		<layer>
			<name>bottleneck3_3/fn</name>
			<min>… -0.999744</min>
			<max>… 9.221606</max>
		</layer>
		<layer>
			<name>bottleneck3_3/inner/dw1/conv</name>
			<min>… -8.151038</min>
			<max>… 6.727046</max>
		</layer>
		<layer>
			<name>bottleneck3_3/inner/dw1/fn</name>
			<min>… -0.999712</min>
			<max>… 6.727046</max>
		</layer>
		<layer>
			<name>bottleneck4_0/add</name>
			<min>… -9.764163</min>
			<max>… 6.882317</max>
		</layer>
		<layer>
			<name>bottleneck4_0/dim_inc/conv</name>
			<min>… -4.362309</min>
			<max>… 2.639168</max>
		</layer>
		<layer>
			<name>bottleneck4_0/dim_red/conv</name>
			<min>… -8.243343</min>
			<max>… 5.488281</max>
		</layer>
		<layer>
			<name>bottleneck4_0/dim_red/fn</name>
			<min>… -0.999737</min>
			<max>… 5.488281</max>
		</layer>
		<layer>
			<name>bottleneck4_0/fn</name>
			<min>… -0.999943</min>
			<max>… 6.882317</max>
		</layer>
		<layer>
			<name>bottleneck4_0/inner/dw1/conv</name>
			<min>… -1.949808</min>
			<max>… 10.669987</max>
		</layer>
		<layer>
			<name>bottleneck4_0/inner/dw1/fn</name>
			<min>… -0.857699</min>
			<max>… 10.669987</max>
		</layer>
		<layer>
			<name>bottleneck4_0/skip/conv</name>
			<min>… -7.168907</min>
			<max>… 6.466750</max>
		</layer>
		<layer>
			<name>bottleneck4_0/skip/pooling</name>
			<min>… -0.993111</min>
			<max>… 9.221606</max>
		</layer>
		<layer>
			<name>bottleneck4_1/add</name>
			<min>… -5.928710</min>
			<max>… 7.454445</max>
		</layer>
		<layer>
			<name>bottleneck4_1/dim_inc/conv</name>
			<min>… -4.934323</min>
			<max>… 2.274316</max>
		</layer>
		<layer>
			<name>bottleneck4_1/dim_red/conv</name>
			<min>… -2.167225</min>
			<max>… 1.195586</max>
		</layer>
		<layer>
			<name>bottleneck4_1/dim_red/fn</name>
			<min>… -0.885505</min>
			<max>… 1.195586</max>
		</layer>
		<layer>
			<name>bottleneck4_1/fn</name>
			<min>… -0.997338</min>
			<max>… 7.454445</max>
		</layer>
		<layer>
			<name>bottleneck4_1/inner/dw1/conv</name>
			<min>… -9.209893</min>
			<max>… 6.480110</max>
		</layer>
		<layer>
			<name>bottleneck4_1/inner/dw1/fn</name>
			<min>… -0.999900</min>
			<max>… 6.480110</max>
		</layer>
		<layer>
			<name>bottleneck4_2/add</name>
			<min>… -6.545636</min>
			<max>… 8.684114</max>
		</layer>
		<layer>
			<name>bottleneck4_2/dim_inc/conv</name>
			<min>… -5.739910</min>
			<max>… 3.160204</max>
		</layer>
		<layer>
			<name>bottleneck4_2/dim_red/conv</name>
			<min>… -0.843387</min>
			<max>… 1.403669</max>
		</layer>
		<layer>
			<name>bottleneck4_2/dim_red/fn</name>
			<min>… -0.569749</min>
			<max>… 1.403669</max>
		</layer>
		<layer>
			<name>bottleneck4_2/fn</name>
			<min>… -0.998564</min>
			<max>… 8.684114</max>
		</layer>
		<layer>
			<name>bottleneck4_2/inner/dw1/conv</name>
			<min>… -14.993351</min>
			<max>… 5.089007</max>
		</layer>
		<layer>
			<name>bottleneck4_2/inner/dw1/fn</name>
			<min>… -1.000000</min>
			<max>… 5.089007</max>
		</layer>
		<layer>
			<name>bottleneck4_3/add</name>
			<min>… -7.697831</min>
			<max>… 10.971367</max>
		</layer>
		<layer>
			<name>bottleneck4_3/dim_inc/conv</name>
			<min>… -6.997049</min>
			<max>… 3.701982</max>
		</layer>
		<layer>
			<name>bottleneck4_3/dim_red/conv</name>
			<min>… -1.209403</min>
			<max>… 0.663115</max>
		</layer>
		<layer>
			<name>bottleneck4_3/dim_red/fn</name>
			<min>… -0.701625</min>
			<max>… 0.663115</max>
		</layer>
		<layer>
			<name>bottleneck4_3/fn</name>
			<min>… -0.999546</min>
			<max>… 10.971367</max>
		</layer>
		<layer>
			<name>bottleneck4_3/inner/dw1/conv</name>
			<min>… -4.105663</min>
			<max>… 1.674224</max>
		</layer>
		<layer>
			<name>bottleneck4_3/inner/dw1/fn</name>
			<min>… -0.983521</min>
			<max>… 1.674224</max>
		</layer>
		<layer>
			<name>data</name>
			<min>0.000000, 0.000000, 0.000000</min>
			<max>255.000000, 255.000000, 255.000000</max>
		</layer>
		<layer>
			<name>data/norm/scale/Mul_/FusedScaleShift_</name>
			<min>-10.625128, -10.509130, -9.924730</min>
			<max>20.349155, 20.692106, 18.278728</max>
		</layer>
		<layer>
			<name>init_block1/dim_inc/conv</name>
			<min>… -21.945007</min>
			<max>… 33.660721</max>
		</layer>
		<layer>
			<name>init_block1/dim_inc/fn</name>
			<min>… -0.000000</min>
			<max>… 33.660721</max>
		</layer>
		<layer>
			<name>ip_reid</name>
			<min>… -12.530335</min>
			<max>… 9.314237</max>
		</layer>
		<layer>
			<name>out_pool</name>
			<min>… -0.769003</min>
			<max>… 10.971367</max>
		</layer>
	</statistics>
</net>
