<?xml version="1.0" ?>
<net batch="1" name="face-detection-retail-0005" version="6">
	<layers>
		<layer id="0" name="input.1" precision="FP16" type="Input">
			<output>
				<port id="0">
					<dim>1</dim>
					<dim>3</dim>
					<dim>300</dim>
					<dim>300</dim>
				</port>
			</output>
		</layer>
		<layer id="1" name="Mul_" precision="FP16" type="Power">
			<data power="1" scale="0.00392157" shift="0"/>
			<input>
				<port id="0">
					<dim>1</dim>
					<dim>3</dim>
					<dim>300</dim>
					<dim>300</dim>
				</port>
			</input>
			<output>
				<port id="1">
					<dim>1</dim>
					<dim>3</dim>
					<dim>300</dim>
					<dim>300</dim>
				</port>
			</output>
		</layer>
		<layer id="2" name="Mul1_6511/Fused_Mul_/FusedScaleShift_" precision="FP16" type="ScaleShift">
			<input>
				<port id="0">
					<dim>1</dim>
					<dim>3</dim>
					<dim>300</dim>
					<dim>300</dim>
				</port>
			</input>
			<output>
				<port id="3">
					<dim>1</dim>
					<dim>3</dim>
					<dim>300</dim>
					<dim>300</dim>
				</port>
			</output>
			<blobs>
				<weights offset="0" size="6"/>
				<biases offset="6" size="6"/>
			</blobs>
		</layer>
		<layer id="3" name="332" precision="FP16" type="Convolution">
			<data dilations="1,1" group="1" kernel="3,3" output="24" pads_begin="1,1" pads_end="1,1" strides="2,2"/>
			<input>
				<port id="0">
					<dim>1</dim>
					<dim>3</dim>
					<dim>300</dim>
					<dim>300</dim>
				</port>
			</input>
			<output>
				<port id="3">
					<dim>1</dim>
					<dim>24</dim>
					<dim>150</dim>
					<dim>150</dim>
				</port>
			</output>
			<blobs>
				<weights offset="12" size="1296"/>
				<biases offset="1308" size="48"/>
			</blobs>
		</layer>
		<layer id="4" name="334" precision="FP16" type="ReLU">
			<input>
				<port id="0">
					<dim>1</dim>
					<dim>24</dim>
					<dim>150</dim>
					<dim>150</dim>
				</port>
			</input>
			<output>
				<port id="1">
					<dim>1</dim>
					<dim>24</dim>
					<dim>150</dim>
					<dim>150</dim>
				</port>
			</output>
		</layer>
		<layer id="5" name="335" precision="FP16" type="Convolution">
			<data dilations="1,1" group="24" kernel="3,3" output="24" pads_begin="1,1" pads_end="1,1" strides="1,1"/>
			<input>
				<port id="0">
					<dim>1</dim>
					<dim>24</dim>
					<dim>150</dim>
					<dim>150</dim>
				</port>
			</input>
			<output>
				<port id="3">
					<dim>1</dim>
					<dim>24</dim>
					<dim>150</dim>
					<dim>150</dim>
				</port>
			</output>
			<blobs>
				<weights offset="1356" size="432"/>
				<biases offset="1788" size="48"/>
			</blobs>
		</layer>
		<layer id="6" name="337" precision="FP16" type="ReLU">
			<input>
				<port id="0">
					<dim>1</dim>
					<dim>24</dim>
					<dim>150</dim>
					<dim>150</dim>
				</port>
			</input>
			<output>
				<port id="1">
					<dim>1</dim>
					<dim>24</dim>
					<dim>150</dim>
					<dim>150</dim>
				</port>
			</output>
		</layer>
		<layer id="7" name="338" precision="FP16" type="Convolution">
			<data dilations="1,1" group="1" kernel="1,1" output="12" pads_begin="0,0" pads_end="0,0" strides="1,1"/>
			<input>
				<port id="0">
					<dim>1</dim>
					<dim>24</dim>
					<dim>150</dim>
					<dim>150</dim>
				</port>
			</input>
			<output>
				<port id="3">
					<dim>1</dim>
					<dim>12</dim>
					<dim>150</dim>
					<dim>150</dim>
				</port>
			</output>
			<blobs>
				<weights offset="1836" size="576"/>
				<biases offset="2412" size="24"/>
			</blobs>
		</layer>
		<layer id="8" name="340" precision="FP16" type="Convolution">
			<data dilations="1,1" group="1" kernel="1,1" output="72" pads_begin="0,0" pads_end="0,0" strides="1,1"/>
			<input>
				<port id="0">
					<dim>1</dim>
					<dim>12</dim>
					<dim>150</dim>
					<dim>150</dim>
				</port>
			</input>
			<output>
				<port id="3">
					<dim>1</dim>
					<dim>72</dim>
					<dim>150</dim>
					<dim>150</dim>
				</port>
			</output>
			<blobs>
				<weights offset="2436" size="1728"/>
				<biases offset="4164" size="144"/>
			</blobs>
		</layer>
		<layer id="9" name="342" precision="FP16" type="ReLU">
			<input>
				<port id="0">
					<dim>1</dim>
					<dim>72</dim>
					<dim>150</dim>
					<dim>150</dim>
				</port>
			</input>
			<output>
				<port id="1">
					<dim>1</dim>
					<dim>72</dim>
					<dim>150</dim>
					<dim>150</dim>
				</port>
			</output>
		</layer>
		<layer id="10" name="343" precision="FP16" type="Convolution">
			<data dilations="1,1" group="72" kernel="3,3" output="72" pads_begin="1,1" pads_end="1,1" strides="2,2"/>
			<input>
				<port id="0">
					<dim>1</dim>
					<dim>72</dim>
					<dim>150</dim>
					<dim>150</dim>
				</port>
			</input>
			<output>
				<port id="3">
					<dim>1</dim>
					<dim>72</dim>
					<dim>75</dim>
					<dim>75</dim>
				</port>
			</output>
			<blobs>
				<weights offset="4308" size="1296"/>
				<biases offset="5604" size="144"/>
			</blobs>
		</layer>
		<layer id="11" name="345" precision="FP16" type="ReLU">
			<input>
				<port id="0">
					<dim>1</dim>
					<dim>72</dim>
					<dim>75</dim>
					<dim>75</dim>
				</port>
			</input>
			<output>
				<port id="1">
					<dim>1</dim>
					<dim>72</dim>
					<dim>75</dim>
					<dim>75</dim>
				</port>
			</output>
		</layer>
		<layer id="12" name="346" precision="FP16" type="Convolution">
			<data dilations="1,1" group="1" kernel="1,1" output="18" pads_begin="0,0" pads_end="0,0" strides="1,1"/>
			<input>
				<port id="0">
					<dim>1</dim>
					<dim>72</dim>
					<dim>75</dim>
					<dim>75</dim>
				</port>
			</input>
			<output>
				<port id="3">
					<dim>1</dim>
					<dim>18</dim>
					<dim>75</dim>
					<dim>75</dim>
				</port>
			</output>
			<blobs>
				<weights offset="5748" size="2592"/>
				<biases offset="8340" size="36"/>
			</blobs>
		</layer>
		<layer id="13" name="348" precision="FP16" type="Convolution">
			<data dilations="1,1" group="1" kernel="1,1" output="108" pads_begin="0,0" pads_end="0,0" strides="1,1"/>
			<input>
				<port id="0">
					<dim>1</dim>
					<dim>18</dim>
					<dim>75</dim>
					<dim>75</dim>
				</port>
			</input>
			<output>
				<port id="3">
					<dim>1</dim>
					<dim>108</dim>
					<dim>75</dim>
					<dim>75</dim>
				</port>
			</output>
			<blobs>
				<weights offset="8376" size="3888"/>
				<biases offset="12264" size="216"/>
			</blobs>
		</layer>
		<layer id="14" name="350" precision="FP16" type="ReLU">
			<input>
				<port id="0">
					<dim>1</dim>
					<dim>108</dim>
					<dim>75</dim>
					<dim>75</dim>
				</port>
			</input>
			<output>
				<port id="1">
					<dim>1</dim>
					<dim>108</dim>
					<dim>75</dim>
					<dim>75</dim>
				</port>
			</output>
		</layer>
		<layer id="15" name="351" precision="FP16" type="Convolution">
			<data dilations="1,1" group="108" kernel="3,3" output="108" pads_begin="1,1" pads_end="1,1" strides="1,1"/>
			<input>
				<port id="0">
					<dim>1</dim>
					<dim>108</dim>
					<dim>75</dim>
					<dim>75</dim>
				</port>
			</input>
			<output>
				<port id="3">
					<dim>1</dim>
					<dim>108</dim>
					<dim>75</dim>
					<dim>75</dim>
				</port>
			</output>
			<blobs>
				<weights offset="12480" size="1944"/>
				<biases offset="14424" size="216"/>
			</blobs>
		</layer>
		<layer id="16" name="353" precision="FP16" type="ReLU">
			<input>
				<port id="0">
					<dim>1</dim>
					<dim>108</dim>
					<dim>75</dim>
					<dim>75</dim>
				</port>
			</input>
			<output>
				<port id="1">
					<dim>1</dim>
					<dim>108</dim>
					<dim>75</dim>
					<dim>75</dim>
				</port>
			</output>
		</layer>
		<layer id="17" name="354" precision="FP16" type="Convolution">
			<data dilations="1,1" group="1" kernel="1,1" output="18" pads_begin="0,0" pads_end="0,0" strides="1,1"/>
			<input>
				<port id="0">
					<dim>1</dim>
					<dim>108</dim>
					<dim>75</dim>
					<dim>75</dim>
				</port>
			</input>
			<output>
				<port id="3">
					<dim>1</dim>
					<dim>18</dim>
					<dim>75</dim>
					<dim>75</dim>
				</port>
			</output>
			<blobs>
				<weights offset="14640" size="3888"/>
				<biases offset="18528" size="36"/>
			</blobs>
		</layer>
		<layer id="18" name="356" precision="FP16" type="Eltwise">
			<data operation="sum"/>
			<input>
				<port id="0">
					<dim>1</dim>
					<dim>18</dim>
					<dim>75</dim>
					<dim>75</dim>
				</port>
				<port id="1">
					<dim>1</dim>
					<dim>18</dim>
					<dim>75</dim>
					<dim>75</dim>
				</port>
			</input>
			<output>
				<port id="2">
					<dim>1</dim>
					<dim>18</dim>
					<dim>75</dim>
					<dim>75</dim>
				</port>
			</output>
		</layer>
		<layer id="19" name="357" precision="FP16" type="Convolution">
			<data dilations="1,1" group="1" kernel="1,1" output="108" pads_begin="0,0" pads_end="0,0" strides="1,1"/>
			<input>
				<port id="0">
					<dim>1</dim>
					<dim>18</dim>
					<dim>75</dim>
					<dim>75</dim>
				</port>
			</input>
			<output>
				<port id="3">
					<dim>1</dim>
					<dim>108</dim>
					<dim>75</dim>
					<dim>75</dim>
				</port>
			</output>
			<blobs>
				<weights offset="18564" size="3888"/>
				<biases offset="22452" size="216"/>
			</blobs>
		</layer>
		<layer id="20" name="359" precision="FP16" type="ReLU">
			<input>
				<port id="0">
					<dim>1</dim>
					<dim>108</dim>
					<dim>75</dim>
					<dim>75</dim>
				</port>
			</input>
			<output>
				<port id="1">
					<dim>1</dim>
					<dim>108</dim>
					<dim>75</dim>
					<dim>75</dim>
				</port>
			</output>
		</layer>
		<layer id="21" name="360" precision="FP16" type="Convolution">
			<data dilations="1,1" group="108" kernel="3,3" output="108" pads_begin="1,1" pads_end="1,1" strides="2,2"/>
			<input>
				<port id="0">
					<dim>1</dim>
					<dim>108</dim>
					<dim>75</dim>
					<dim>75</dim>
				</port>
			</input>
			<output>
				<port id="3">
					<dim>1</dim>
					<dim>108</dim>
					<dim>38</dim>
					<dim>38</dim>
				</port>
			</output>
			<blobs>
				<weights offset="22668" size="1944"/>
				<biases offset="24612" size="216"/>
			</blobs>
		</layer>
		<layer id="22" name="362" precision="FP16" type="ReLU">
			<input>
				<port id="0">
					<dim>1</dim>
					<dim>108</dim>
					<dim>38</dim>
					<dim>38</dim>
				</port>
			</input>
			<output>
				<port id="1">
					<dim>1</dim>
					<dim>108</dim>
					<dim>38</dim>
					<dim>38</dim>
				</port>
			</output>
		</layer>
		<layer id="23" name="363" precision="FP16" type="Convolution">
			<data dilations="1,1" group="1" kernel="1,1" output="24" pads_begin="0,0" pads_end="0,0" strides="1,1"/>
			<input>
				<port id="0">
					<dim>1</dim>
					<dim>108</dim>
					<dim>38</dim>
					<dim>38</dim>
				</port>
			</input>
			<output>
				<port id="3">
					<dim>1</dim>
					<dim>24</dim>
					<dim>38</dim>
					<dim>38</dim>
				</port>
			</output>
			<blobs>
				<weights offset="24828" size="5184"/>
				<biases offset="30012" size="48"/>
			</blobs>
		</layer>
		<layer id="24" name="365" precision="FP16" type="Convolution">
			<data dilations="1,1" group="1" kernel="1,1" output="144" pads_begin="0,0" pads_end="0,0" strides="1,1"/>
			<input>
				<port id="0">
					<dim>1</dim>
					<dim>24</dim>
					<dim>38</dim>
					<dim>38</dim>
				</port>
			</input>
			<output>
				<port id="3">
					<dim>1</dim>
					<dim>144</dim>
					<dim>38</dim>
					<dim>38</dim>
				</port>
			</output>
			<blobs>
				<weights offset="30060" size="6912"/>
				<biases offset="36972" size="288"/>
			</blobs>
		</layer>
		<layer id="25" name="367" precision="FP16" type="ReLU">
			<input>
				<port id="0">
					<dim>1</dim>
					<dim>144</dim>
					<dim>38</dim>
					<dim>38</dim>
				</port>
			</input>
			<output>
				<port id="1">
					<dim>1</dim>
					<dim>144</dim>
					<dim>38</dim>
					<dim>38</dim>
				</port>
			</output>
		</layer>
		<layer id="26" name="368" precision="FP16" type="Convolution">
			<data dilations="1,1" group="144" kernel="3,3" output="144" pads_begin="1,1" pads_end="1,1" strides="1,1"/>
			<input>
				<port id="0">
					<dim>1</dim>
					<dim>144</dim>
					<dim>38</dim>
					<dim>38</dim>
				</port>
			</input>
			<output>
				<port id="3">
					<dim>1</dim>
					<dim>144</dim>
					<dim>38</dim>
					<dim>38</dim>
				</port>
			</output>
			<blobs>
				<weights offset="37260" size="2592"/>
				<biases offset="39852" size="288"/>
			</blobs>
		</layer>
		<layer id="27" name="370" precision="FP16" type="ReLU">
			<input>
				<port id="0">
					<dim>1</dim>
					<dim>144</dim>
					<dim>38</dim>
					<dim>38</dim>
				</port>
			</input>
			<output>
				<port id="1">
					<dim>1</dim>
					<dim>144</dim>
					<dim>38</dim>
					<dim>38</dim>
				</port>
			</output>
		</layer>
		<layer id="28" name="371" precision="FP16" type="Convolution">
			<data dilations="1,1" group="1" kernel="1,1" output="24" pads_begin="0,0" pads_end="0,0" strides="1,1"/>
			<input>
				<port id="0">
					<dim>1</dim>
					<dim>144</dim>
					<dim>38</dim>
					<dim>38</dim>
				</port>
			</input>
			<output>
				<port id="3">
					<dim>1</dim>
					<dim>24</dim>
					<dim>38</dim>
					<dim>38</dim>
				</port>
			</output>
			<blobs>
				<weights offset="40140" size="6912"/>
				<biases offset="47052" size="48"/>
			</blobs>
		</layer>
		<layer id="29" name="373" precision="FP16" type="Eltwise">
			<data operation="sum"/>
			<input>
				<port id="0">
					<dim>1</dim>
					<dim>24</dim>
					<dim>38</dim>
					<dim>38</dim>
				</port>
				<port id="1">
					<dim>1</dim>
					<dim>24</dim>
					<dim>38</dim>
					<dim>38</dim>
				</port>
			</input>
			<output>
				<port id="2">
					<dim>1</dim>
					<dim>24</dim>
					<dim>38</dim>
					<dim>38</dim>
				</port>
			</output>
		</layer>
		<layer id="30" name="374" precision="FP16" type="Convolution">
			<data dilations="1,1" group="1" kernel="1,1" output="144" pads_begin="0,0" pads_end="0,0" strides="1,1"/>
			<input>
				<port id="0">
					<dim>1</dim>
					<dim>24</dim>
					<dim>38</dim>
					<dim>38</dim>
				</port>
			</input>
			<output>
				<port id="3">
					<dim>1</dim>
					<dim>144</dim>
					<dim>38</dim>
					<dim>38</dim>
				</port>
			</output>
			<blobs>
				<weights offset="47100" size="6912"/>
				<biases offset="54012" size="288"/>
			</blobs>
		</layer>
		<layer id="31" name="376" precision="FP16" type="ReLU">
			<input>
				<port id="0">
					<dim>1</dim>
					<dim>144</dim>
					<dim>38</dim>
					<dim>38</dim>
				</port>
			</input>
			<output>
				<port id="1">
					<dim>1</dim>
					<dim>144</dim>
					<dim>38</dim>
					<dim>38</dim>
				</port>
			</output>
		</layer>
		<layer id="32" name="377" precision="FP16" type="Convolution">
			<data dilations="1,1" group="144" kernel="3,3" output="144" pads_begin="1,1" pads_end="1,1" strides="1,1"/>
			<input>
				<port id="0">
					<dim>1</dim>
					<dim>144</dim>
					<dim>38</dim>
					<dim>38</dim>
				</port>
			</input>
			<output>
				<port id="3">
					<dim>1</dim>
					<dim>144</dim>
					<dim>38</dim>
					<dim>38</dim>
				</port>
			</output>
			<blobs>
				<weights offset="54300" size="2592"/>
				<biases offset="56892" size="288"/>
			</blobs>
		</layer>
		<layer id="33" name="379" precision="FP16" type="ReLU">
			<input>
				<port id="0">
					<dim>1</dim>
					<dim>144</dim>
					<dim>38</dim>
					<dim>38</dim>
				</port>
			</input>
			<output>
				<port id="1">
					<dim>1</dim>
					<dim>144</dim>
					<dim>38</dim>
					<dim>38</dim>
				</port>
			</output>
		</layer>
		<layer id="34" name="380" precision="FP16" type="Convolution">
			<data dilations="1,1" group="1" kernel="1,1" output="24" pads_begin="0,0" pads_end="0,0" strides="1,1"/>
			<input>
				<port id="0">
					<dim>1</dim>
					<dim>144</dim>
					<dim>38</dim>
					<dim>38</dim>
				</port>
			</input>
			<output>
				<port id="3">
					<dim>1</dim>
					<dim>24</dim>
					<dim>38</dim>
					<dim>38</dim>
				</port>
			</output>
			<blobs>
				<weights offset="57180" size="6912"/>
				<biases offset="64092" size="48"/>
			</blobs>
		</layer>
		<layer id="35" name="382" precision="FP16" type="Eltwise">
			<data operation="sum"/>
			<input>
				<port id="0">
					<dim>1</dim>
					<dim>24</dim>
					<dim>38</dim>
					<dim>38</dim>
				</port>
				<port id="1">
					<dim>1</dim>
					<dim>24</dim>
					<dim>38</dim>
					<dim>38</dim>
				</port>
			</input>
			<output>
				<port id="2">
					<dim>1</dim>
					<dim>24</dim>
					<dim>38</dim>
					<dim>38</dim>
				</port>
			</output>
		</layer>
		<layer id="36" name="383" precision="FP16" type="Convolution">
			<data dilations="1,1" group="1" kernel="1,1" output="144" pads_begin="0,0" pads_end="0,0" strides="1,1"/>
			<input>
				<port id="0">
					<dim>1</dim>
					<dim>24</dim>
					<dim>38</dim>
					<dim>38</dim>
				</port>
			</input>
			<output>
				<port id="3">
					<dim>1</dim>
					<dim>144</dim>
					<dim>38</dim>
					<dim>38</dim>
				</port>
			</output>
			<blobs>
				<weights offset="64140" size="6912"/>
				<biases offset="71052" size="288"/>
			</blobs>
		</layer>
		<layer id="37" name="385" precision="FP16" type="ReLU">
			<input>
				<port id="0">
					<dim>1</dim>
					<dim>144</dim>
					<dim>38</dim>
					<dim>38</dim>
				</port>
			</input>
			<output>
				<port id="1">
					<dim>1</dim>
					<dim>144</dim>
					<dim>38</dim>
					<dim>38</dim>
				</port>
			</output>
		</layer>
		<layer id="38" name="386" precision="FP16" type="Convolution">
			<data dilations="1,1" group="144" kernel="3,3" output="144" pads_begin="1,1" pads_end="1,1" strides="2,2"/>
			<input>
				<port id="0">
					<dim>1</dim>
					<dim>144</dim>
					<dim>38</dim>
					<dim>38</dim>
				</port>
			</input>
			<output>
				<port id="3">
					<dim>1</dim>
					<dim>144</dim>
					<dim>19</dim>
					<dim>19</dim>
				</port>
			</output>
			<blobs>
				<weights offset="71340" size="2592"/>
				<biases offset="73932" size="288"/>
			</blobs>
		</layer>
		<layer id="39" name="388" precision="FP16" type="ReLU">
			<input>
				<port id="0">
					<dim>1</dim>
					<dim>144</dim>
					<dim>19</dim>
					<dim>19</dim>
				</port>
			</input>
			<output>
				<port id="1">
					<dim>1</dim>
					<dim>144</dim>
					<dim>19</dim>
					<dim>19</dim>
				</port>
			</output>
		</layer>
		<layer id="40" name="389" precision="FP16" type="Convolution">
			<data dilations="1,1" group="1" kernel="1,1" output="48" pads_begin="0,0" pads_end="0,0" strides="1,1"/>
			<input>
				<port id="0">
					<dim>1</dim>
					<dim>144</dim>
					<dim>19</dim>
					<dim>19</dim>
				</port>
			</input>
			<output>
				<port id="3">
					<dim>1</dim>
					<dim>48</dim>
					<dim>19</dim>
					<dim>19</dim>
				</port>
			</output>
			<blobs>
				<weights offset="74220" size="13824"/>
				<biases offset="88044" size="96"/>
			</blobs>
		</layer>
		<layer id="41" name="391" precision="FP16" type="Convolution">
			<data dilations="1,1" group="1" kernel="1,1" output="288" pads_begin="0,0" pads_end="0,0" strides="1,1"/>
			<input>
				<port id="0">
					<dim>1</dim>
					<dim>48</dim>
					<dim>19</dim>
					<dim>19</dim>
				</port>
			</input>
			<output>
				<port id="3">
					<dim>1</dim>
					<dim>288</dim>
					<dim>19</dim>
					<dim>19</dim>
				</port>
			</output>
			<blobs>
				<weights offset="88140" size="27648"/>
				<biases offset="115788" size="576"/>
			</blobs>
		</layer>
		<layer id="42" name="393" precision="FP16" type="ReLU">
			<input>
				<port id="0">
					<dim>1</dim>
					<dim>288</dim>
					<dim>19</dim>
					<dim>19</dim>
				</port>
			</input>
			<output>
				<port id="1">
					<dim>1</dim>
					<dim>288</dim>
					<dim>19</dim>
					<dim>19</dim>
				</port>
			</output>
		</layer>
		<layer id="43" name="394" precision="FP16" type="Convolution">
			<data dilations="1,1" group="288" kernel="3,3" output="288" pads_begin="1,1" pads_end="1,1" strides="1,1"/>
			<input>
				<port id="0">
					<dim>1</dim>
					<dim>288</dim>
					<dim>19</dim>
					<dim>19</dim>
				</port>
			</input>
			<output>
				<port id="3">
					<dim>1</dim>
					<dim>288</dim>
					<dim>19</dim>
					<dim>19</dim>
				</port>
			</output>
			<blobs>
				<weights offset="116364" size="5184"/>
				<biases offset="121548" size="576"/>
			</blobs>
		</layer>
		<layer id="44" name="396" precision="FP16" type="ReLU">
			<input>
				<port id="0">
					<dim>1</dim>
					<dim>288</dim>
					<dim>19</dim>
					<dim>19</dim>
				</port>
			</input>
			<output>
				<port id="1">
					<dim>1</dim>
					<dim>288</dim>
					<dim>19</dim>
					<dim>19</dim>
				</port>
			</output>
		</layer>
		<layer id="45" name="397" precision="FP16" type="Convolution">
			<data dilations="1,1" group="1" kernel="1,1" output="48" pads_begin="0,0" pads_end="0,0" strides="1,1"/>
			<input>
				<port id="0">
					<dim>1</dim>
					<dim>288</dim>
					<dim>19</dim>
					<dim>19</dim>
				</port>
			</input>
			<output>
				<port id="3">
					<dim>1</dim>
					<dim>48</dim>
					<dim>19</dim>
					<dim>19</dim>
				</port>
			</output>
			<blobs>
				<weights offset="122124" size="27648"/>
				<biases offset="149772" size="96"/>
			</blobs>
		</layer>
		<layer id="46" name="399" precision="FP16" type="Eltwise">
			<data operation="sum"/>
			<input>
				<port id="0">
					<dim>1</dim>
					<dim>48</dim>
					<dim>19</dim>
					<dim>19</dim>
				</port>
				<port id="1">
					<dim>1</dim>
					<dim>48</dim>
					<dim>19</dim>
					<dim>19</dim>
				</port>
			</input>
			<output>
				<port id="2">
					<dim>1</dim>
					<dim>48</dim>
					<dim>19</dim>
					<dim>19</dim>
				</port>
			</output>
		</layer>
		<layer id="47" name="400" precision="FP16" type="Convolution">
			<data dilations="1,1" group="1" kernel="1,1" output="288" pads_begin="0,0" pads_end="0,0" strides="1,1"/>
			<input>
				<port id="0">
					<dim>1</dim>
					<dim>48</dim>
					<dim>19</dim>
					<dim>19</dim>
				</port>
			</input>
			<output>
				<port id="3">
					<dim>1</dim>
					<dim>288</dim>
					<dim>19</dim>
					<dim>19</dim>
				</port>
			</output>
			<blobs>
				<weights offset="149868" size="27648"/>
				<biases offset="177516" size="576"/>
			</blobs>
		</layer>
		<layer id="48" name="402" precision="FP16" type="ReLU">
			<input>
				<port id="0">
					<dim>1</dim>
					<dim>288</dim>
					<dim>19</dim>
					<dim>19</dim>
				</port>
			</input>
			<output>
				<port id="1">
					<dim>1</dim>
					<dim>288</dim>
					<dim>19</dim>
					<dim>19</dim>
				</port>
			</output>
		</layer>
		<layer id="49" name="403" precision="FP16" type="Convolution">
			<data dilations="1,1" group="288" kernel="3,3" output="288" pads_begin="1,1" pads_end="1,1" strides="1,1"/>
			<input>
				<port id="0">
					<dim>1</dim>
					<dim>288</dim>
					<dim>19</dim>
					<dim>19</dim>
				</port>
			</input>
			<output>
				<port id="3">
					<dim>1</dim>
					<dim>288</dim>
					<dim>19</dim>
					<dim>19</dim>
				</port>
			</output>
			<blobs>
				<weights offset="178092" size="5184"/>
				<biases offset="183276" size="576"/>
			</blobs>
		</layer>
		<layer id="50" name="405" precision="FP16" type="ReLU">
			<input>
				<port id="0">
					<dim>1</dim>
					<dim>288</dim>
					<dim>19</dim>
					<dim>19</dim>
				</port>
			</input>
			<output>
				<port id="1">
					<dim>1</dim>
					<dim>288</dim>
					<dim>19</dim>
					<dim>19</dim>
				</port>
			</output>
		</layer>
		<layer id="51" name="406" precision="FP16" type="Convolution">
			<data dilations="1,1" group="1" kernel="1,1" output="48" pads_begin="0,0" pads_end="0,0" strides="1,1"/>
			<input>
				<port id="0">
					<dim>1</dim>
					<dim>288</dim>
					<dim>19</dim>
					<dim>19</dim>
				</port>
			</input>
			<output>
				<port id="3">
					<dim>1</dim>
					<dim>48</dim>
					<dim>19</dim>
					<dim>19</dim>
				</port>
			</output>
			<blobs>
				<weights offset="183852" size="27648"/>
				<biases offset="211500" size="96"/>
			</blobs>
		</layer>
		<layer id="52" name="408" precision="FP16" type="Eltwise">
			<data operation="sum"/>
			<input>
				<port id="0">
					<dim>1</dim>
					<dim>48</dim>
					<dim>19</dim>
					<dim>19</dim>
				</port>
				<port id="1">
					<dim>1</dim>
					<dim>48</dim>
					<dim>19</dim>
					<dim>19</dim>
				</port>
			</input>
			<output>
				<port id="2">
					<dim>1</dim>
					<dim>48</dim>
					<dim>19</dim>
					<dim>19</dim>
				</port>
			</output>
		</layer>
		<layer id="53" name="409" precision="FP16" type="Convolution">
			<data dilations="1,1" group="1" kernel="1,1" output="288" pads_begin="0,0" pads_end="0,0" strides="1,1"/>
			<input>
				<port id="0">
					<dim>1</dim>
					<dim>48</dim>
					<dim>19</dim>
					<dim>19</dim>
				</port>
			</input>
			<output>
				<port id="3">
					<dim>1</dim>
					<dim>288</dim>
					<dim>19</dim>
					<dim>19</dim>
				</port>
			</output>
			<blobs>
				<weights offset="211596" size="27648"/>
				<biases offset="239244" size="576"/>
			</blobs>
		</layer>
		<layer id="54" name="411" precision="FP16" type="ReLU">
			<input>
				<port id="0">
					<dim>1</dim>
					<dim>288</dim>
					<dim>19</dim>
					<dim>19</dim>
				</port>
			</input>
			<output>
				<port id="1">
					<dim>1</dim>
					<dim>288</dim>
					<dim>19</dim>
					<dim>19</dim>
				</port>
			</output>
		</layer>
		<layer id="55" name="412" precision="FP16" type="Convolution">
			<data dilations="1,1" group="288" kernel="3,3" output="288" pads_begin="1,1" pads_end="1,1" strides="1,1"/>
			<input>
				<port id="0">
					<dim>1</dim>
					<dim>288</dim>
					<dim>19</dim>
					<dim>19</dim>
				</port>
			</input>
			<output>
				<port id="3">
					<dim>1</dim>
					<dim>288</dim>
					<dim>19</dim>
					<dim>19</dim>
				</port>
			</output>
			<blobs>
				<weights offset="239820" size="5184"/>
				<biases offset="245004" size="576"/>
			</blobs>
		</layer>
		<layer id="56" name="414" precision="FP16" type="ReLU">
			<input>
				<port id="0">
					<dim>1</dim>
					<dim>288</dim>
					<dim>19</dim>
					<dim>19</dim>
				</port>
			</input>
			<output>
				<port id="1">
					<dim>1</dim>
					<dim>288</dim>
					<dim>19</dim>
					<dim>19</dim>
				</port>
			</output>
		</layer>
		<layer id="57" name="415" precision="FP16" type="Convolution">
			<data dilations="1,1" group="1" kernel="1,1" output="48" pads_begin="0,0" pads_end="0,0" strides="1,1"/>
			<input>
				<port id="0">
					<dim>1</dim>
					<dim>288</dim>
					<dim>19</dim>
					<dim>19</dim>
				</port>
			</input>
			<output>
				<port id="3">
					<dim>1</dim>
					<dim>48</dim>
					<dim>19</dim>
					<dim>19</dim>
				</port>
			</output>
			<blobs>
				<weights offset="245580" size="27648"/>
				<biases offset="273228" size="96"/>
			</blobs>
		</layer>
		<layer id="58" name="417" precision="FP16" type="Eltwise">
			<data operation="sum"/>
			<input>
				<port id="0">
					<dim>1</dim>
					<dim>48</dim>
					<dim>19</dim>
					<dim>19</dim>
				</port>
				<port id="1">
					<dim>1</dim>
					<dim>48</dim>
					<dim>19</dim>
					<dim>19</dim>
				</port>
			</input>
			<output>
				<port id="2">
					<dim>1</dim>
					<dim>48</dim>
					<dim>19</dim>
					<dim>19</dim>
				</port>
			</output>
		</layer>
		<layer id="59" name="418" precision="FP16" type="Convolution">
			<data dilations="1,1" group="1" kernel="1,1" output="288" pads_begin="0,0" pads_end="0,0" strides="1,1"/>
			<input>
				<port id="0">
					<dim>1</dim>
					<dim>48</dim>
					<dim>19</dim>
					<dim>19</dim>
				</port>
			</input>
			<output>
				<port id="3">
					<dim>1</dim>
					<dim>288</dim>
					<dim>19</dim>
					<dim>19</dim>
				</port>
			</output>
			<blobs>
				<weights offset="273324" size="27648"/>
				<biases offset="300972" size="576"/>
			</blobs>
		</layer>
		<layer id="60" name="420" precision="FP16" type="ReLU">
			<input>
				<port id="0">
					<dim>1</dim>
					<dim>288</dim>
					<dim>19</dim>
					<dim>19</dim>
				</port>
			</input>
			<output>
				<port id="1">
					<dim>1</dim>
					<dim>288</dim>
					<dim>19</dim>
					<dim>19</dim>
				</port>
			</output>
		</layer>
		<layer id="61" name="421" precision="FP16" type="Convolution">
			<data dilations="1,1" group="288" kernel="3,3" output="288" pads_begin="1,1" pads_end="1,1" strides="1,1"/>
			<input>
				<port id="0">
					<dim>1</dim>
					<dim>288</dim>
					<dim>19</dim>
					<dim>19</dim>
				</port>
			</input>
			<output>
				<port id="3">
					<dim>1</dim>
					<dim>288</dim>
					<dim>19</dim>
					<dim>19</dim>
				</port>
			</output>
			<blobs>
				<weights offset="301548" size="5184"/>
				<biases offset="306732" size="576"/>
			</blobs>
		</layer>
		<layer id="62" name="423" precision="FP16" type="ReLU">
			<input>
				<port id="0">
					<dim>1</dim>
					<dim>288</dim>
					<dim>19</dim>
					<dim>19</dim>
				</port>
			</input>
			<output>
				<port id="1">
					<dim>1</dim>
					<dim>288</dim>
					<dim>19</dim>
					<dim>19</dim>
				</port>
			</output>
		</layer>
		<layer id="63" name="424" precision="FP16" type="Convolution">
			<data dilations="1,1" group="1" kernel="1,1" output="72" pads_begin="0,0" pads_end="0,0" strides="1,1"/>
			<input>
				<port id="0">
					<dim>1</dim>
					<dim>288</dim>
					<dim>19</dim>
					<dim>19</dim>
				</port>
			</input>
			<output>
				<port id="3">
					<dim>1</dim>
					<dim>72</dim>
					<dim>19</dim>
					<dim>19</dim>
				</port>
			</output>
			<blobs>
				<weights offset="307308" size="41472"/>
				<biases offset="348780" size="144"/>
			</blobs>
		</layer>
		<layer id="64" name="426" precision="FP16" type="Convolution">
			<data dilations="1,1" group="1" kernel="1,1" output="432" pads_begin="0,0" pads_end="0,0" strides="1,1"/>
			<input>
				<port id="0">
					<dim>1</dim>
					<dim>72</dim>
					<dim>19</dim>
					<dim>19</dim>
				</port>
			</input>
			<output>
				<port id="3">
					<dim>1</dim>
					<dim>432</dim>
					<dim>19</dim>
					<dim>19</dim>
				</port>
			</output>
			<blobs>
				<weights offset="348924" size="62208"/>
				<biases offset="411132" size="864"/>
			</blobs>
		</layer>
		<layer id="65" name="428" precision="FP16" type="ReLU">
			<input>
				<port id="0">
					<dim>1</dim>
					<dim>432</dim>
					<dim>19</dim>
					<dim>19</dim>
				</port>
			</input>
			<output>
				<port id="1">
					<dim>1</dim>
					<dim>432</dim>
					<dim>19</dim>
					<dim>19</dim>
				</port>
			</output>
		</layer>
		<layer id="66" name="429" precision="FP16" type="Convolution">
			<data dilations="1,1" group="432" kernel="3,3" output="432" pads_begin="1,1" pads_end="1,1" strides="1,1"/>
			<input>
				<port id="0">
					<dim>1</dim>
					<dim>432</dim>
					<dim>19</dim>
					<dim>19</dim>
				</port>
			</input>
			<output>
				<port id="3">
					<dim>1</dim>
					<dim>432</dim>
					<dim>19</dim>
					<dim>19</dim>
				</port>
			</output>
			<blobs>
				<weights offset="411996" size="7776"/>
				<biases offset="419772" size="864"/>
			</blobs>
		</layer>
		<layer id="67" name="431" precision="FP16" type="ReLU">
			<input>
				<port id="0">
					<dim>1</dim>
					<dim>432</dim>
					<dim>19</dim>
					<dim>19</dim>
				</port>
			</input>
			<output>
				<port id="1">
					<dim>1</dim>
					<dim>432</dim>
					<dim>19</dim>
					<dim>19</dim>
				</port>
			</output>
		</layer>
		<layer id="68" name="432" precision="FP16" type="Convolution">
			<data dilations="1,1" group="1" kernel="1,1" output="72" pads_begin="0,0" pads_end="0,0" strides="1,1"/>
			<input>
				<port id="0">
					<dim>1</dim>
					<dim>432</dim>
					<dim>19</dim>
					<dim>19</dim>
				</port>
			</input>
			<output>
				<port id="3">
					<dim>1</dim>
					<dim>72</dim>
					<dim>19</dim>
					<dim>19</dim>
				</port>
			</output>
			<blobs>
				<weights offset="420636" size="62208"/>
				<biases offset="482844" size="144"/>
			</blobs>
		</layer>
		<layer id="69" name="434" precision="FP16" type="Eltwise">
			<data operation="sum"/>
			<input>
				<port id="0">
					<dim>1</dim>
					<dim>72</dim>
					<dim>19</dim>
					<dim>19</dim>
				</port>
				<port id="1">
					<dim>1</dim>
					<dim>72</dim>
					<dim>19</dim>
					<dim>19</dim>
				</port>
			</input>
			<output>
				<port id="2">
					<dim>1</dim>
					<dim>72</dim>
					<dim>19</dim>
					<dim>19</dim>
				</port>
			</output>
		</layer>
		<layer id="70" name="435" precision="FP16" type="Convolution">
			<data dilations="1,1" group="1" kernel="1,1" output="432" pads_begin="0,0" pads_end="0,0" strides="1,1"/>
			<input>
				<port id="0">
					<dim>1</dim>
					<dim>72</dim>
					<dim>19</dim>
					<dim>19</dim>
				</port>
			</input>
			<output>
				<port id="3">
					<dim>1</dim>
					<dim>432</dim>
					<dim>19</dim>
					<dim>19</dim>
				</port>
			</output>
			<blobs>
				<weights offset="482988" size="62208"/>
				<biases offset="545196" size="864"/>
			</blobs>
		</layer>
		<layer id="71" name="437" precision="FP16" type="ReLU">
			<input>
				<port id="0">
					<dim>1</dim>
					<dim>432</dim>
					<dim>19</dim>
					<dim>19</dim>
				</port>
			</input>
			<output>
				<port id="1">
					<dim>1</dim>
					<dim>432</dim>
					<dim>19</dim>
					<dim>19</dim>
				</port>
			</output>
		</layer>
		<layer id="72" name="438" precision="FP16" type="Convolution">
			<data dilations="1,1" group="432" kernel="3,3" output="432" pads_begin="1,1" pads_end="1,1" strides="1,1"/>
			<input>
				<port id="0">
					<dim>1</dim>
					<dim>432</dim>
					<dim>19</dim>
					<dim>19</dim>
				</port>
			</input>
			<output>
				<port id="3">
					<dim>1</dim>
					<dim>432</dim>
					<dim>19</dim>
					<dim>19</dim>
				</port>
			</output>
			<blobs>
				<weights offset="546060" size="7776"/>
				<biases offset="553836" size="864"/>
			</blobs>
		</layer>
		<layer id="73" name="440" precision="FP16" type="ReLU">
			<input>
				<port id="0">
					<dim>1</dim>
					<dim>432</dim>
					<dim>19</dim>
					<dim>19</dim>
				</port>
			</input>
			<output>
				<port id="1">
					<dim>1</dim>
					<dim>432</dim>
					<dim>19</dim>
					<dim>19</dim>
				</port>
			</output>
		</layer>
		<layer id="74" name="441" precision="FP16" type="Convolution">
			<data dilations="1,1" group="1" kernel="1,1" output="72" pads_begin="0,0" pads_end="0,0" strides="1,1"/>
			<input>
				<port id="0">
					<dim>1</dim>
					<dim>432</dim>
					<dim>19</dim>
					<dim>19</dim>
				</port>
			</input>
			<output>
				<port id="3">
					<dim>1</dim>
					<dim>72</dim>
					<dim>19</dim>
					<dim>19</dim>
				</port>
			</output>
			<blobs>
				<weights offset="554700" size="62208"/>
				<biases offset="616908" size="144"/>
			</blobs>
		</layer>
		<layer id="75" name="443" precision="FP16" type="Eltwise">
			<data operation="sum"/>
			<input>
				<port id="0">
					<dim>1</dim>
					<dim>72</dim>
					<dim>19</dim>
					<dim>19</dim>
				</port>
				<port id="1">
					<dim>1</dim>
					<dim>72</dim>
					<dim>19</dim>
					<dim>19</dim>
				</port>
			</input>
			<output>
				<port id="2">
					<dim>1</dim>
					<dim>72</dim>
					<dim>19</dim>
					<dim>19</dim>
				</port>
			</output>
		</layer>
		<layer id="76" name="444" precision="FP16" type="Convolution">
			<data dilations="1,1" group="1" kernel="1,1" output="432" pads_begin="0,0" pads_end="0,0" strides="1,1"/>
			<input>
				<port id="0">
					<dim>1</dim>
					<dim>72</dim>
					<dim>19</dim>
					<dim>19</dim>
				</port>
			</input>
			<output>
				<port id="3">
					<dim>1</dim>
					<dim>432</dim>
					<dim>19</dim>
					<dim>19</dim>
				</port>
			</output>
			<blobs>
				<weights offset="617052" size="62208"/>
				<biases offset="679260" size="864"/>
			</blobs>
		</layer>
		<layer id="77" name="446" precision="FP16" type="ReLU">
			<input>
				<port id="0">
					<dim>1</dim>
					<dim>432</dim>
					<dim>19</dim>
					<dim>19</dim>
				</port>
			</input>
			<output>
				<port id="1">
					<dim>1</dim>
					<dim>432</dim>
					<dim>19</dim>
					<dim>19</dim>
				</port>
			</output>
		</layer>
		<layer id="78" name="447" precision="FP16" type="Convolution">
			<data dilations="1,1" group="432" kernel="3,3" output="432" pads_begin="1,1" pads_end="1,1" strides="1,1"/>
			<input>
				<port id="0">
					<dim>1</dim>
					<dim>432</dim>
					<dim>19</dim>
					<dim>19</dim>
				</port>
			</input>
			<output>
				<port id="3">
					<dim>1</dim>
					<dim>432</dim>
					<dim>19</dim>
					<dim>19</dim>
				</port>
			</output>
			<blobs>
				<weights offset="680124" size="7776"/>
				<biases offset="687900" size="864"/>
			</blobs>
		</layer>
		<layer id="79" name="449" precision="FP16" type="ReLU">
			<input>
				<port id="0">
					<dim>1</dim>
					<dim>432</dim>
					<dim>19</dim>
					<dim>19</dim>
				</port>
			</input>
			<output>
				<port id="1">
					<dim>1</dim>
					<dim>432</dim>
					<dim>19</dim>
					<dim>19</dim>
				</port>
			</output>
		</layer>
		<layer id="80" name="450" precision="FP16" type="Convolution">
			<data dilations="1,1" group="1" kernel="1,1" output="120" pads_begin="0,0" pads_end="0,0" strides="1,1"/>
			<input>
				<port id="0">
					<dim>1</dim>
					<dim>432</dim>
					<dim>19</dim>
					<dim>19</dim>
				</port>
			</input>
			<output>
				<port id="3">
					<dim>1</dim>
					<dim>120</dim>
					<dim>19</dim>
					<dim>19</dim>
				</port>
			</output>
			<blobs>
				<weights offset="688764" size="103680"/>
				<biases offset="792444" size="240"/>
			</blobs>
		</layer>
		<layer id="81" name="452" precision="FP16" type="Convolution">
			<data dilations="1,1" group="1" kernel="1,1" output="720" pads_begin="0,0" pads_end="0,0" strides="1,1"/>
			<input>
				<port id="0">
					<dim>1</dim>
					<dim>120</dim>
					<dim>19</dim>
					<dim>19</dim>
				</port>
			</input>
			<output>
				<port id="3">
					<dim>1</dim>
					<dim>720</dim>
					<dim>19</dim>
					<dim>19</dim>
				</port>
			</output>
			<blobs>
				<weights offset="792684" size="172800"/>
				<biases offset="965484" size="1440"/>
			</blobs>
		</layer>
		<layer id="82" name="454" precision="FP16" type="ReLU">
			<input>
				<port id="0">
					<dim>1</dim>
					<dim>720</dim>
					<dim>19</dim>
					<dim>19</dim>
				</port>
			</input>
			<output>
				<port id="1">
					<dim>1</dim>
					<dim>720</dim>
					<dim>19</dim>
					<dim>19</dim>
				</port>
			</output>
		</layer>
		<layer id="83" name="455" precision="FP16" type="Convolution">
			<data dilations="1,1" group="720" kernel="3,3" output="720" pads_begin="1,1" pads_end="1,1" strides="1,1"/>
			<input>
				<port id="0">
					<dim>1</dim>
					<dim>720</dim>
					<dim>19</dim>
					<dim>19</dim>
				</port>
			</input>
			<output>
				<port id="3">
					<dim>1</dim>
					<dim>720</dim>
					<dim>19</dim>
					<dim>19</dim>
				</port>
			</output>
			<blobs>
				<weights offset="966924" size="12960"/>
				<biases offset="979884" size="1440"/>
			</blobs>
		</layer>
		<layer id="84" name="457" precision="FP16" type="ReLU">
			<input>
				<port id="0">
					<dim>1</dim>
					<dim>720</dim>
					<dim>19</dim>
					<dim>19</dim>
				</port>
			</input>
			<output>
				<port id="1">
					<dim>1</dim>
					<dim>720</dim>
					<dim>19</dim>
					<dim>19</dim>
				</port>
			</output>
		</layer>
		<layer id="85" name="458" precision="FP16" type="Convolution">
			<data dilations="1,1" group="1" kernel="1,1" output="120" pads_begin="0,0" pads_end="0,0" strides="1,1"/>
			<input>
				<port id="0">
					<dim>1</dim>
					<dim>720</dim>
					<dim>19</dim>
					<dim>19</dim>
				</port>
			</input>
			<output>
				<port id="3">
					<dim>1</dim>
					<dim>120</dim>
					<dim>19</dim>
					<dim>19</dim>
				</port>
			</output>
			<blobs>
				<weights offset="981324" size="172800"/>
				<biases offset="1154124" size="240"/>
			</blobs>
		</layer>
		<layer id="86" name="460" precision="FP16" type="Eltwise">
			<data operation="sum"/>
			<input>
				<port id="0">
					<dim>1</dim>
					<dim>120</dim>
					<dim>19</dim>
					<dim>19</dim>
				</port>
				<port id="1">
					<dim>1</dim>
					<dim>120</dim>
					<dim>19</dim>
					<dim>19</dim>
				</port>
			</input>
			<output>
				<port id="2">
					<dim>1</dim>
					<dim>120</dim>
					<dim>19</dim>
					<dim>19</dim>
				</port>
			</output>
		</layer>
		<layer id="87" name="461" precision="FP16" type="Convolution">
			<data dilations="1,1" group="1" kernel="1,1" output="720" pads_begin="0,0" pads_end="0,0" strides="1,1"/>
			<input>
				<port id="0">
					<dim>1</dim>
					<dim>120</dim>
					<dim>19</dim>
					<dim>19</dim>
				</port>
			</input>
			<output>
				<port id="3">
					<dim>1</dim>
					<dim>720</dim>
					<dim>19</dim>
					<dim>19</dim>
				</port>
			</output>
			<blobs>
				<weights offset="1154364" size="172800"/>
				<biases offset="1327164" size="1440"/>
			</blobs>
		</layer>
		<layer id="88" name="463" precision="FP16" type="ReLU">
			<input>
				<port id="0">
					<dim>1</dim>
					<dim>720</dim>
					<dim>19</dim>
					<dim>19</dim>
				</port>
			</input>
			<output>
				<port id="1">
					<dim>1</dim>
					<dim>720</dim>
					<dim>19</dim>
					<dim>19</dim>
				</port>
			</output>
		</layer>
		<layer id="89" name="464" precision="FP16" type="Convolution">
			<data dilations="1,1" group="720" kernel="3,3" output="720" pads_begin="1,1" pads_end="1,1" strides="1,1"/>
			<input>
				<port id="0">
					<dim>1</dim>
					<dim>720</dim>
					<dim>19</dim>
					<dim>19</dim>
				</port>
			</input>
			<output>
				<port id="3">
					<dim>1</dim>
					<dim>720</dim>
					<dim>19</dim>
					<dim>19</dim>
				</port>
			</output>
			<blobs>
				<weights offset="1328604" size="12960"/>
				<biases offset="1341564" size="1440"/>
			</blobs>
		</layer>
		<layer id="90" name="466" precision="FP16" type="ReLU">
			<input>
				<port id="0">
					<dim>1</dim>
					<dim>720</dim>
					<dim>19</dim>
					<dim>19</dim>
				</port>
			</input>
			<output>
				<port id="1">
					<dim>1</dim>
					<dim>720</dim>
					<dim>19</dim>
					<dim>19</dim>
				</port>
			</output>
		</layer>
		<layer id="91" name="467" precision="FP16" type="Convolution">
			<data dilations="1,1" group="1" kernel="1,1" output="120" pads_begin="0,0" pads_end="0,0" strides="1,1"/>
			<input>
				<port id="0">
					<dim>1</dim>
					<dim>720</dim>
					<dim>19</dim>
					<dim>19</dim>
				</port>
			</input>
			<output>
				<port id="3">
					<dim>1</dim>
					<dim>120</dim>
					<dim>19</dim>
					<dim>19</dim>
				</port>
			</output>
			<blobs>
				<weights offset="1343004" size="172800"/>
				<biases offset="1515804" size="240"/>
			</blobs>
		</layer>
		<layer id="92" name="469" precision="FP16" type="Eltwise">
			<data operation="sum"/>
			<input>
				<port id="0">
					<dim>1</dim>
					<dim>120</dim>
					<dim>19</dim>
					<dim>19</dim>
				</port>
				<port id="1">
					<dim>1</dim>
					<dim>120</dim>
					<dim>19</dim>
					<dim>19</dim>
				</port>
			</input>
			<output>
				<port id="2">
					<dim>1</dim>
					<dim>120</dim>
					<dim>19</dim>
					<dim>19</dim>
				</port>
			</output>
		</layer>
		<layer id="93" name="470" precision="FP16" type="Convolution">
			<data dilations="1,1" group="1" kernel="1,1" output="480" pads_begin="0,0" pads_end="0,0" strides="1,1"/>
			<input>
				<port id="0">
					<dim>1</dim>
					<dim>120</dim>
					<dim>19</dim>
					<dim>19</dim>
				</port>
			</input>
			<output>
				<port id="3">
					<dim>1</dim>
					<dim>480</dim>
					<dim>19</dim>
					<dim>19</dim>
				</port>
			</output>
			<blobs>
				<weights offset="1516044" size="115200"/>
				<biases offset="1631244" size="960"/>
			</blobs>
		</layer>
		<layer id="94" name="472" precision="FP16" type="ReLU">
			<input>
				<port id="0">
					<dim>1</dim>
					<dim>480</dim>
					<dim>19</dim>
					<dim>19</dim>
				</port>
			</input>
			<output>
				<port id="1">
					<dim>1</dim>
					<dim>480</dim>
					<dim>19</dim>
					<dim>19</dim>
				</port>
			</output>
		</layer>
		<layer id="95" name="473" precision="FP16" type="Convolution">
			<data dilations="1,1" group="480" kernel="3,3" output="480" pads_begin="1,1" pads_end="1,1" strides="1,1"/>
			<input>
				<port id="0">
					<dim>1</dim>
					<dim>480</dim>
					<dim>19</dim>
					<dim>19</dim>
				</port>
			</input>
			<output>
				<port id="3">
					<dim>1</dim>
					<dim>480</dim>
					<dim>19</dim>
					<dim>19</dim>
				</port>
			</output>
			<blobs>
				<weights offset="1632204" size="8640"/>
				<biases offset="1640844" size="960"/>
			</blobs>
		</layer>
		<layer id="96" name="475" precision="FP16" type="ReLU">
			<input>
				<port id="0">
					<dim>1</dim>
					<dim>480</dim>
					<dim>19</dim>
					<dim>19</dim>
				</port>
			</input>
			<output>
				<port id="1">
					<dim>1</dim>
					<dim>480</dim>
					<dim>19</dim>
					<dim>19</dim>
				</port>
			</output>
		</layer>
		<layer id="97" name="476" precision="FP16" type="Convolution">
			<data dilations="1,1" group="1" kernel="1,1" output="360" pads_begin="0,0" pads_end="0,0" strides="1,1"/>
			<input>
				<port id="0">
					<dim>1</dim>
					<dim>480</dim>
					<dim>19</dim>
					<dim>19</dim>
				</port>
			</input>
			<output>
				<port id="3">
					<dim>1</dim>
					<dim>360</dim>
					<dim>19</dim>
					<dim>19</dim>
				</port>
			</output>
			<blobs>
				<weights offset="1641804" size="345600"/>
				<biases offset="1987404" size="720"/>
			</blobs>
		</layer>
		<layer id="98" name="482" precision="FP16" type="Convolution">
			<data dilations="1,1" group="360" kernel="3,3" output="360" pads_begin="1,1" pads_end="1,1" strides="1,1"/>
			<input>
				<port id="0">
					<dim>1</dim>
					<dim>360</dim>
					<dim>19</dim>
					<dim>19</dim>
				</port>
			</input>
			<output>
				<port id="3">
					<dim>1</dim>
					<dim>360</dim>
					<dim>19</dim>
					<dim>19</dim>
				</port>
			</output>
			<blobs>
				<weights offset="1988124" size="6480"/>
				<biases offset="1994604" size="720"/>
			</blobs>
		</layer>
		<layer id="99" name="484" precision="FP16" type="ReLU">
			<input>
				<port id="0">
					<dim>1</dim>
					<dim>360</dim>
					<dim>19</dim>
					<dim>19</dim>
				</port>
			</input>
			<output>
				<port id="1">
					<dim>1</dim>
					<dim>360</dim>
					<dim>19</dim>
					<dim>19</dim>
				</port>
			</output>
		</layer>
		<layer id="100" name="485" precision="FP16" type="Convolution">
			<data dilations="1,1" group="1" kernel="1,1" output="36" pads_begin="0,0" pads_end="0,0" strides="1,1"/>
			<input>
				<port id="0">
					<dim>1</dim>
					<dim>360</dim>
					<dim>19</dim>
					<dim>19</dim>
				</port>
			</input>
			<output>
				<port id="3">
					<dim>1</dim>
					<dim>36</dim>
					<dim>19</dim>
					<dim>19</dim>
				</port>
			</output>
			<blobs>
				<weights offset="1995324" size="25920"/>
				<biases offset="2021244" size="72"/>
			</blobs>
		</layer>
		<layer id="101" name="517" precision="FP16" type="Permute">
			<data order="0,2,3,1"/>
			<input>
				<port id="0">
					<dim>1</dim>
					<dim>36</dim>
					<dim>19</dim>
					<dim>19</dim>
				</port>
			</input>
			<output>
				<port id="1">
					<dim>1</dim>
					<dim>19</dim>
					<dim>19</dim>
					<dim>36</dim>
				</port>
			</output>
		</layer>
		<layer id="102" name="524/Output_0/Data__const" precision="I32" type="Const">
			<output>
				<port id="1">
					<dim>2</dim>
				</port>
			</output>
			<blobs>
				<custom offset="2021316" size="8"/>
			</blobs>
		</layer>
		<layer id="103" name="525" precision="FP16" type="Reshape">
			<input>
				<port id="0">
					<dim>1</dim>
					<dim>19</dim>
					<dim>19</dim>
					<dim>36</dim>
				</port>
				<port id="1">
					<dim>2</dim>
				</port>
			</input>
			<output>
				<port id="2">
					<dim>1</dim>
					<dim>12996</dim>
				</port>
			</output>
		</layer>
		<layer id="104" name="526" precision="FP16" type="Concat">
			<data axis="1"/>
			<input>
				<port id="0">
					<dim>1</dim>
					<dim>12996</dim>
				</port>
			</input>
			<output>
				<port id="1">
					<dim>1</dim>
					<dim>12996</dim>
				</port>
			</output>
		</layer>
		<layer id="105" name="478" precision="FP16" type="Convolution">
			<data dilations="1,1" group="360" kernel="3,3" output="360" pads_begin="1,1" pads_end="1,1" strides="1,1"/>
			<input>
				<port id="0">
					<dim>1</dim>
					<dim>360</dim>
					<dim>19</dim>
					<dim>19</dim>
				</port>
			</input>
			<output>
				<port id="3">
					<dim>1</dim>
					<dim>360</dim>
					<dim>19</dim>
					<dim>19</dim>
				</port>
			</output>
			<blobs>
				<weights offset="2021324" size="6480"/>
				<biases offset="2027804" size="720"/>
			</blobs>
		</layer>
		<layer id="106" name="480" precision="FP16" type="ReLU">
			<input>
				<port id="0">
					<dim>1</dim>
					<dim>360</dim>
					<dim>19</dim>
					<dim>19</dim>
				</port>
			</input>
			<output>
				<port id="1">
					<dim>1</dim>
					<dim>360</dim>
					<dim>19</dim>
					<dim>19</dim>
				</port>
			</output>
		</layer>
		<layer id="107" name="481" precision="FP16" type="Convolution">
			<data dilations="1,1" group="1" kernel="1,1" output="18" pads_begin="0,0" pads_end="0,0" strides="1,1"/>
			<input>
				<port id="0">
					<dim>1</dim>
					<dim>360</dim>
					<dim>19</dim>
					<dim>19</dim>
				</port>
			</input>
			<output>
				<port id="3">
					<dim>1</dim>
					<dim>18</dim>
					<dim>19</dim>
					<dim>19</dim>
				</port>
			</output>
			<blobs>
				<weights offset="2028524" size="12960"/>
				<biases offset="2041484" size="36"/>
			</blobs>
		</layer>
		<layer id="108" name="488" precision="FP16" type="Permute">
			<data order="0,2,3,1"/>
			<input>
				<port id="0">
					<dim>1</dim>
					<dim>18</dim>
					<dim>19</dim>
					<dim>19</dim>
				</port>
			</input>
			<output>
				<port id="1">
					<dim>1</dim>
					<dim>19</dim>
					<dim>19</dim>
					<dim>18</dim>
				</port>
			</output>
		</layer>
		<layer id="109" name="495/Output_0/Data__const" precision="I32" type="Const">
			<output>
				<port id="1">
					<dim>2</dim>
				</port>
			</output>
			<blobs>
				<custom offset="2021316" size="8"/>
			</blobs>
		</layer>
		<layer id="110" name="496" precision="FP16" type="Reshape">
			<input>
				<port id="0">
					<dim>1</dim>
					<dim>19</dim>
					<dim>19</dim>
					<dim>18</dim>
				</port>
				<port id="1">
					<dim>2</dim>
				</port>
			</input>
			<output>
				<port id="2">
					<dim>1</dim>
					<dim>6498</dim>
				</port>
			</output>
		</layer>
		<layer id="111" name="497" precision="FP16" type="Concat">
			<data axis="1"/>
			<input>
				<port id="0">
					<dim>1</dim>
					<dim>6498</dim>
				</port>
			</input>
			<output>
				<port id="1">
					<dim>1</dim>
					<dim>6498</dim>
				</port>
			</output>
		</layer>
		<layer id="112" name="506/Output_0/Data__const" precision="I32" type="Const">
			<output>
				<port id="1">
					<dim>3</dim>
				</port>
			</output>
			<blobs>
				<custom offset="2041520" size="12"/>
			</blobs>
		</layer>
		<layer id="113" name="507" precision="FP16" type="Reshape">
			<input>
				<port id="0">
					<dim>1</dim>
					<dim>6498</dim>
				</port>
				<port id="1">
					<dim>3</dim>
				</port>
			</input>
			<output>
				<port id="2">
					<dim>1</dim>
					<dim>3249</dim>
					<dim>2</dim>
				</port>
			</output>
		</layer>
		<layer id="114" name="508" precision="FP16" type="SoftMax">
			<data axis="2"/>
			<input>
				<port id="0">
					<dim>1</dim>
					<dim>3249</dim>
					<dim>2</dim>
				</port>
			</input>
			<output>
				<port id="1">
					<dim>1</dim>
					<dim>3249</dim>
					<dim>2</dim>
				</port>
			</output>
		</layer>
		<layer id="115" name="515/Output_0/Data__const" precision="I32" type="Const">
			<output>
				<port id="1">
					<dim>2</dim>
				</port>
			</output>
			<blobs>
				<custom offset="2021316" size="8"/>
			</blobs>
		</layer>
		<layer id="116" name="516" precision="FP16" type="Reshape">
			<input>
				<port id="0">
					<dim>1</dim>
					<dim>3249</dim>
					<dim>2</dim>
				</port>
				<port id="1">
					<dim>2</dim>
				</port>
			</input>
			<output>
				<port id="2">
					<dim>1</dim>
					<dim>6498</dim>
				</port>
			</output>
		</layer>
		<layer id="117" name="486" precision="FP16" type="PriorBoxClustered">
			<data clip="0" flip="0" height="15.0,39.6,25.5,63.2,227.5,162.9,124.5,105.1,72.6" img_h="0" img_size="0" img_w="0" offset="0.5" step="16.0" step_h="0.0" step_w="0.0" variance="0.1,0.1,0.2,0.2" width="9.4,25.1,14.7,34.7,143.0,77.4,128.8,51.1,75.6"/>
			<input>
				<port id="0">
					<dim>1</dim>
					<dim>360</dim>
					<dim>19</dim>
					<dim>19</dim>
				</port>
				<port id="1">
					<dim>1</dim>
					<dim>3</dim>
					<dim>300</dim>
					<dim>300</dim>
				</port>
			</input>
			<output>
				<port id="2">
					<dim>1</dim>
					<dim>2</dim>
					<dim>12996</dim>
				</port>
			</output>
		</layer>
		<layer id="118" name="487" precision="FP16" type="Concat">
			<data axis="2"/>
			<input>
				<port id="0">
					<dim>1</dim>
					<dim>2</dim>
					<dim>12996</dim>
				</port>
			</input>
			<output>
				<port id="1">
					<dim>1</dim>
					<dim>2</dim>
					<dim>12996</dim>
				</port>
			</output>
		</layer>
		<layer id="119" name="527" precision="FP16" type="DetectionOutput">
			<data background_label_id="0" code_type="caffe.PriorBoxParameter.CENTER_SIZE" confidence_threshold="0.019999999552965164" eta="1.0" height="0" height_scale="0" input_height="1" input_width="1" interp_mode="" keep_top_k="200" nms_threshold="0.44999998807907104" normalized="1" num_classes="2" pad_mode="" pad_value="" prob="0" resize_mode="" share_location="1" top_k="200" variance_encoded_in_target="0" visualize_threshold="0.6" width="0" width_scale="0"/>
			<input>
				<port id="0">
					<dim>1</dim>
					<dim>12996</dim>
				</port>
				<port id="1">
					<dim>1</dim>
					<dim>6498</dim>
				</port>
				<port id="2">
					<dim>1</dim>
					<dim>2</dim>
					<dim>12996</dim>
				</port>
			</input>
			<output>
				<port id="3">
					<dim>1</dim>
					<dim>1</dim>
					<dim>200</dim>
					<dim>7</dim>
				</port>
			</output>
		</layer>
	</layers>
	<edges>
		<edge from-layer="0" from-port="0" to-layer="1" to-port="0"/>
		<edge from-layer="1" from-port="1" to-layer="2" to-port="0"/>
		<edge from-layer="2" from-port="3" to-layer="3" to-port="0"/>
		<edge from-layer="3" from-port="3" to-layer="4" to-port="0"/>
		<edge from-layer="4" from-port="1" to-layer="5" to-port="0"/>
		<edge from-layer="5" from-port="3" to-layer="6" to-port="0"/>
		<edge from-layer="6" from-port="1" to-layer="7" to-port="0"/>
		<edge from-layer="7" from-port="3" to-layer="8" to-port="0"/>
		<edge from-layer="8" from-port="3" to-layer="9" to-port="0"/>
		<edge from-layer="9" from-port="1" to-layer="10" to-port="0"/>
		<edge from-layer="10" from-port="3" to-layer="11" to-port="0"/>
		<edge from-layer="11" from-port="1" to-layer="12" to-port="0"/>
		<edge from-layer="12" from-port="3" to-layer="13" to-port="0"/>
		<edge from-layer="13" from-port="3" to-layer="14" to-port="0"/>
		<edge from-layer="14" from-port="1" to-layer="15" to-port="0"/>
		<edge from-layer="15" from-port="3" to-layer="16" to-port="0"/>
		<edge from-layer="16" from-port="1" to-layer="17" to-port="0"/>
		<edge from-layer="12" from-port="3" to-layer="18" to-port="0"/>
		<edge from-layer="17" from-port="3" to-layer="18" to-port="1"/>
		<edge from-layer="18" from-port="2" to-layer="19" to-port="0"/>
		<edge from-layer="19" from-port="3" to-layer="20" to-port="0"/>
		<edge from-layer="20" from-port="1" to-layer="21" to-port="0"/>
		<edge from-layer="21" from-port="3" to-layer="22" to-port="0"/>
		<edge from-layer="22" from-port="1" to-layer="23" to-port="0"/>
		<edge from-layer="23" from-port="3" to-layer="24" to-port="0"/>
		<edge from-layer="24" from-port="3" to-layer="25" to-port="0"/>
		<edge from-layer="25" from-port="1" to-layer="26" to-port="0"/>
		<edge from-layer="26" from-port="3" to-layer="27" to-port="0"/>
		<edge from-layer="27" from-port="1" to-layer="28" to-port="0"/>
		<edge from-layer="23" from-port="3" to-layer="29" to-port="0"/>
		<edge from-layer="28" from-port="3" to-layer="29" to-port="1"/>
		<edge from-layer="29" from-port="2" to-layer="30" to-port="0"/>
		<edge from-layer="30" from-port="3" to-layer="31" to-port="0"/>
		<edge from-layer="31" from-port="1" to-layer="32" to-port="0"/>
		<edge from-layer="32" from-port="3" to-layer="33" to-port="0"/>
		<edge from-layer="33" from-port="1" to-layer="34" to-port="0"/>
		<edge from-layer="29" from-port="2" to-layer="35" to-port="0"/>
		<edge from-layer="34" from-port="3" to-layer="35" to-port="1"/>
		<edge from-layer="35" from-port="2" to-layer="36" to-port="0"/>
		<edge from-layer="36" from-port="3" to-layer="37" to-port="0"/>
		<edge from-layer="37" from-port="1" to-layer="38" to-port="0"/>
		<edge from-layer="38" from-port="3" to-layer="39" to-port="0"/>
		<edge from-layer="39" from-port="1" to-layer="40" to-port="0"/>
		<edge from-layer="40" from-port="3" to-layer="41" to-port="0"/>
		<edge from-layer="41" from-port="3" to-layer="42" to-port="0"/>
		<edge from-layer="42" from-port="1" to-layer="43" to-port="0"/>
		<edge from-layer="43" from-port="3" to-layer="44" to-port="0"/>
		<edge from-layer="44" from-port="1" to-layer="45" to-port="0"/>
		<edge from-layer="40" from-port="3" to-layer="46" to-port="0"/>
		<edge from-layer="45" from-port="3" to-layer="46" to-port="1"/>
		<edge from-layer="46" from-port="2" to-layer="47" to-port="0"/>
		<edge from-layer="47" from-port="3" to-layer="48" to-port="0"/>
		<edge from-layer="48" from-port="1" to-layer="49" to-port="0"/>
		<edge from-layer="49" from-port="3" to-layer="50" to-port="0"/>
		<edge from-layer="50" from-port="1" to-layer="51" to-port="0"/>
		<edge from-layer="46" from-port="2" to-layer="52" to-port="0"/>
		<edge from-layer="51" from-port="3" to-layer="52" to-port="1"/>
		<edge from-layer="52" from-port="2" to-layer="53" to-port="0"/>
		<edge from-layer="53" from-port="3" to-layer="54" to-port="0"/>
		<edge from-layer="54" from-port="1" to-layer="55" to-port="0"/>
		<edge from-layer="55" from-port="3" to-layer="56" to-port="0"/>
		<edge from-layer="56" from-port="1" to-layer="57" to-port="0"/>
		<edge from-layer="52" from-port="2" to-layer="58" to-port="0"/>
		<edge from-layer="57" from-port="3" to-layer="58" to-port="1"/>
		<edge from-layer="58" from-port="2" to-layer="59" to-port="0"/>
		<edge from-layer="59" from-port="3" to-layer="60" to-port="0"/>
		<edge from-layer="60" from-port="1" to-layer="61" to-port="0"/>
		<edge from-layer="61" from-port="3" to-layer="62" to-port="0"/>
		<edge from-layer="62" from-port="1" to-layer="63" to-port="0"/>
		<edge from-layer="63" from-port="3" to-layer="64" to-port="0"/>
		<edge from-layer="64" from-port="3" to-layer="65" to-port="0"/>
		<edge from-layer="65" from-port="1" to-layer="66" to-port="0"/>
		<edge from-layer="66" from-port="3" to-layer="67" to-port="0"/>
		<edge from-layer="67" from-port="1" to-layer="68" to-port="0"/>
		<edge from-layer="63" from-port="3" to-layer="69" to-port="0"/>
		<edge from-layer="68" from-port="3" to-layer="69" to-port="1"/>
		<edge from-layer="69" from-port="2" to-layer="70" to-port="0"/>
		<edge from-layer="70" from-port="3" to-layer="71" to-port="0"/>
		<edge from-layer="71" from-port="1" to-layer="72" to-port="0"/>
		<edge from-layer="72" from-port="3" to-layer="73" to-port="0"/>
		<edge from-layer="73" from-port="1" to-layer="74" to-port="0"/>
		<edge from-layer="69" from-port="2" to-layer="75" to-port="0"/>
		<edge from-layer="74" from-port="3" to-layer="75" to-port="1"/>
		<edge from-layer="75" from-port="2" to-layer="76" to-port="0"/>
		<edge from-layer="76" from-port="3" to-layer="77" to-port="0"/>
		<edge from-layer="77" from-port="1" to-layer="78" to-port="0"/>
		<edge from-layer="78" from-port="3" to-layer="79" to-port="0"/>
		<edge from-layer="79" from-port="1" to-layer="80" to-port="0"/>
		<edge from-layer="80" from-port="3" to-layer="81" to-port="0"/>
		<edge from-layer="81" from-port="3" to-layer="82" to-port="0"/>
		<edge from-layer="82" from-port="1" to-layer="83" to-port="0"/>
		<edge from-layer="83" from-port="3" to-layer="84" to-port="0"/>
		<edge from-layer="84" from-port="1" to-layer="85" to-port="0"/>
		<edge from-layer="80" from-port="3" to-layer="86" to-port="0"/>
		<edge from-layer="85" from-port="3" to-layer="86" to-port="1"/>
		<edge from-layer="86" from-port="2" to-layer="87" to-port="0"/>
		<edge from-layer="87" from-port="3" to-layer="88" to-port="0"/>
		<edge from-layer="88" from-port="1" to-layer="89" to-port="0"/>
		<edge from-layer="89" from-port="3" to-layer="90" to-port="0"/>
		<edge from-layer="90" from-port="1" to-layer="91" to-port="0"/>
		<edge from-layer="86" from-port="2" to-layer="92" to-port="0"/>
		<edge from-layer="91" from-port="3" to-layer="92" to-port="1"/>
		<edge from-layer="92" from-port="2" to-layer="93" to-port="0"/>
		<edge from-layer="93" from-port="3" to-layer="94" to-port="0"/>
		<edge from-layer="94" from-port="1" to-layer="95" to-port="0"/>
		<edge from-layer="95" from-port="3" to-layer="96" to-port="0"/>
		<edge from-layer="96" from-port="1" to-layer="97" to-port="0"/>
		<edge from-layer="97" from-port="3" to-layer="98" to-port="0"/>
		<edge from-layer="98" from-port="3" to-layer="99" to-port="0"/>
		<edge from-layer="99" from-port="1" to-layer="100" to-port="0"/>
		<edge from-layer="100" from-port="3" to-layer="101" to-port="0"/>
		<edge from-layer="101" from-port="1" to-layer="103" to-port="0"/>
		<edge from-layer="102" from-port="1" to-layer="103" to-port="1"/>
		<edge from-layer="103" from-port="2" to-layer="104" to-port="0"/>
		<edge from-layer="97" from-port="3" to-layer="105" to-port="0"/>
		<edge from-layer="105" from-port="3" to-layer="106" to-port="0"/>
		<edge from-layer="106" from-port="1" to-layer="107" to-port="0"/>
		<edge from-layer="107" from-port="3" to-layer="108" to-port="0"/>
		<edge from-layer="108" from-port="1" to-layer="110" to-port="0"/>
		<edge from-layer="109" from-port="1" to-layer="110" to-port="1"/>
		<edge from-layer="110" from-port="2" to-layer="111" to-port="0"/>
		<edge from-layer="111" from-port="1" to-layer="113" to-port="0"/>
		<edge from-layer="112" from-port="1" to-layer="113" to-port="1"/>
		<edge from-layer="113" from-port="2" to-layer="114" to-port="0"/>
		<edge from-layer="114" from-port="1" to-layer="116" to-port="0"/>
		<edge from-layer="115" from-port="1" to-layer="116" to-port="1"/>
		<edge from-layer="97" from-port="3" to-layer="117" to-port="0"/>
		<edge from-layer="1" from-port="1" to-layer="117" to-port="1"/>
		<edge from-layer="117" from-port="2" to-layer="118" to-port="0"/>
		<edge from-layer="104" from-port="1" to-layer="119" to-port="0"/>
		<edge from-layer="116" from-port="2" to-layer="119" to-port="1"/>
		<edge from-layer="118" from-port="1" to-layer="119" to-port="2"/>
	</edges>
	<meta_data>
		<MO_version value="2019.3.0-227-g3a4f9de20"/>
		<cli_parameters>
			<blobs_as_inputs value="False"/>
			<caffe_parser_path value="DIR"/>
			<data_type value="FP16"/>
			<disable_nhwc_to_nchw value="False"/>
			<disable_omitting_optional value="False"/>
			<disable_resnet_optimization value="False"/>
			<enable_concat_optimization value="False"/>
			<enable_flattening_nested_params value="False"/>
			<enable_ssd_gluoncv value="False"/>
			<extensions value="DIR"/>
			<framework value="onnx"/>
			<freeze_placeholder_with_value value="{}"/>
			<generate_experimental_IR_V10 value="False"/>
			<input value="input.1"/>
			<input_model value="DIR/mobilenetv2_fd_single_head.onnx"/>
			<input_model_is_text value="False"/>
			<input_shape value="[1,3,300,300]"/>
			<k value="DIR/CustomLayersMapping.xml"/>
			<keep_quantize_ops_in_IR value="False"/>
			<keep_shape_ops value="False"/>
			<legacy_mxnet_model value="False"/>
			<log_level value="ERROR"/>
			<mean_scale_values value="{'input.1': {'mean': None, 'scale': array([254.99991075])}}"/>
			<mean_values value="()"/>
			<model_name value="face-detection-retail-0005"/>
			<move_to_preprocess value="False"/>
			<output_dir value="DIR"/>
			<placeholder_shapes value="{'input.1': array([  1,   3, 300, 300])}"/>
			<remove_memory value="False"/>
			<remove_output_softmax value="False"/>
			<reverse_input_channels value="True"/>
			<save_params_from_nd value="False"/>
			<scale_values value="input.1[254.99991075003123]"/>
			<silent value="False"/>
			<steps value="False"/>
			<version value="False"/>
			<unset unset_cli_parameters="batch, counts, disable_fusing, disable_gfusing, finegrain_fusing, generate_deprecated_IR_V2, input_checkpoint, input_meta_graph, input_proto, input_symbol, mean_file, mean_file_offsets, nd_prefix_name, output, pretrained_model_name, saved_model_dir, saved_model_tags, scale, tensorboard_logdir, tensorflow_custom_layer_libraries, tensorflow_custom_operations_config_update, tensorflow_object_detection_api_pipeline_config, tensorflow_operation_patterns, tensorflow_subgraph_patterns, tensorflow_use_custom_operations_config"/>
		</cli_parameters>
	</meta_data>
</net>
